ckpt/ckpt3/camera_model.pth (torch, 218894 bytes, 16 tensors)

input.0.weight f4 [8, 3, 3, 3]
0	0x3d6dc664	0.05805053
1	0xbd0d3c19	-0.03448114
2	0xbda3cb84	-0.07997802
3	0xbc497728	-0.0122964755
4	0x3e43b12a	0.19110551
5	0x3d8ac106	0.067750975
6	0x3d6ebfa3	0.058288228
7	0x3d884163	0.066530965
8	0xbbcdaa1a	-0.006276381
9	0x3dd10857	0.10206669
10	0x3d4aa568	0.04947415
11	0x3e488306	0.19581231
12	0xbd073e0c	-0.033018157
13	0xbd970c3b	-0.0737538
14	0x3c3947e6	0.011308646
15	0xbd9ebb5d	-0.077505805
16	0x3e5ed8cf	0.21762393
17	0xbc9ddb54	-0.019269623
18	0x3ca75309	0.020425336
19	0xbdb53793	-0.088484906
20	0xbdee1896	-0.11625783
21	0xbdcc6f7d	-0.09982202
22	0xbe2c2649	-0.1681148
23	0x3c6bfec4	0.014404003
24	0xbdf9b210	-0.12192166
25	0x3d37365c	0.044729576
26	0xbe29bd8d	-0.16576214
27	0xbd114f16	-0.035475813
28	0xbdafe946	-0.08589415
29	0x3cc966e3	0.024585193
30	0xbcb24418	-0.021760985
31	0x3e8497ec	0.25897157
32	0xbd017fec	-0.031616136
33	0xbe1d88ab	-0.15384166
34	0xbd6db239	-0.058031294
35	0xbb167637	-0.0022958645
36	0xbd8db2c5	-0.06918863
37	0xbd60fcef	-0.054928716
38	0xbe096c86	-0.13420305
39	0x3d833f82	0.064085975
40	0x3e2e70f3	0.17035274
41	0x3e2726b3	0.16323356
42	0x3d7bcdbe	0.061475508
43	0xbdf026a1	-0.11726118
44	0xbe277500	-0.16353226
45	0x3d0413a7	0.032245304
46	0x3d88fcc2	0.06688835
47	0x3d6bcc34	0.05756779
48	0xbd5fba41	-0.054620985
49	0x3db5914c	0.08865604
50	0xbe2a3f91	-0.16625811
51	0xbc854e0d	-0.01627257
52	0x3dcce9c2	0.10005523
53	0x3ce85ac5	0.028363595
54	0x3c6faad4	0.014628131
55	0xbd6ddca0	-0.058071733
56	0xbe361245	-0.17780407
57	0x3e26a16e	0.16272518
58	0x3bc37e3c	0.005965976
59	0xbdebd362	-0.115149274
60	0x3d562169	0.052277956
61	0xbb9b2e5a	-0.00473575
62	0xbdb39a53	-0.087696694
63	0xbe1afb1b	-0.15134852
64	0xbc9773b6	-0.018487792
65	0x3dddd734	0.10832062
66	0x3e15a5f8	0.14614093
67	0x3e392af7	0.18082796
68	0x3d8f2603	0.06989672
69	0x3bc2b077	0.0059414464
70	0x3e175571	0.14778687
71	0xbd13216c	-0.035920545
72	0xbdda480d	-0.10658274
73	0xbda216d3	-0.079145096
74	0xbd9a613d	-0.07538078
75	0x3d1642a7	0.03668466
76	0xbcd68f42	-0.026191358
77	0xbdc85ceb	-0.09783348
78	0x3de582f4	0.11206618
79	0x3b8dddb7	0.004329409
80	0x3d199ef0	0.03750509
81	0xbe074a34	-0.132119
82	0x3e1dc8f8	0.15408695
83	0xbe29bedf	-0.16576718
84	0x3e40361f	0.18770646
85	0x3da6b3b2	0.08139743
86	0xbd0a27dc	-0.03372942
87	0xbc44d54e	-0.012013746
88	0xbe2a0ebf	-0.16607188
89	0x3d40decf	0.047087487
90	0x3da4ca74	0.08046427
91	0xbe14dfd0	-0.14538503
92	0xbe332aa5	-0.17496736
93	0xbe074891	-0.13211276
94	0xbd22b51d	-0.039723504
95	0xbbfa123a	-0.0076315673
96	0xbe3118d8	-0.17294633
97	0x3dbd5ab5	0.092458166
98	0xbb247a1d	-0.00250972
99	0x3d4fc5f7	0.050725903
100	0xbcc14f29	-0.023597317
101	0x3e23502e	0.15948555
102	0xbe1355a0	-0.14388132
103	0x3e44a17a	0.19202223
104	0x3e3afd5f	0.18260716
105	0x3d9defb8	0.07711738
106	0xbca3a376	-0.019975405
107	0x3e475329	0.19465317
108	0xbd89c0b7	-0.067262106
109	0xbe4a40ac	-0.19751233
110	0x3d0973f2	0.03355784
111	0x3d0aa4c9	0.033848558
112	0x3ca16fa7	0.01970656
113	0x3e2cc56c	0.16872185
114	0x3d1e1025	0.038589615
115	0x3de7784e	0.11302243
116	0x3d2b0987	0.041757133
117	0xbe291ce2	-0.16514924
118	0x3cc5f20c	0.024163269
119	0x3e21f5b4	0.15816385
120	0x3dbde085	0.09271339
121	0xbd7674b5	-0.060169894
122	0x3e0ecfc8	0.1394645
123	0x3d75e96c	0.06003706
124	0xbe1ce423	-0.15321402
125	0x3d2cd979	0.042199586
126	0x3df11b8c	0.11772832
127	0x3d8e0d35	0.06936113
128	0xbca26fd6	-0.019828718
129	0xbb6dbca3	-0.0036275766
130	0x3e3978c0	0.18112469
131	0x3e2d0b8c	0.16898936
132	0xbde43f13	-0.11144843
133	0x3e1b2a8c	0.15152949
134	0x3e31c37b	0.17359726
135	0xbcf843b6	-0.030305725
136	0x3e33f166	0.17572555
137	0xbd06acf5	-0.03287979
138	0xbe157e0e	-0.14598867
139	0xbdee49b3	-0.11635151
140	0x3ddf5cfe	0.10906409
141	0xbe3313de	-0.17488047
142	0x3c01b12e	0.007915778
143	0x3d5a12ed	0.053240705
144	0xbccfdf68	-0.025375083
145	0x3e0775e1	0.13228561
146	0x3cad655e	0.0211665
147	0xbde885a7	-0.11353617
148	0x3e4af1cd	0.19818802
149	0xbdcbcb4c	-0.09950885
150	0xbdabe8c7	-0.08394008
151	0xbc3e7bf0	-0.011626229
152	0x3e0e7586	0.13912019
153	0xbdacccfa	-0.08437534
154	0x3e434edb	0.1907305
155	0x3cacd423	0.021097248
156	0xbbdead6e	-0.006795577
157	0x3da9c65c	0.08289787
158	0x3d90624d	0.070499994
159	0xbd8a044c	-0.06739101
160	0xbdeacea5	-0.114651956
161	0xbdde33f9	-0.10849757
162	0xbdf5b2af	-0.11996972
163	0x3e2da557	0.16957603
164	0x3e1f0517	0.15529285
165	0x3d3b1ced	0.045681883
166	0x3df1039a	0.11768265
167	0x3de78f9a	0.11306687
168	0x3e1a467c	0.1506595
169	0xbdbba44e	-0.09162198
170	0xbbd21b93	-0.0064119785
171	0x3dfc0be3	0.12306955
172	0xbcb31c38	-0.021864042
173	0xbd9426dc	-0.07233974
174	0x3e018682	0.12648967
175	0x3d66e225	0.056368012
176	0x3df1474a	0.117811754
177	0x3d400abc	0.046885237
178	0xbe312448	-0.17298996
179	0x3dc7f112	0.097627774
180	0x3d46317e	0.048387043
181	0x3da21a30	0.07915151
182	0xbd68350f	-0.056691226
183	0xbbae758f	-0.0053240727
184	0xbe4fb290	-0.2028296
185	0x3dab6c21	0.08370233
186	0xbd39f851	-0.04540283
187	0x3db19214	0.0867044
188	0xbdb558ff	-0.08854865
189	0xbc9df485	-0.019281635
190	0xbd9d5d16	-0.0768377
191	0x3d9dd615	0.077068485
192	0xbe5f6a0c	-0.21817797
193	0x3e092ff7	0.13397203
194	0x3e1739d5	0.14768155
195	0x3e2e7175	0.17035468
196	0xbe1baa7d	-0.15201755
197	0xbe5353bd	-0.20637412
198	0x3d8923d0	0.06696284
199	0x3cdddf9d	0.027084166
200	0xbe041a5a	-0.12900677
201	0x3c17f990	0.009275809
202	0x3e31acb6	0.1735104
203	0xbe09942a	-0.13435426
204	0x3df7a102	0.12091257
205	0xbbb9bb82	-0.0056681046
206	0x3d966512	0.073434964
207	0xbe34d6c2	-0.17660049
208	0x3dd41e19	0.10357303
209	0x3cb3e942	0.021961812
210	0xbd135dd2	-0.035978146
211	0x3e03c7d6	0.128692
212	0x3e122dbb	0.14275257
213	0x3c1e1e86	0.009650832
214	0xbc1d41ea	-0.009598235
215	0x3e0e2af0	0.13883567

input.0.bias f4 [8]
0	0x3e04e609	0.12978376
1	0xbda29dc7	-0.0794025
2	0x3aacc1a7	0.0013180271
3	0xbe19735c	-0.14985412
4	0xbe50193d	-0.20322128
5	0xbe003024	-0.12518364
6	0x3e8b3f96	0.2719695
7	0xbcd3321b	-0.025780728

conv1.0.weight f4 [16, 8, 3, 3]
0	0x3caf862e	0.021426287
1	0x3d173bf7	0.03692242
2	0xbd3639b1	-0.044488613
3	0x3c35b739	0.011091047
4	0x3c6bbc42	0.014388146
5	0xbd8735e1	-0.066020735
6	0xbe044af0	-0.12919211
7	0x3db22751	0.08698905
8	0x3d8f1486	0.069863364
9	0xbdd2be8b	-0.102902494
10	0x3dd6588f	0.1046611
11	0xbe3b0327	-0.18262921
12	0x3dd11a10	0.10210049
13	0x3ccdc3e2	0.025117818
14	0x3ce94eab	0.028479895
15	0xbe02d514	-0.12776595
16	0xbd7d9a8d	-0.06191497
17	0xbc981f85	-0.018569717
18	0x3d9009ab	0.07033094
19	0x3cd4e28b	0.02598693
20	0x3c580056	0.013183674
21	0xbd70b7da	-0.058769085
22	0x3cc2011a	0.023682166
23	0x3de3d814	0.11125198
24	0xbdaf2d63	-0.08553579
25	0xbdfe3ce6	-0.12413959
26	0xbdf12da2	-0.11776282
27	0x3c9b3316	0.018945258
28	0xbc2770bb	-0.010219748
29	0x3d2922ae	0.04129284
30	0xbdd223bf	-0.10260724
31	0xbcc9eee1	-0.02465004
32	0x3d992a14	0.07478729
33	0x3c314ce4	0.010821555
34	0xbdbe8261	-0.093022116
35	0x3dbc2434	0.09186593
36	0x3de826e1	0.113355406
37	0xbb096784	-0.002096624
38	0xbcd62372	-0.026139949
39	0x3dc3d61c	0.095623225
40	0xbde0e366	-0.10980873
41	0x3d4b9ad1	0.04970819
42	0xbd80989a	-0.062791064
43	0xbde5fd08	-0.112299025
44	0x3da20d5b	0.079127036
45	0xbd95c5e0	-0.07313132
46	0x3dc97239	0.09836239
47	0xbe063369	-0.13105549
48	0x3d2aca53	0.041696858
49	0xbc2fa985	-0.010721569
50	0xbd82d07b	-0.06387421
51	0xbdc210b0	-0.09475839
52	0x3d84c7e2	0.06483437
53	0x3d1af6ba	0.037832953
54	0x3d1adb4a	0.037806787
55	0xbcbf6361	-0.023362817
56	0xbc016879	-0.007898443
57	0xbde2c38e	-0.11072455
58	0xbc99d753	-0.018779432
59	0x3dae1fae	0.08502136
60	0x3d58a57c	0.052892193
61	0x3d404c0e	0.04694753
62	0xbd4b6851	-0.04966003
63	0xbd81ebd8	-0.06343812
64	0xbda7b6b0	-0.08189142
65	0xbde1a13d	-0.11017082
66	0x3d663946	0.056206964
67	0x3de17df0	0.11010349
68	0x3d90f2eb	0.07077583
69	0xbda333ce	-0.07968865
70	0xbddd749e	-0.108132586
71	0x3d2730ab	0.040817898
72	0x3d576fca	0.052596845
73	0x3d9ecd64	0.07754019
74	0xbcb7bf77	-0.022430165
75	0xbcb9015a	-0.022583652
76	0xbc139384	-0.009007338
77	0x3dc1f55e	0.09470628
78	0xbe02b1cb	-0.12763135
79	0xbda9746a	-0.08274157
80	0x3cce7ab8	0.025205001
81	0xbda92116	-0.08258264
82	0xbd79af14	-0.060957983
83	0x3daa2cb7	0.0830931
84	0x3e0268a8	0.12735236
85	0xbe28d564	-0.16487652
86	0x3d5185b8	0.051152915
87	0xbe46830a	-0.19385925
88	0xbd65a5a7	-0.05606618
89	0x3de50512	0.11182608
90	0x3db8811d	0.090090014
91	0xba8a525a	-0.0010553107
92	0x3d5fddfc	0.05465506
93	0xbcfa6641	-0.030566337
94	0x3dbdb4ba	0.092629865
95	0xbd213e56	-0.03936609
96	0x3d08cc64	0.033398047
97	0xbe09abc6	-0.13444433
98	0xbdb5b385	-0.08872131
99	0x3bd695fd	0.0065486417
100	0x3dec65b8	0.11542839
101	0x3d09adf3	0.033613157
102	0xbd3a259b	-0.04544602
103	0xbdaa145d	-0.08304665
104	0xbafe29c5	-0.001939111
105	0xbe036929	-0.12833084
106	0xbd643d6a	-0.05572263
107	0xbd7b1a34	-0.061304286
108	0x3da70e79	0.08157057
109	0x3dd3c63d	0.10340545
110	0xbd47b9cc	-0.048761174
111	0x3c704e7c	0.01466715
112	0xbc35c1f5	-0.011093606
113	0xbce0e636	-0.027453523
114	0xbd1454fd	-0.036213864
115	0xbc117a8e	-0.008879317
116	0x3d9f593a	0.077806905
117	0x3d4aba05	0.04949381
118	0xbbac1a51	-0.0052521606
119	0x3d86edf9	0.065883584
120	0x3c2a430d	0.010391963
121	0xbc8999e5	-0.016797015
122	0x3dbd63c9	0.09247548
123	0xbe11b255	-0.14228185
124	0xbdbd9be1	-0.09258247
125	0x3d568095	0.05236872
126	0xbc4bebc2	-0.012446346
127	0xbda4127b	-0.08011337
128	0xbdc023b4	-0.0938181
129	0x3c0d413b	0.008621509
130	0xbcb249ac	-0.021763645
131	0xbd75426d	-0.0598778
132	0xbda2f180	-0.07956219
133	0x3d9cb51b	0.076517306
134	0x3df4fc5b	0.119621955
135	0x3aacb9b9	0.0013177908
136	0xbc099a27	-0.008398569
137	0x3dd5dda5	0.10442666
138	0x3c34dd65	0.011039113
139	0xbde1ba77	-0.110218935
140	0xbd933a7b	-0.07188889
141	0xbd832d49	-0.06405122
142	0xbce8dc35	-0.028425315
143	0xbd820ec5	-0.06350473
144	0x3dc05618	0.09391421
145	0x3c971b29	0.018445568
146	0xbd5d6e95	-0.054060537
147	0x3c87f9e5	0.016598651
148	0x3d3dcf76	0.04634043
149	0xbcb0830f	-0.021546869
150	0xbdb5b919	-0.08873195
151	0x3d9359c5	0.071948566
152	0xbe296e5d	-0.16546007
153	0x3d060d41	0.032727484
154	0x3d75efb5	0.060043056
155	0xbd2f9965	-0.042870898
156	0x3e30a270	0.17249465
157	0xba130b60	-0.00056093
158	0x3c7fc857	0.01561173
159	0xbd8bf1dd	-0.06833241
160	0xbd85a554	-0.065256745
161	0xbd2e536e	-0.042560034
162	0x3d8f8a39	0.07008786
163	0xbd3476bc	-0.044058546
164	0xbc0249bb	-0.007952149
165	0x3d0a675b	0.033789974
166	0x3dfd67b3	0.12373295
167	0xbd044ab8	-0.03229782
168	0x3e1dbf8f	0.15405105
169	0xbd946d91	-0.07247461
170	0xbcbc4690	-0.022982866
171	0xbcfbe0b3	-0.030746793
172	0xbd1e76a1	-0.038687352
173	0x3c3d15e4	0.011540864
174	0x3db11082	0.08645727
175	0x3d5bd813	0.05367286
176	0xbdcc06cf	-0.09962236
177	0x3cf96c53	0.03044716
178	0xbd7698f8	-0.060204476
179	0xbbec0e7c	-0.007203875
180	0x3dd69a55	0.10478655
181	0xbd0cef4e	-0.034407906
182	0x3d83cafe	0.06435202
183	0x3dc2f9db	0.095203124
184	0xbd14ced7	-0.03633007
185	0xbd5225c8	-0.051305562
186	0xbd356960	-0.044289947
187	0x3cb80e8d	0.022467876
188	0xbdb78420	-0.08960748
189	0xbc8f94b4	-0.017526962
190	0x3e0965ed	0.13417788
191	0x3d23a5ec	0.039953157
192	0x3d27fc40	0.04101205
193	0xbcbbc202	-0.022919659
194	0xbe00f593	-0.12593679
195	0x3d22151f	0.039570924
196	0xb9127bd5	-0.00013969776
197	0xbda361fb	-0.07977673
198	0x3d556d2e	0.052106075
199	0xbd65d53c	-0.05611156
200	0xbd00f5a3	-0.031484257
201	0x3dbe4891	0.09291185
202	0x3b9d82af	0.0048068385
203	0x3db400e6	0.08789234
204	0xbcc2f7be	-0.023799773
205	0xbda69f45	-0.08135847
206	0xbd99df76	-0.07513325
207	0x3aba49d7	0.001421268
208	0x3cb6d882	0.022320036
209	0xbd4a94de	-0.049458377
210	0x3df16f4a	0.11788805
211	0x3da42b6b	0.08016094
212	0xbbb1d7e5	-0.005427348
213	0x3d86d2f9	0.065832086
214	0x3c4d5911	0.012533442
215	0xbdc0a764	-0.09406927
216	0xbd390405	-0.04516985
217	0xbdae8fb1	-0.08523501
218	0xbd7bb8fe	-0.06145572
219	0x3dfd7be6	0.123771474
220	0xbccd5f9e	-0.025070008
221	0xbd960584	-0.07325271
222	0x3d8472c2	0.06467201
223	0xbd7d7e9d	-0.061888326
224	0xbd90680e	-0.07051097
225	0xbde1466d	-0.10999761
226	0xbd88dae9	-0.06682379
227	0x3d51325d	0.05107342
228	0x3db64055	0.08898989
229	0x3cd8b642	0.026454095
230	0xbdaa333f	-0.08310556
231	0xbd9b6e8d	-0.07589445
232	0xbdbe2c58	-0.09285802
233	0x3cc1ebc8	0.023672
234	0xbdce931e	-0.10086654
235	0xbd96ea4d	-0.07368908
236	0xbdb9b2f1	-0.090673335
237	0x3dd320e2	0.10309006
238	0xbdb1e9d5	-0.08687178
239	0x3d8b74a7	0.06809359
240	0x3cbe671b	0.023242524
241	0xbdc7a7a5	-0.097487725
242	0x3d79ffea	0.061035074
243	0xbddbbb1e	-0.10729049
244	0x3cd064f9	0.025438773
245	0xbdd6eb0d	-0.10494051
246	0xbcdac361	-0.026704492
247	0xbdbca431	-0.092110045
248	0xbd4f5a75	-0.050623376
249	0x3d9beb37	0.07613223
250	0xbe13c914	-0.14432174
251	0x3d8ecd68	0.06972772
252	0x3d5fe131	0.05465812
253	0x3d4f4ebf	0.050612208
254	0xbdacc974	-0.08436862
255	0x3dc538ce	0.09629975

conv1.0.bias f4 [16]
0	0xbab8f2bf	-0.001411043
1	0x3cd6cee7	0.026221706
2	0xbe33d0e0	-0.17560148
3	0x3ce45ac4	0.027875312
4	0xbdcd2781	-0.100173004
5	0x3e96f34c	0.29482496
6	0x3b4d7a79	0.0031353517
7	0xbd710942	-0.05884672
8	0x3ded8ff8	0.115997255
9	0x3d6caf44	0.057784334
10	0xbc8dcc60	-0.017309368
11	0x3d4ebfcc	0.05047588
12	0x3ea8fc53	0.33005008
13	0xbe977fb0	-0.29589605
14	0xbcbd5e9f	-0.023116408
15	0x3dcbbbff	0.09947967

conv2.0.weight f4 [32, 16, 3, 3]
0	0x3bfb85e2	0.007675872
1	0x3d2bed65	0.041974444
2	0xbd01bdab	-0.031675022
3	0x3d5ea872	0.05435986
4	0x3d1f8ae1	0.038950805
5	0x3cdc0589	0.026858108
6	0x3d599de8	0.053129107
7	0x3d8609a4	0.065448076
8	0x3dcde33a	0.10053106
9	0xbc9f1f9b	-0.01942425
10	0xbc835526	-0.016031813
11	0x3c1322d8	0.008980475
12	0xbcd572e6	-0.026055764
13	0xbd96f613	-0.07371154
14	0xbd569566	-0.05238857
15	0xbcc97afb	-0.024594774
16	0x3bc6bb9b	0.006064845
17	0xbd9f826a	-0.077885464
18	0xbd15acae	-0.036541633
19	0x3c5c74b4	0.013455559
20	0x39c80cbf	0.0003815647
21	0x3d82afdc	0.06381199
22	0x3d073a42	0.033014543
23	0xbc2c7641	-0.010526241
24	0xbd8e901f	-0.06961083
25	0xbc5ddaf1	-0.013540969
26	0x3d15f3e9	0.036609564
27	0xbd8abd57	-0.06774395
28	0xbda7ad54	-0.081873566
29	0x3d0ca2ac	0.034334823
30	0x3a50bdba	0.0007962842
31	0xbdb34a3f	-0.08754396
32	0xbcc9c279	-0.024628865
33	0x3c6e26e0	0.014535636
34	0x3cd1240e	0.025529888
35	0xbd44b7ab	-0.048026722
36	0xbd76514c	-0.060136124
37	0xbd9e1876	-0.07719509
38	0x3d8faade	0.07015012
39	0xbd37aa6c	-0.04484026
40	0x3cfa5228	0.030556753
41	0xbc1b4bee	-0.009478552
42	0x388df4a0	6.768969e-05
43	0x3db9e344	0.090765506
44	0x3d963da2	0.07335974
45	0x3d9048c4	0.07045129
46	0xbd82bd5b	-0.06383773
47	0xbca269c3	-0.019825822
48	0x3cd512d4	0.026009955
49	0xbc9072b3	-0.017632818
50	0x3d19174d	0.037375737
51	0x3a223367	0.0006187469
52	0xbcca324b	-0.024682185
53	0xbd47b48f	-0.04875618
54	0x3ccd1ecf	0.025039105
55	0x3c030fb3	0.007999348
56	0x3d236e7b	0.039900284
57	0xbc1bf273	-0.009518254
58	0x3d7c33f0	0.06157297
59	0xbd3c2366	-0.045932196
60	0x3d2c64b9	0.042088244
61	0x3cc24819	0.02371602
62	0xbd1e30e6	-0.038620852
63	0x3d5d6bf2	0.054058023
64	0xbda9dc39	-0.08293957
65	0xbcc0555e	-0.023478206
66	0xbd17a643	-0.037023794
67	0x3c94ca70	0.018162936
68	0x3caec76a	0.021335322
69	0x3c6591bf	0.014011799
70	0xbd8eb1be	-0.069674954
71	0xbdb0e7d1	-0.086379655
72	0x3d82c386	0.063849494
73	0x3d0346c3	0.032049906
74	0x3d8f0106	0.06982617
75	0xbd2768a4	-0.040871277
76	0xbd0b8cb1	-0.03406972
77	0x3d08b88d	0.033379126
78	0x3cc513aa	0.024057228
79	0x3d8b8df9	0.068141885
80	0x3c81297f	0.015766857
81	0xbd87ac2b	-0.06624635
82	0x3d888700	0.06666374
83	0xbd6f8ac5	-0.05848195
84	0x3c692a8b	0.014231334
85	0xbc866beb	-0.016408881
86	0xbd84a4d9	-0.06476755
87	0x3d718cf9	0.058972333
88	0xbdb602cd	-0.08887253
89	0xbd0078bf	-0.031365152
90	0xbcc40c31	-0.023931595
91	0x3c5107b7	0.012758187
92	0x3cf3d60b	0.02976515
93	0x3d495f20	0.049162984
94	0x3d65a1b4	0.056062415
95	0xbda69f07	-0.08135801
96	0xbd70cb31	-0.05878753
97	0x3dc1a45d	0.09455178
98	0xbcd360b3	-0.025802946
99	0xbb46ebfc	-0.003035306
100	0xb9538092	-0.00020170424
101	0xbd3c7fb9	-0.046020243
102	0xbb6b604d	-0.0035915554
103	0xbd40e647	-0.04709461
104	0x3c79d3d8	0.015248261
105	0xbdacd77d	-0.08439539
106	0xbd9316e8	-0.071821034
107	0xbd4e7411	-0.05040366
108	0xbdab0362	-0.083502546
109	0x3d12f7ea	0.03588096
110	0xbc9161eb	-0.017746886
111	0xbd182757	-0.037146892
112	0xbd7b9082	-0.06141711
113	0x3d9a652d	0.07538829
114	0xbd8dc131	-0.06921614
115	0xbd5947ad	-0.05304687
116	0xbcd5093a	-0.026005376
117	0x3cc8fcc3	0.024534589
118	0x3dafcde4	0.085841924
119	0xbd5148cf	-0.051094826
120	0x3c69fb5b	0.014281119
121	0x3d2d962b	0.04237954
122	0x3c3c7243	0.0115018515
123	0x3d77f759	0.060538623
124	0x3d0b5193	0.034013342
125	0x3d8f537a	0.06998344
126	0xbc91f591	-0.01781729
127	0xbbf19c47	-0.007373366
128	0x3d6c2997	0.05765685
129	0xbca89431	-0.020578476
130	0x3c1703b3	0.009217191
131	0xbd50c149	-0.05096558
132	0x3d1b0269	0.037844095
133	0x3d450d0c	0.048108146
134	0x3cb2b62f	0.021815388
135	0x3b22c29a	0.002483523
136	0xbdaae097	-0.08343618
137	0xbd8262e2	-0.06366517
138	0xbd4fcf47	-0.050734784
139	0xbda252df	-0.07925963
140	0xbd8694b3	-0.06571331
141	0xbdbfff07	-0.093748145
142	0x3cafe95e	0.021473583
143	0x3c4b40f2	0.012405621
144	0xbd2ee093	-0.04269464
145	0x3d8b009f	0.06787228
146	0x3dbd56c4	0.09245065
147	0xbd739d5d	-0.059476245
148	0x3dbc5d2d	0.09197459
149	0x3dee7912	0.11644186
150	0x3b8f0e0d	0.0043656887
151	0xbcaae0dd	-0.020859176
152	0x3cdff5dd	0.027338916
153	0x3dc33ea5	0.09533433
154	0x3b8c1fbe	0.004276245
155	0x3df1ee14	0.11812988
156	0x3e107b9f	0.14109658
157	0x3d1fdc76	0.039028607
158	0x3e0832c5	0.13300617
159	0x3d74c257	0.05975565
160	0x3c2e90c8	0.010654636
161	0x3d8bc0fe	0.0682392
162	0xbd815189	-0.0631438
163	0x3d09d779	0.033652756
164	0x3c509d41	0.012732805
165	0xbda9ac42	-0.08284809
166	0x3c8ed488	0.017435327
167	0xbcd9a3cc	-0.026567362
168	0x3d99c097	0.07507437
169	0xbd962198	-0.07330626
170	0xbd75c959	-0.060006473
171	0xbcc7650b	-0.024340173
172	0xbb9065c4	-0.0044066627
173	0x3de11fc3	0.10992386
174	0x3d867346	0.065649554
175	0xbc8e3a6d	-0.017361844
176	0xbca56f12	-0.020194564
177	0xbc9a482a	-0.018833239
178	0x3c95e029	0.018295364
179	0x3da37eba	0.079831555
180	0x3d3ea070	0.046539724
181	0xbcc8746c	-0.024469577
182	0x3c6dbc8e	0.014510287
183	0xbcbd3e29	-0.02310093
184	0x3d46a137	0.04849359
185	0x3dc27e63	0.094967626
186	0xbd258219	-0.040407274
187	0xbd10688f	-0.035255965
188	0xbd2a2f55	-0.041549046
189	0x3d6343a8	0.055484444
190	0x3d353de2	0.04424847
191	0x3d8081f8	0.062747896
192	0xbd873810	-0.0660249
193	0x3ccdaab5	0.025105814
194	0xbc97250a	-0.018450279
195	0x3cf60b5d	0.030034715
196	0xbd6df408	-0.058094054
197	0xbd27ee7a	-0.040998913
198	0x3dee9a7e	0.11650561
199	0x3df1dc3c	0.118095845
200	0x3db667a2	0.08906485
201	0xbd7028ff	-0.058632847
202	0xbc08361c	-0.008313682
203	0x3def4254	0.11682573
204	0x3c3bbbe2	0.011458369
205	0x3d7fb2cf	0.062426385
206	0x3c85db6f	0.016339986
207	0xbc9f2831	-0.019428344
208	0x3da1deb6	0.07903807
209	0x3a9d9bc3	0.001202457
210	0xbd112a13	-0.035440516
211	0x3c8923c5	0.016740689
212	0x3d46b3f9	0.04851148
213	0xbdb2dd38	-0.087336004
214	0xbd8a72b0	-0.06760156
215	0x3d2a8535	0.041630942
216	0xbd6455d4	-0.055745915
217	0x3d98eb6d	0.07466779
218	0x3ce82580	0.028338194
219	0xbc8ceeb5	-0.017203668
220	0xbbbf50fe	-0.0058385124
221	0xbcb53aff	-0.022122858
222	0x3d2bdd79	0.04195926
223	0xbd281bb4	-0.041042045
224	0xbd8a52cd	-0.06754074
225	0xbd66ef6c	-0.056380674
226	0xbd0510e4	-0.03248681
227	0xbd7b9b49	-0.06142739
228	0xbd290983	-0.041268837
229	0xbd9eac88	-0.077477515
230	0xbb407e63	-0.0029372207
231	0x3cc92cc0	0.024557471
232	0xbd593071	-0.053024713
233	0xbcb55f77	-0.022140248
234	0x3d785649	0.060629163
235	0xbc7e9fe3	-0.01554105
236	0xbc045f31	-0.008079336
237	0xbce3322f	-0.02773389
238	0x3a83c41c	0.0010052952
239	0xbc3ebf28	-0.011642255
240	0xbd865e74	-0.06560984
241	0xbcf2300b	-0.029563924
242	0xbce7ca3a	-0.028294671
243	0xbd3c78f1	-0.046013776
244	0xbd0e405b	-0.034729343
245	0xbae44e96	-0.001741844
246	0x3db8b919	0.090196796
247	0x3dd284bc	0.10279223
248	0xbd153216	-0.03642472
249	0x3d4a8390	0.049441874
250	0x3c5896ce	0.013219548
251	0x3d890aa4	0.06691483
252	0x3d3bdb26	0.045863293
253	0xbd1afd0d	-0.037838984
254	0x3ca34d54	0.019934334
255	0x3d8e6f3c	0.0695481

conv2.0.bias f4 [32]
0	0x3e0529cd	0.13004227
1	0x3e20dd59	0.15709437
2	0x3d85068b	0.064953886
3	0xbdca28dc	-0.098710746
4	0x3ec8aa29	0.39192322
5	0x3cf119ee	0.02943131
6	0x3e0fcab0	0.14042163
7	0xbd0db118	-0.034592718
8	0x3e3bcce4	0.18339878
9	0xbe35d835	-0.17758258
10	0x3e838321	0.2568598
11	0xbde3b6cd	-0.11118851
12	0xbd33503a	-0.043777682
13	0x3dff2ad3	0.1245934
14	0x3e0308d4	0.12796336
15	0x3c7878b7	0.015165499
16	0xbe1e9648	-0.15487015
17	0x3dd74b23	0.10512378
18	0xbe541e18	-0.20714605
19	0xbe4030f4	-0.18768674
20	0xbca2ea07	-0.019886984
21	0x3df373d0	0.11887324
22	0x3dbbb70d	0.091657735
23	0xbe036935	-0.12833102
24	0x3d1352fa	0.035967804
25	0xbe855031	-0.26037744
26	0x3d34cb26	0.04413905
27	0xbdc5d9df	-0.09660696
28	0xbdcf120c	-0.10110864
29	0xbdee822e	-0.116459236
30	0xbde24fbb	-0.11050364
31	0x3e9682ca	0.2939666

conv3.0.weight f4 [64, 32, 3, 3]
0	0xbbff1b09	-0.0077852053
1	0x3d27f3f9	0.041004155
2	0xbd33ea41	-0.043924574
3	0x3cdb8c82	0.026800398
4	0xbc8588f3	-0.016300654
5	0xbd036b6c	-0.032084867
6	0xbd3e9889	-0.046532188
7	0x3d559a46	0.05214908
8	0x3bf567e5	0.007489192
9	0x3cf6a948	0.030110016
10	0x3d25bf41	0.040465597
11	0xbd331af4	-0.043726876
12	0xbcd09dd6	-0.025465887
13	0x3d0b8349	0.03406075
14	0x3c94aaac	0.018147789
15	0xbd0390b2	-0.032120414
16	0xbc18ee76	-0.009334197
17	0x3d9473e4	0.07248667
18	0xbcb0a719	-0.021564053
19	0xbd287970	-0.041131437
20	0xbd3f05b4	-0.0466363
21	0xbcbb5a9e	-0.022870358
22	0xbd02cc8e	-0.03193336
23	0x3d2e1d26	0.042508267
24	0x3babf330	0.005247496
25	0x3cc2eb11	0.023793729
26	0x3cb266e5	0.02177758
27	0x3d257113	0.04039104
28	0xbd3aff65	-0.04565372
29	0x3d323fea	0.043517984
30	0xbd0df896	-0.0346609
31	0xbd3548ef	-0.044259008
32	0x3d400053	0.04687531
33	0xbd2f5cb8	-0.042813033
34	0xbd7eac76	-0.06217619
35	0x3b12d415	0.0022404243
36	0x3d17b51a	0.037037946
37	0x3c9a1359	0.018808054
38	0x3c99686b	0.018726548
39	0x3cfac0cf	0.030609516
40	0x3d08a1be	0.033357374
41	0x3d1daa59	0.038492534
42	0xbd8f707b	-0.07003876
43	0xbd8adcc0	-0.06780386
44	0x3d31c0a6	0.043396614
45	0xbd8c9847	-0.06864982
46	0x3ae3d3a5	0.00173818
47	0x3bb045eb	0.0053794286
48	0xbd2a2282	-0.041536815
49	0xbc27e0c8	-0.010246463
50	0xbd4c37da	-0.04985795
51	0x3aa7a367	0.0012789787
52	0xbd8a09d7	-0.06740158
53	0x3d1689c5	0.03675248
54	0xbc0bbb00	-0.008528471
55	0xbc7ba28b	-0.0153585775
56	0x3cfe7e49	0.031066077
57	0xbba4c3d8	-0.005028229
58	0x3c120c1d	0.008914021
59	0x3d178b25	0.036997933
60	0x3c6a43fb	0.014298434
61	0xbc69e3d4	-0.01427551
62	0x3c3fffbb	0.011718686
63	0x3c9ba7d5	0.019000927
64	0xbcb06249	-0.021531241
65	0xbcb9603b	-0.022628894
66	0x3c4ea811	0.012613312
67	0xbd89c5ab	-0.06727155
68	0xbd719853	-0.05898316
69	0x3b7469ab	0.0037294428
70	0xbd828f8e	-0.06375037
71	0xbb42918b	-0.00296888
72	0x3d41e943	0.047341596
73	0xbcef1d30	-0.029188722
74	0xbcdebb57	-0.02718894
75	0xbd377a9e	-0.04479467
76	0x3ccbbb21	0.024869503
77	0xbb1b1c18	-0.0023667868
78	0x3aa993a0	0.0012937672
79	0x3c4b7221	0.012417347
80	0x3c44c9a4	0.0120109655
81	0xbb90bcf3	-0.0044170558
82	0x3d6253fa	0.055255868
83	0xbd0d7119	-0.034531686
84	0xbcc48cf2	-0.02399299
85	0x3db9409c	0.090455264
86	0x3c9fcb6b	0.019506177
87	0x3cc522f3	0.024064517
88	0x3ca6bcca	0.020353694
89	0x3d9efa7d	0.077626206
90	0xbd72d760	-0.05928743
91	0x3cedc46d	0.029024327
92	0xbd60d7f0	-0.054893434
93	0xbc96c331	-0.018403621
94	0x3d44fda3	0.04809345
95	0xbc8d09a6	-0.017216515
96	0x3aadb6a8	0.0013253288
97	0x3ccff117	0.025383515
98	0xbd1be72b	-0.038062256
99	0xbcdd547c	-0.027017824
100	0x3d0c0832	0.034187503
101	0xbd538aab	-0.051645916
102	0x3d51fef3	0.05126853
103	0x3d8acb71	0.067770846
104	0x3bf6a459	0.007526916
105	0x3aad98eb	0.0013244426
106	0x3d68ab01	0.056803707
107	0x3d39b73d	0.045340765
108	0x3d4b080f	0.049568232
109	0x3bf3c8ef	0.0074397246
110	0x3d8c6ce8	0.0685671
111	0x3c9eaf01	0.019370558
112	0x3add6551	0.0016891157
113	0x3dbfc363	0.09363439
114	0xbc151996	-0.009100338
115	0x3c7d400f	0.015457167
116	0x3d707ed5	0.058714706
117	0x3d36cb69	0.04462758
118	0xbd318bed	-0.043346334
119	0xbd2441ed	-0.040101934
120	0x3dad3a00	0.08458328
121	0x3c7d91b2	0.015476631
122	0xbd7c401b	-0.061584573
123	0x3b9dbe2a	0.004813929
124	0x3cb0d1e5	0.02158446
125	0xbd85ab76	-0.06526844
126	0xbc9c55cd	-0.019083882
127	0x3d2727f0	0.04080957
128	0x3c52d0d0	0.012867168
129	0x3d0e6840	0.03476739
130	0x3d23f621	0.04002965
131	0xbd54496c	-0.051827833
132	0xbbd2a1f2	-0.006427997
133	0x3aa98455	0.0012933115
134	0xbce7ceea	-0.028296907
135	0x3cc36ad7	0.023854656
136	0x3cb757ea	0.022380788
137	0xbbb0bc64	-0.0053935517
138	0xb8a0e336	-7.671716e-05
139	0x3d3fd3b9	0.046832774
140	0x3b9ce2f3	0.0047877966
141	0xbd9448f9	-0.07240481
142	0xbca448c5	-0.02005423
143	0x3d548d2c	0.051892444
144	0x3c883d4d	0.016630793
145	0xbc161870	-0.0091611
146	0xbcc39bbd	-0.023877973
147	0xbd87202a	-0.06597932
148	0xbd606ca5	-0.05479111
149	0x3d00d4c8	0.031452924
150	0xbc57b791	-0.013166324
151	0xbd21f6bb	-0.03954194
152	0xbd2aa739	-0.041663382
153	0xbcddc4cc	-0.02707138
154	0xbd6f61b6	-0.058442794
155	0xbd7e45b8	-0.062078208
156	0xbdb23b0f	-0.08702671
157	0x3cc8cfe1	0.024513187
158	0xbc049d07	-0.008094079
159	0x3abf218c	0.0014582141
160	0xbd0f4398	-0.03497657
161	0xbc6de1b5	-0.014519145
162	0xbb9dc013	-0.004814157
163	0xbd3b0dfe	-0.04566764
164	0xbdbcec49	-0.09224755
165	0x3c1cfd20	0.009581834
166	0x3d18a9f0	0.03727144
167	0x3c24233d	0.010018167
168	0xbcad19d0	-0.021130472
169	0xbd7e0c1f	-0.06202328
170	0xbd48b28f	-0.04899841
171	0xbd8ac435	-0.06775705
172	0xbc6da039	-0.014503532
173	0x3ac58faf	0.0015072728
174	0xbd6e3c0f	-0.058162745
175	0xbcdbaccd	-0.026815796
176	0xbd40352a	-0.0469257
177	0xbd307e26	-0.043089055
178	0x3d0e86d9	0.03479657
179	0x3cdde935	0.02708874
180	0x3bfa4374	0.0076374356
181	0xbd64fe7c	-0.055906758
182	0x3af58448	0.001873144
183	0xbd67b18f	-0.056565817
184	0x3d39d388	0.045367748
185	0x3d0ff1f8	0.03514287
186	0xbd914e87	-0.07095056
187	0xbcc1418a	-0.023590822
188	0x3cdfd67a	0.02732395
189	0xbd1f6800	-0.03891754
190	0xbb02bebf	-0.001995012
191	0x3c1f1a6c	0.009710889
192	0xbcf530a6	-0.029930424
193	0x3d0ce5c0	0.034398794
194	0x3b8c482a	0.0042810636
195	0xbd5dc78e	-0.05414539
196	0x3d395e5c	0.045256004
197	0x3d643e57	0.055723514
198	0xbc22b950	-0.009931877
199	0x3c5656a7	0.013082183
200	0xbd864e1d	-0.06557868
201	0xbc04edf7	-0.008113376
202	0xbbc5b6ca	-0.006033753
203	0x3bb41835	0.0054960498
204	0xb9a1ceb6	-0.00030862325
205	0xbce64d18	-0.028112933
206	0xbbed93ee	-0.0072503006
207	0x3c790529	0.015198984
208	0x3d7fda00	0.06246376
209	0x3abc2934	0.0014355541
210	0xbd8b5479	-0.06803221
211	0x3cf580fa	0.029968727
212	0x3d4dfd85	0.050290603
213	0xbd4fba79	-0.050714944
214	0xbc353542	-0.011060061
215	0xbd004062	-0.0313114
216	0x3c9edafc	0.01939153
217	0xbca910bb	-0.02063786
218	0x3b37523f	0.0027972606
219	0xbd44c1da	-0.048036434
220	0x3d4fb148	0.050706178
221	0x3ce1c5df	0.027560173
222	0xbce2e59f	-0.027697382
223	0x3d93117d	0.0718107
224	0x3d561e60	0.05227506
225	0xbd0ee020	-0.03488171
226	0x3d9d4e61	0.07680965
227	0x3c408466	0.011750316
228	0xbdc9254a	-0.098215654
229	0x3d370c9d	0.044689763
230	0xbc70675c	-0.01467308
231	0xbd49b128	-0.049241215
232	0x3d287a06	0.041131996
233	0x3d6f333f	0.05839848
234	0xbd8957af	-0.067061774
235	0xbd76d8a6	-0.060265206
236	0x3c29665e	0.010339348
237	0xbcc11f48	-0.023574486
238	0x3cb28250	0.021790653
239	0xbcd29c2c	-0.025709234
240	0xbd1c27c2	-0.038123854
241	0x3c8d600b	0.01725771
242	0x3b2ab5ca	0.0026048296
243	0xb9b57115	-0.00034607263
244	0xbc1eaf3d	-0.009685335
245	0xbd145782	-0.036216266
246	0xbcfb3c32	-0.030668352
247	0xbb9ccc6b	-0.0047851107
248	0x39588017	0.00020647082
249	0xbd419d12	-0.047268935
250	0xbc6a1c53	-0.01428898
251	0xbbf2c750	-0.007409014
252	0xbd59bb08	-0.053156883
253	0xbd3d2634	-0.04617901
254	0xbd781095	-0.06056269
255	0x3c39579e	0.0113123935

conv3.0.bias f4 [64]
0	0xbd4ed19d	-0.05049287
1	0xbdf28636	-0.11842005
2	0xbdbcd278	-0.09219831
3	0x3d353907	0.04424384
4	0x3dd9fe7b	0.106442414
5	0xbcf3d2d3	-0.029763615
6	0xbdb2ffd2	-0.087402
7	0xbd86ebb2	-0.06587924
8	0xbdab31fe	-0.08359145
9	0x3de7ba8d	0.113148786
10	0x3e41ec2d	0.1893775
11	0x3e78e495	0.24305947
12	0xbda175c2	-0.07883789
13	0x3d4e16e6	0.050314806
14	0x3d4cf944	0.050042406
15	0x3e2c1229	0.16803803
16	0xbe0f9161	-0.14020301
17	0x3e0944f3	0.13405208
18	0xbdac37da	-0.0840909
19	0xbd6910a4	-0.056900635
20	0x3ba89472	0.005144649
21	0xbe0ff761	-0.14059211
22	0xbd69dc96	-0.057095133
23	0x3dcebcde	0.10094617
24	0xbda842fe	-0.08215903
25	0xbcf83f2f	-0.030303566
26	0x3e15abfe	0.14616391
27	0xbda45753	-0.08024468
28	0x3e50bb2b	0.20383899
29	0xbe0eea3b	-0.1395654
30	0xbb9bd190	-0.0047552064
31	0x3e65532c	0.22395009
32	0xbbb1426c	-0.0054095294
33	0xbda46a38	-0.08028072
34	0xbd2b6309	-0.041842494
35	0xbda0f2ad	-0.07858787
36	0xbde62755	-0.11237971
37	0xbd03c56f	-0.03217071
38	0x3e4afd41	0.19823171
39	0xbd9fa262	-0.07794644
40	0xbdee2689	-0.11628444
41	0xbe2d2616	-0.1690906
42	0x3d03daf7	0.032191243
43	0xbe1368e2	-0.14395478
44	0xbe81cf51	-0.25353482
45	0xbe679186	-0.22614107
46	0xbddf706d	-0.109101154
47	0x3d1a92d9	0.0377377
48	0x3e43e29a	0.1912941
49	0x3cc2aec0	0.023764968
50	0x3e1c7941	0.1528063
51	0xbe34fb9d	-0.17674108
52	0x3d585224	0.05281271
53	0xbc909f29	-0.017654018
54	0x3e515398	0.20442045
55	0x3d4be343	0.04977728
56	0xbdaedf5b	-0.085386954
57	0x3e7dc13b	0.24780743
58	0x3dcda3b5	0.1004099
59	0x3decb14a	0.11557253
60	0x3d800937	0.062517576
61	0xbd5185dc	-0.05115305
62	0x3d56bf10	0.052428305
63	0xbdfba324	-0.12286976

conv4.0.weight f4 [32, 64, 3, 3]
0	0xbd82acfa	-0.06380649
1	0xbaaf4821	-0.0013372937
2	0x3c7708fa	0.015077824
3	0xbd97b6bf	-0.07407903
4	0xbc7ed495	-0.015553613
5	0x3b72516f	0.0036974808
6	0xbc9d1ba2	-0.019178215
7	0xbd4a06b0	-0.049322784
8	0x3d22fd39	0.039792273
9	0xbd6e4f90	-0.058181345
10	0xbc6ebc4a	-0.014571259
11	0xbd239ceb	-0.03994457
12	0xbd34df16	-0.044158064
13	0xbd2ccc87	-0.04218724
14	0xbdbb8e21	-0.09157968
15	0xbc937552	-0.018000279
16	0xbd1ff93a	-0.03905604
17	0xbd481235	-0.04884549
18	0x3d3950d1	0.04524309
19	0xbccae441	-0.024767043
20	0x3d1996c0	0.037497282
21	0xbd439fcc	-0.047759816
22	0xbd89769d	-0.06712077
23	0xbc675eb6	-0.014121702
24	0xbc4e068e	-0.012574805
25	0x3c9b2832	0.018940065
26	0xbd6ce1a1	-0.057832364
27	0x3cc9d8d4	0.024639525
28	0x3cae1d21	0.021254124
29	0x3c0d4811	0.008623139
30	0x3cc1ec79	0.02367233
31	0x3d2159d9	0.039392326
32	0x3b9a5c60	0.004710719
33	0xbcc46530	-0.023974031
34	0xbcaf0696	-0.021365445
35	0xbc9774ba	-0.018488277
36	0xbcca298e	-0.024678018
37	0x3cadcf69	0.021217065
38	0xbcd42ff8	-0.02590178
39	0xbcd04952	-0.025425587
40	0x3cb60464	0.02221889
41	0x3c3f09db	0.011660065
42	0x3cbeeda7	0.02330668
43	0x3b3fdc0d	0.0029275448
44	0xbca22802	-0.019794468
45	0xbda8bfee	-0.08239733
46	0xbd9f3ff2	-0.077758685
47	0xbe20b7d3	-0.15695123
48	0xbd02bcf2	-0.031918474
49	0xbdbebbf2	-0.093131915
50	0xbdc7b5d3	-0.09751477
51	0xbc9eaa9a	-0.019368459
52	0xbd6dca73	-0.0580544
53	0xbd2e11b7	-0.042497363
54	0xbc8e718b	-0.017388126
55	0xbd05f77e	-0.03270673
56	0xbda10dda	-0.0786397
57	0xbd5d2a8f	-0.053995665
58	0xbd28d34e	-0.04121714
59	0xbc18ba53	-0.009321767
60	0xbcef5b50	-0.029218346
61	0x3c79006e	0.015197856
62	0x3c5f9862	0.013647171
63	0x3d91f211	0.07126249
64	0xbcd883b5	-0.02642999
65	0xbc2f4709	-0.010698088
66	0x3d53123f	0.051531073
67	0xb9e5a412	-0.00043800526
68	0x3ba55d31	0.0050465097
69	0x3d46c13b	0.048524123
70	0x3d6e2078	0.058136433
71	0x3c8a00fd	0.016846174
72	0x3cc92399	0.024553107
73	0x3d38cc9f	0.045117017
74	0x3c7fb619	0.01560738
75	0x3d1639bc	0.036676154
76	0x3ccb6026	0.02482612
77	0x3da93a11	0.082630284
78	0xbcc7b3b6	-0.024377685
79	0x3d14a81d	0.036293138
80	0x3d165987	0.036706474
81	0xbc8e83d0	-0.017396837
82	0x3d3dede6	0.046369456
83	0x3caa3c12	0.020780597
84	0xbcc29d4d	-0.023756647
85	0xb8a0530e	-7.644865e-05
86	0x3ca477ea	0.02007671
87	0xbc92b4b4	-0.017908432
88	0x3d3bd315	0.0458556
89	0x3d5066d2	0.050879307
90	0x3d38b0c1	0.04509044
91	0x3d4fe339	0.050753806
92	0x3d0c6a34	0.03428097
93	0x3cf087f3	0.0293617
94	0xbcd638f7	-0.02615021
95	0xbbdaf354	-0.006681839
96	0xbc859710	-0.016307384
97	0x3d2e7608	0.042593032
98	0x3b8cf6a7	0.004301864
99	0xbc97bc63	-0.018522447
100	0x3d4aa576	0.049474202
101	0x3da9d0e1	0.082917936
102	0xbba2f510	-0.0049730614
103	0x3d874284	0.06604484
104	0x3ca1c62a	0.019747812
105	0x3cc5701c	0.02410131
106	0x3d1b5da5	0.037931103
107	0x3c3d0774	0.0115374215
108	0xbc93b379	-0.018029915
109	0x3cd2a599	0.025713729
110	0x3d8219ee	0.06352602
111	0xbcdc9177	-0.026924832
112	0xbc243402	-0.010022165
113	0xbc135410	-0.00899221
114	0xbc4e3208	-0.012585171
115	0xbceda98c	-0.02901151
116	0xbc09b9a5	-0.0084060775
117	0x3c547729	0.012967863
118	0x3d768aa8	0.060190827
119	0x3d18db4f	0.037318524
120	0xbb868fd8	-0.004106503
121	0xbc8979df	-0.016781745
122	0x3c6bd16b	0.014393191
123	0xbd61f98b	-0.055169623
124	0xbcbd7fd2	-0.023132239
125	0x3ca4eddf	0.020132957
126	0xbd90ada3	-0.070643686
127	0xbd69ef82	-0.057113178
128	0xbc8868ad	-0.016651476
129	0xbcb20fdf	-0.021736084
130	0xbd838c55	-0.064232506
131	0xbd8ad9bc	-0.06779811
132	0xbd097b2c	-0.03356473
133	0x3c2e4022	0.010635408
134	0xbd5e90e2	-0.05433739
135	0x3d446107	0.047944095
136	0x3d6b925a	0.05751262
137	0x3d19ad95	0.037519056
138	0x3d414bbf	0.047191378
139	0x3c0e0b9f	0.008669763
140	0xbc8175b5	-0.015803197
141	0x3c3c02bf	0.011475264
142	0x3c8ddfc2	0.01731861
143	0xbc721aee	-0.014776928
144	0xbc1ad1f3	-0.00944947
145	0xbb1bd1c8	-0.0023776162
146	0x3c9332d5	0.017968575
147	0xbcb62321	-0.022233548
148	0x3b2fb946	0.0026813312
149	0x3ca901d6	0.020630758
150	0xbcdcddc1	-0.02696121
151	0xbca33a6b	-0.019925317
152	0x3c349954	0.011022884
153	0xbd316561	-0.043309573
154	0xbd8e2fa9	-0.06942684
155	0xbbe21927	-0.006899971
156	0xbc2bcb1b	-0.010485436
157	0xbd2e7a31	-0.042597
158	0xbc9d318a	-0.019188661
159	0x3c31cafb	0.010851617
160	0xbd88b6a1	-0.06675459
161	0xbd64d95b	-0.05587135
162	0xbab978c6	-0.0014150373
163	0x3cbf0204	0.02331639
164	0xbbc62444	-0.0060468037
165	0x3db0fb91	0.086417325
166	0x3dadba5f	0.08482813
167	0x3d0de8b7	0.034645762
168	0x3c199357	0.009373507
169	0x3d3c69fd	0.045999516
170	0x3d8dec69	0.06929857
171	0xbd62ef30	-0.05540389
172	0xbd1b3a33	-0.0378973
173	0x3c1644e4	0.009171698
174	0xbdafa1f3	-0.08575811
175	0xbdc06595	-0.09394375
176	0xbd6191ca	-0.055070676
177	0xbdc6addf	-0.09701132
178	0xbcf0ea37	-0.029408557
179	0xbd737fce	-0.059448056
180	0x3c93af99	0.018028067
181	0x3d09bb8e	0.03362613
182	0x3d21b5b6	0.039479934
183	0x3c76113c	0.015018757
184	0xbd2631b3	-0.04057474
185	0x3d800959	0.06251783
186	0xbcaa03e5	-0.02075381
187	0xbdab655c	-0.08368942
188	0xbc8d65d6	-0.017260473
189	0x3cdd7b4f	0.027036337
190	0x3bcd1de5	0.006259667
191	0x3b0d9d0c	0.00216085
192	0xbd8ba832	-0.0681919
193	0xbcf2e834	-0.029651739
194	0xb8a6e3b2	-7.9579084e-05
195	0xbc6f267b	-0.014596577
196	0xbcdc5468	-0.026895717
197	0x3cdce5e7	0.026965095
198	0x3c55b50e	0.013043655
199	0xbba38ab7	-0.0049909013
200	0x3d7757b5	0.06038638
201	0xbc7974ce	-0.015225602
202	0x3d0a9059	0.033829067
203	0xbaa23595	-0.0012375588
204	0xbd297482	-0.041370876
205	0x3cef3b23	0.029203003
206	0x3c3b624a	0.011437008
207	0xbcacc722	-0.021091048
208	0x3d1c4524	0.038151875
209	0x3d8f013a	0.06982656
210	0x3b0b5bd0	0.0021264441
211	0xbc67e6da	-0.01415416
212	0xbcbb021b	-0.022828152
213	0xbd0e0c46	-0.034679674
214	0x3905a898	0.00012746674
215	0xbb111fd4	-0.0022144215
216	0xbd7b2dfe	-0.06132316
217	0xbc41f40f	-0.011837973
218	0x3c3654fd	0.011128661
219	0xbdab329a	-0.08359261
220	0x3c69aa0b	0.014261733
221	0x3ba9596b	0.00516813
222	0xbd9327bd	-0.07185314
223	0xbc75dd4e	-0.015006376
224	0xbcb6d617	-0.022318883
225	0xbd0a5ae4	-0.033778086
226	0x3c80cd35	0.01572285
227	0x3cc4ae3f	0.024008868
228	0x3c84f751	0.01623121
229	0x3d05b878	0.032646626
230	0x3c92aed4	0.01790563
231	0xbd04bfbc	-0.032409415
232	0xbba5eac9	-0.005063389
233	0xbd4bd15c	-0.049760208
234	0xbb8d1e20	-0.0043065697
235	0x3d20fb03	0.039301883
236	0x3d03605a	0.03207431
237	0xbce0fc95	-0.02746419
238	0x3bf6e277	0.007534321
239	0xbc338f85	-0.010959511
240	0xbcc8bf63	-0.024505323
241	0xbce00866	-0.027347755
242	0xbbc47b81	-0.005996168
243	0x3d10bf08	0.03533843
244	0xbba94527	-0.0051657143
245	0x3cce0ab0	0.02515158
246	0x3a880fcd	0.0010380686
247	0xbcb2c460	-0.021822155
248	0x3d73be2a	0.059507526
249	0xbd3ef7be	-0.046622984
250	0x3c9d4fb9	0.019203054
251	0xbc8f3d51	-0.017485293
252	0x3d17c63c	0.037054285
253	0x3ce1adca	0.02754869
254	0x3ca61d0b	0.02027752
255	0x3be2ed2e	0.0069252467

conv4.0.bias f4 [32]
0	0x3d70aa2a	0.05875603
1	0x3e0dbec7	0.13842307
2	0x3dd6e0a9	0.10492069
3	0xbe0a53ff	-0.13508604
4	0xbe256569	-0.16151966
5	0x3dd99ea1	0.10625959
6	0xbd9dd554	-0.07706705
7	0x3d9c3856	0.07627933
8	0x3d5072ae	0.050890617
9	0x3e3ce47e	0.18446538
10	0x3cc56ba7	0.024099184
11	0x3dab9ecc	0.083798975
12	0xbdb668fb	-0.08906742
13	0xbd684c11	-0.056713168
14	0x3d7c0070	0.061523855
15	0xbdf4f082	-0.11959936
16	0x3db76087	0.08953958
17	0xbd1857f6	-0.03719326
18	0x3d95c63f	0.07313203
19	0xbd0c372e	-0.03423231
20	0x3cc3e93f	0.023914931
21	0x3d552bc0	0.052043676
22	0x3d91493e	0.07094048
23	0x3c8fa5b5	0.01753507
24	0xbc1478e2	-0.009062024
25	0xbd9c1ac9	-0.07622296
26	0xbdbf4326	-0.093389794
27	0xbd50e8c0	-0.051003218
28	0xbe1742fe	-0.14771649
29	0xbd998941	-0.07496882
30	0xbd27a5b4	-0.04092951
31	0xbc909918	-0.017651126

conv5.0.weight f4 [16, 32, 3, 3]
0	0x3bbd5120	0.005777493
1	0x3bf3cd4c	0.007440245
2	0x3d555c71	0.052090112
3	0x3d62b9ac	0.05535285
4	0x3d7e6a5e	0.06211316
5	0x3ce35f1a	0.027755309
6	0xbccc925b	-0.024972131
7	0x3dceccb4	0.10097638
8	0x3d7764d9	0.06039891
9	0x3d6e2bb6	0.058147155
10	0xbcf80669	-0.030276494
11	0xbb894b5c	-0.0041898917
12	0x3d0392a9	0.032122288
13	0x3b51fbdb	0.0032040987
14	0xbcb85336	-0.022500616
15	0xbd01aca2	-0.031658776
16	0x3c2c9d0b	0.010535489
17	0x3c1fbeee	0.009750111
18	0x3c4ceb44	0.012507264
19	0x3cedd16c	0.029030524
20	0x3c01ecde	0.007930009
21	0x3d049a7d	0.032373894
22	0x3d4ce789	0.050025497
23	0xbd01e5d9	-0.03171334
24	0x3d209293	0.039202284
25	0xbd87a412	-0.06623091
26	0x3c5f5af8	0.0136325285
27	0xbc9bf18c	-0.019036077
28	0x3d116d9e	0.03550493
29	0xbd1bc2f4	-0.03802772
30	0xbc9ceee3	-0.019156879
31	0x3d43c710	0.047797263
32	0xbd5b0fc7	-0.053481843
33	0xb832a1ec	-4.258931e-05
34	0x3bbdd024	0.0057926346
35	0xbcf9e20d	-0.030503297
36	0x3c00c629	0.007859745
37	0x3caabb70	0.02084133
38	0xbbdef2fd	-0.006803869
39	0xbcb85672	-0.022502158
40	0xbc9940d4	-0.01870767
41	0xbd87db6f	-0.066336505
42	0xbbca4b4c	-0.006173527
43	0xbd30de04	-0.04318048
44	0xbcacde94	-0.021102227
45	0xbd984f3c	-0.07436988
46	0xbd5905a9	-0.052983914
47	0xbd81f7bc	-0.0634608
48	0xbd6f9c7c	-0.058498845
49	0xbd480461	-0.0488323
50	0xbd76a29a	-0.060213663
51	0xbdb6eab0	-0.08931482
52	0xbd674c8b	-0.05646948
53	0xbd006605	-0.031347293
54	0x3d504358	0.050845474
55	0x3c3b1e45	0.011420791
56	0xbd35e9bc	-0.04441236
57	0xbd317079	-0.043320153
58	0xbd632857	-0.055458393
59	0xbd026f15	-0.031844217
60	0xbbf14caa	-0.0073638754
61	0xbcc03f34	-0.023467638
62	0xbcc51386	-0.024057161
63	0xbce2c56a	-0.027682025
64	0xbd3e2244	-0.046419397
65	0xbc201ae0	-0.0097720325
66	0xbc419f9d	-0.01181784
67	0x3c71f659	0.0147682065
68	0xbc151fd1	-0.009101824
69	0xbd6b9290	-0.05751282
70	0x3ccb2b2c	0.02480086
71	0xbd64918b	-0.055802863
72	0x3c3bff20	0.011474401
73	0xbb1c636d	-0.0023862973
74	0xbce195e8	-0.027537301
75	0x3ce0e494	0.027452745
76	0xbd2eb128	-0.042649418
77	0x3c6e8c7c	0.014559861
78	0x3a9dd9b0	0.0012043025
79	0x3a554d89	0.0008136859
80	0xbcb2fa95	-0.021848002
81	0x3c9ba3c5	0.01899899
82	0x3d205bee	0.03915017
83	0x3d531328	0.05153194
84	0x3d2d0e40	0.042249918
85	0xbc30af87	-0.0107840365
86	0xbcb0dd5e	-0.021589931
87	0x3c4348ff	0.011919259
88	0x3d8c8046	0.06860404
89	0x3d8336da	0.064069465
90	0x3d0c0915	0.03418835
91	0xbc0280a0	-0.007965237
92	0x3d11e903	0.035622608
93	0x3ce9b450	0.028528363
94	0x3d50137a	0.050799824
95	0x3d07d7db	0.03316484
96	0x3d80ebf0	0.062950015
97	0x3d7cddda	0.06173501
98	0x3dd650ed	0.10464654
99	0x3da22146	0.07916503
100	0x3db41c0b	0.08794411
101	0x3ce3f3ec	0.027826272
102	0x3dd5961e	0.10429023
103	0x3cc13677	0.023585541
104	0x3da2bfa9	0.079467125
105	0x3db2692d	0.08711467
106	0x3e07eb95	0.13273461
107	0x3dcfbfe9	0.10144026
108	0x3d0af1d6	0.03392204
109	0xbd10aa99	-0.035318945
110	0xbbce4937	-0.006295349
111	0xbbe9557b	-0.007120786
112	0x3c48e98d	0.012262714
113	0xbc9c2e4f	-0.01906505
114	0x39653880	0.0002186019
115	0x3d30820a	0.043092765
116	0xbc973931	-0.018459888
117	0xbb0eee7a	-0.0021809624
118	0xbd56649a	-0.052342035
119	0x3d1d5d62	0.038419135
120	0xbcef1829	-0.029186325
121	0xbc8f868d	-0.017520213
122	0xbc1ee51e	-0.0096981805
123	0xbd6e999d	-0.058251966
124	0x3c8cf88d	0.017208362
125	0x3d229a8d	0.039698172
126	0xba8bc62a	-0.0010663916
127	0x3bb856c2	0.0056255767
128	0xbd805a16	-0.062671825
129	0xbcda397f	-0.026638744
130	0x3d1dda07	0.038538005
131	0x3d4fcb2e	0.050730877
132	0x3d835889	0.06413371
133	0x3b3f9823	0.0029234968
134	0x3cf7d27b	0.030251732
135	0xbdac3ac3	-0.084096454
136	0xbac9b9c4	-0.0015390445
137	0xbdde8b4f	-0.10866415
138	0xbdc56862	-0.0963905
139	0x3b1c7e0c	0.002387884
140	0xbbc1cff5	-0.005914683
141	0xbd55523f	-0.05208039
142	0x3cf569e8	0.029957727
143	0x3cb9444d	0.022615576
144	0xbd5c0239	-0.053713057
145	0xbc1babc5	-0.009501402
146	0xbd3209a2	-0.043466218
147	0xbcfc6cd6	-0.030813616
148	0xbd26679c	-0.040626153
149	0x3d0f2942	0.034951456
150	0xbcdc6c7b	-0.026907196
151	0x3d19d972	0.037560888
152	0xbd50611f	-0.050873872
153	0x3e0924be	0.13392922
154	0x3dea97f6	0.114547655
155	0x3d7c96f8	0.061667413
156	0x3e02e3fd	0.12782283
157	0x3d5cf99f	0.053948995
158	0x3d832100	0.064027786
159	0x3d4e30a4	0.050339356
160	0x3ddbf3a0	0.10739827
161	0x3dcd4b01	0.100240715
162	0x3d0cb12d	0.034348655
163	0xbd26b76d	-0.040702272
164	0xbd291c30	-0.041286647
165	0xbd20c66e	-0.039251737
166	0x3d1b29ae	0.037881546
167	0x3c90d9d1	0.017681988
168	0xbd1fdd5a	-0.039029457
169	0x3d0812ce	0.03322106
170	0x3d0a9917	0.033837404
171	0xbc8fb116	-0.017540496
172	0x3d252961	0.040322665
173	0xbd206dc0	-0.039167166
174	0x3cc4a562	0.024004642
175	0x3d91cb1f	0.071188204
176	0xbd67273a	-0.056433894
177	0xbca6b06c	-0.020347796
178	0xbcb750df	-0.02237743
179	0x3cdf8fb1	0.027290197
180	0xbced0f8b	-0.028938076
181	0x3d82e176	0.063906595
182	0xbdbd08f6	-0.09230225
183	0xbcbf9fe9	-0.02339168
184	0xbd0d4f27	-0.034499314
185	0x3bb924fc	0.005650161
186	0x3cff45c7	0.031161202
187	0x3c08ce6d	0.008349997
188	0xbd135661	-0.03597105
189	0xbc6a73b4	-0.014309812
190	0xbcf1febf	-0.029540418
191	0xb995dab1	-0.00028582432
192	0x3c495f05	0.012290721
193	0x3d0a3e1c	0.03375064
194	0xbd610fb5	-0.05494662
195	0x3d70c10c	0.058777854
196	0x3c764a56	0.0150323715
197	0xbcb99368	-0.022653297
198	0x3e01a837	0.12661825
199	0x3b8a662d	0.004223606
200	0x3cf777c7	0.030208481
201	0x3e019a5c	0.1265654
202	0x3d4c530d	0.04988389
203	0x3dd9d128	0.106355965
204	0x3d608939	0.054818366
205	0x3df18915	0.117937244
206	0x3d93a121	0.07208467
207	0xbbf152ac	-0.0073645916
208	0xbd98a9fb	-0.07454296
209	0x3c6f02fb	0.014588113
210	0xbc40a9fc	-0.011759277
211	0xbda08fb9	-0.07839913
212	0xbde6b076	-0.11264126
213	0xbce59077	-0.028022988
214	0xbd92932e	-0.071569785
215	0xbdfd78a0	-0.12376523
216	0x3d2db8a7	0.042412426
217	0xbb445b8d	-0.0029961795
218	0x3c95348e	0.018213537
219	0x3d045a51	0.032312695
220	0xbce7dcbe	-0.0283035
221	0xbd9c73b1	-0.07639254
222	0xbd3399db	-0.0438479
223	0x3d4a9871	0.049461786
224	0xbcfd3b16	-0.030911963
225	0x3d2d756d	0.042348314
226	0x3d0888f9	0.033333752
227	0xba0536a9	-0.00050816924
228	0x3d0fcb0d	0.035105754
229	0x3ca30e79	0.019904362
230	0xbd16c8c0	-0.036812544
231	0x3d86c85a	0.06581183
232	0x3d7c6613	0.061620783
233	0x3ca53328	0.020165995
234	0xbd5a4edf	-0.053297874
235	0x3d81f769	0.06346018
236	0xbb963578	-0.0045840107
237	0xbcaa12ad	-0.020760858
238	0xbcb0a988	-0.021565214
239	0x3ca28c57	0.01984231
240	0x3c52437b	0.012833471
241	0x3d791a0f	0.060815867
242	0xbca0b0eb	-0.019615611
243	0xbd706125	-0.058686394
244	0xbd676892	-0.05649621
245	0x3d07f9ae	0.033197097
246	0xbd051ae9	-0.032496367
247	0xbbfa77de	-0.007643684
248	0xbd44542a	-0.047931828
249	0x3b4e7eff	0.00315088
250	0x3caa88b2	0.020817135
251	0x3bec6e7c	0.007215319
252	0xbd8adc16	-0.06780259
253	0xbd800a48	-0.06251961
254	0x3ba9b7a3	0.005179362
255	0xbce106b4	-0.027469017

conv5.0.bias f4 [16]
0	0x3b45e683	0.003019721
1	0x3e03bd8f	0.1286528
2	0x3b8744ac	0.0041280594
3	0xbbc7d998	-0.0060989372
4	0x3e0981e7	0.1342846
5	0xbc8efdf8	-0.017455086
6	0x3d417423	0.047229897
7	0x3e195ffa	0.14978018
8	0x3ded4c2c	0.11586794
9	0x3cbc869c	0.023013406
10	0xbdcddb23	-0.10051563
11	0xbd5a6b92	-0.053325243
12	0xbd49a23e	-0.04922699
13	0x3d9c287e	0.07624911
14	0x3df9f431	0.12204779
15	0xbd8a0c11	-0.06740583
