ckpt/ckpt3/radar_model.pth (torch, 91698 bytes, 12 tensors)

input.0.weight f4 [32, 18, 1]
0	0xbe8ab484	-0.27090847
1	0x3e4c0f7c	0.19927782
2	0xbe4481a5	-0.1919008
3	0x3f22801b	0.63476723
4	0x3d09266b	0.033483904
5	0xbded2ed8	-0.115812
6	0x3d0a1580	0.03371191
7	0x3da31265	0.07962493
8	0xbede1c8e	-0.4338116
9	0xbebaad7f	-0.36460492
10	0x3ef05163	0.46937093
11	0x3f084517	0.5323042
12	0x3b875698	0.004130196
13	0x3e50ca56	0.20389685
14	0x3e32d5a8	0.17464316
15	0x3e9070ca	0.2821105
16	0xbcf1085f	-0.029422937
17	0xbdca67c4	-0.09883073
18	0xbd2f8ea8	-0.042860657
19	0xbdb9f1b0	-0.09079301
20	0x3e082c72	0.13298205
21	0x3e8fca08	0.28083825
22	0xbecd58d6	-0.4010684
23	0x3ec24000	0.37939453
24	0x3e23654c	0.1595661
25	0xbddd9065	-0.10818557
26	0x3edca3ac	0.43093622
27	0xbeafa6eb	-0.34307036
28	0xbdcac753	-0.09901299
29	0xbe93f0c1	-0.28894618
30	0x3dca52f5	0.09879104
31	0x3dfc3e0a	0.123165205
32	0xbe59c5e8	-0.21266901
33	0x3e761e4d	0.24034996
34	0x3dd10f05	0.10207943
35	0xbcc0cf03	-0.02353621
36	0x3daa7222	0.0832255
37	0xbe0eda80	-0.13950539
38	0x3e70f061	0.23529197
39	0x3e316d5c	0.17326874
40	0x3d0ef1fe	0.03489875
41	0xbf4db158	-0.8034873
42	0xbc259dcd	-0.010108423
43	0x3c9e0026	0.01928718
44	0xbedfb128	-0.43689847
45	0xbe944c1a	-0.2896431
46	0xbe9318c6	-0.28729838
47	0x3eaaebad	0.3338293
48	0xbe54ada9	-0.20769371
49	0xbeccf131	-0.40027764
50	0x3ca57be3	0.020200675
51	0xbf121355	-0.5706075
52	0x3e4177a1	0.18893291
53	0x3db54608	0.08851248
54	0x3c075a0e	0.008261217
55	0x3ccdd8be	0.025127765
56	0xbe6eab7c	-0.23307604
57	0xbd5af450	-0.05345565
58	0x3e46a2a2	0.19397977
59	0xbd33e65f	-0.04392087
60	0x3ca1357a	0.01967882
61	0x3cb4e62b	0.022082409
62	0xbd2e9a5a	-0.04262767
63	0x3f43e873	0.76526564
64	0xbe807be2	-0.25094515
65	0xbdba7bd6	-0.09105651
66	0xbf024662	-0.50888646
67	0xbe58f9af	-0.21188997
68	0xbc6deb48	-0.014521427
69	0xbdf84bf3	-0.12123861
70	0xbea25297	-0.31703636
71	0xbe5fd467	-0.21858369
72	0x3e3cc905	0.18436058
73	0xbd173d82	-0.036923893
74	0xbd51f98d	-0.05126338
75	0xbec38651	-0.38188413
76	0xbc7937b8	-0.015211038
77	0xbf271943	-0.6527292
78	0xbd26113f	-0.04054379
79	0x3d35f533	0.044423293
80	0x3dcc6496	0.09980123
81	0xbef03b91	-0.46920446
82	0xbf2da5c5	-0.6783107
83	0xbe9a68f8	-0.3015821
84	0xbdb5d50a	-0.088785246
85	0x3de653a0	0.11246419
86	0xbd15e007	-0.036590602
87	0xbd621a0f	-0.055200633
88	0xbea94e8a	-0.33067733
89	0xbead4c79	-0.33847407
90	0x3ca28a8a	0.019841451
91	0xbc113a8a	-0.008864054
92	0x3d9d10a0	0.076691866
93	0xbe04d8c0	-0.12973309
94	0xbba49fdc	-0.0050239395
95	0x3cc4bd98	0.024016187
96	0xbc2165cb	-0.0098509295
97	0x3b3f1978	0.0029159468
98	0x3d9b226d	0.075749256
99	0x3d9e316b	0.077242695
100	0x3dfc8b0b	0.12331208
101	0x3f1c3883	0.6102373
102	0x3e039c81	0.1285267
103	0xbf2578a9	-0.6463724
104	0x3cc24f31	0.023719402
105	0xbdff65a0	-0.12470555
106	0x3ec74f1e	0.3892755
107	0x3ef694ca	0.48160392
108	0x3d71fa43	0.05907656
109	0x3c0cd92c	0.0085967
110	0x3e2a63ac	0.16639584
111	0xbd6a99ca	-0.05727557
112	0x3e325e0c	0.17418689
113	0xbea61a9f	-0.32442185
114	0x3d14f0e4	0.036362544
115	0x3dc5bd0b	0.09655198
116	0x3cec6158	0.02885501
117	0x3e93094b	0.28718027
118	0xbeacb2ee	-0.33730263
119	0xbeef2848	-0.4671042
120	0xbee5105b	-0.4473904
121	0xbe252858	-0.16128671
122	0xbba30a65	-0.0049756044
123	0xbdd80602	-0.10548021
124	0xbeabaa97	-0.33528587
125	0xbe171d33	-0.14757232
126	0xbc912b31	-0.01772079
127	0xbe5b03d2	-0.21388176
128	0x3d770d4f	0.060315426
129	0x3eb837eb	0.35980162
130	0xbcc38ada	-0.02386992
131	0x3f06a0a1	0.5258885
132	0xbedae03d	-0.42749205
133	0xbe9f2525	-0.31083027
134	0x3e609d6d	0.21935053
135	0x3e33df42	0.17565635
136	0x3ede3104	0.4339677
137	0xbd403419	-0.046924684
138	0xbe8b45b0	-0.27201605
139	0xbe6d7e0b	-0.23192613
140	0x3e2c08e6	0.1680027
141	0x3f1f4bf6	0.6222528
142	0xbdd8aee9	-0.105802365
143	0xbe56bb5f	-0.20969914
144	0xbcebbe03	-0.028777128
145	0xbe5e0413	-0.21681242
146	0xbc885661	-0.016642751
147	0xbeefa3ce	-0.4680466
148	0xbe015b94	-0.1263259
149	0x3d18d200	0.037309647
150	0x3de99c6e	0.1140679
151	0x3b711502	0.0036786203
152	0x3d9d7b69	0.07689554
153	0xbeccd02b	-0.4000257
154	0xbdc246ce	-0.09486161
155	0xbe50d980	-0.2039547
156	0x3e1003a6	0.14063892
157	0xbcae0c36	-0.021246057
158	0x3c3be533	0.01146822
159	0x3ea805be	0.3281688
160	0x3e399675	0.18123801
161	0xbe210361	-0.15723945
162	0x3da2ea24	0.07954815
163	0xbe0c14ac	-0.1367976
164	0x3d68c15b	0.056825023
165	0x3d4ed103	0.050492298
166	0xbe09d061	-0.13458396
167	0xbea2d212	-0.31800896
168	0x3e2b7c29	0.16746582
169	0xbe4532d2	-0.19257668
170	0xbeb70abe	-0.35750383
171	0x3e26404d	0.16235466
172	0xbeaafbc7	-0.33395216
173	0xbd633286	-0.055468105
174	0x3e18b550	0.14912915
175	0xbdf091e2	-0.11746575
176	0xbde1f255	-0.11032549
177	0xbe8f47dd	-0.27984515
178	0x3c213571	0.009839402
179	0xbe3ae285	-0.18250473
180	0x3d2db7a6	0.04241147
181	0xbd1cf4f1	-0.03831953
182	0x3d54c96a	0.051949896
183	0xbf251b86	-0.6449512
184	0x3d8282f7	0.06372636
185	0x3e0f2a98	0.13981092
186	0xbe26bc07	-0.16282664
187	0x3c04974f	0.008092715
188	0xbd61b272	-0.05510182
189	0xbf118290	-0.5683985
190	0xbead1231	-0.3380294
191	0xba4a18ba	-0.0007709373
192	0xbe79c595	-0.24391778
193	0x3eb8350f	0.3597798
194	0x3d9a981e	0.07548545
195	0xbf50a684	-0.8150408
196	0xbed3e2fb	-0.4138411
197	0xbd71b46b	-0.05900995
198	0xbce18ce6	-0.027533006
199	0x3dc3c12d	0.0955833
200	0xbcc9e7cc	-0.024646662
201	0xbe9d0e90	-0.30675173
202	0x3e430fb6	0.19048962
203	0x3e19e50f	0.15028785
204	0x3d03736b	0.032092493
205	0xbdcf76ed	-0.10130105
206	0xbe36095f	-0.17777012
207	0x3d25c328	0.04046932
208	0x3e4989d0	0.19681478
209	0xbe14cb10	-0.14530587
210	0xbf01bbce	-0.5067719
211	0xbe9cde44	-0.30638325
212	0x3dab0802	0.08351137
213	0xbe203316	-0.15644488
214	0xbe73243c	-0.23744291
215	0xbefec0cf	-0.49756476
216	0x3d82c7c9	0.06385762
217	0xbbb40f0c	-0.005494958
218	0xbe57383e	-0.21017548
219	0xbeab3f7c	-0.33446872
220	0xbe0bfd0a	-0.13670745
221	0x3eaf277e	0.34209818
222	0x3b868821	0.0041055833
223	0x3db21664	0.08695677
224	0x3ed52217	0.4162757
225	0xbd0cf310	-0.03441149
226	0x3e2d17f1	0.16903664
227	0x3f2cfd41	0.67573935
228	0x3db785f8	0.089610994
229	0xbed5b93a	-0.4174288
230	0x3e653206	0.22382364
231	0xbe4a7e10	-0.19774652
232	0x3dc8a975	0.09797946
233	0x3e9e435a	0.3091076
234	0xbe45ab48	-0.1930362
235	0xbbbf2e89	-0.005834405
236	0x3e280671	0.16408707
237	0x3dd2dfb7	0.102965765
238	0x3c94ad64	0.018149085
239	0xbdd5f3ce	-0.10446893
240	0xbdd48729	-0.10377342
241	0xbdc00dbc	-0.093776196
242	0x3f998286	1.1992958
243	0x3ef9ce54	0.48790228
244	0x3edb19c2	0.4279309
245	0x3f2ceb38	0.67546415
246	0xbe204aa6	-0.15653476
247	0x3e4dc61c	0.20095104
248	0x3ba825db	0.005131466
249	0x3ea7526a	0.32680064
250	0x3e7710dd	0.24127527
251	0x3dd9c098	0.106324375
252	0xbca01055	-0.019539038
253	0xbaf7f746	-0.0018918298
254	0x3decb3d3	0.11557736
255	0xbe956e58	-0.29185748

input.0.bias f4 [32]
0	0x3eeefa1b	0.4667519
1	0xbd3890e1	-0.045060042
2	0xbe8755da	-0.26432687
3	0xbd934cae	-0.0719236
4	0xbee21e43	-0.44163713
5	0x3e57756e	0.2104089
6	0xbf0edec2	-0.5580865
7	0x3edcdeb4	0.4313866
8	0x3c3b99b3	0.011450219
9	0xbd0dcc09	-0.03461841
10	0xbf04edfd	-0.5192564
11	0xbd28d134	-0.041215137
12	0x3e841e18	0.2580421
13	0x3f1b6bb8	0.6071124
14	0xbee0803f	-0.43847844
15	0x3cf33d14	0.02969221
16	0xbef9e496	-0.4880721
17	0xbf00c89c	-0.50306106
18	0xbecd4f4e	-0.40099567
19	0xbef1777e	-0.47161478
20	0xbf032eb9	-0.5124317
21	0x3ef7a199	0.48365477
22	0xbeed1cdf	-0.4631109
23	0xbe85b4b4	-0.26114428
24	0x3d140591	0.03613812
25	0x3e5b5d2c	0.21422261
26	0xbd7fbd1a	-0.0624362
27	0x3e422cee	0.18962452
28	0x3e1d46fa	0.15359107
29	0x3c939020	0.01801306
30	0x3df62009	0.12017829
31	0x3e5b1b4b	0.2139713

conv1.0.weight f4 [64, 32, 1]
0	0xbf661710	-0.8987894
1	0xbe90b263	-0.28261098
2	0xbdc992c3	-0.09842446
3	0x3e50a4a3	0.20375304
4	0x3e37bc4f	0.17942928
5	0xbf5a9e81	-0.8539811
6	0x3da10788	0.078627646
7	0xbe8cc0f2	-0.27490956
8	0x3df53977	0.11973851
9	0x3e8390a3	0.25696287
10	0xbd71698d	-0.05893855
11	0x3dce941b	0.100868426
12	0xbece689d	-0.4031419
13	0xbf07b7ad	-0.5301464
14	0xbd0c7436	-0.034290515
15	0xbea66e94	-0.3250624
16	0x3ece5b07	0.40303823
17	0xbd08acf7	-0.033368077
18	0x3d883054	0.06649843
19	0xbe2d83fa	-0.16944876
20	0x3f30278a	0.6881033
21	0xbea646f4	-0.32476008
22	0x3e0076db	0.1254534
23	0xbd428034	-0.047485545
24	0xbd842307	-0.064519934
25	0x3e7a1a66	0.24424133
26	0xbdf10ca7	-0.11769991
27	0xbf426a4f	-0.75943464
28	0x3da002b5	0.07813016
29	0xbeb51485	-0.35367218
30	0xbf824a60	-1.0178947
31	0xbee65a5c	-0.44990814
32	0x3950e0b6	0.00019920137
33	0x3d60cbb8	0.05488178
34	0x3e34a8ac	0.17642468
35	0x3e8df8e2	0.27728945
36	0xbd5cb043	-0.053879034
37	0x3e262bb1	0.16227604
38	0x3e0f23f6	0.13978562
39	0x3e225e2c	0.15856236
40	0x3e0d142d	0.13777228
41	0xbe0ae51a	-0.13563958
42	0xbe6f1776	-0.23348793
43	0x3eb5e98d	0.35529748
44	0x3e669562	0.22517923
45	0x3d925ace	0.07146226
46	0xbd377bde	-0.044795863
47	0xbe89145f	-0.26773354
48	0xbd2e2710	-0.04251772
49	0x3b28981a	0.0025725425
50	0xbf23c797	-0.63976425
51	0xbe03b546	-0.12862119
52	0x3e85b442	0.26114088
53	0xbc0b0165	-0.008484219
54	0xbe1bd6c6	-0.15218648
55	0xbea563fe	-0.3230285
56	0xbd2457f5	-0.040122945
57	0x3dd3f002	0.10348512
58	0x3e00588b	0.12533776
59	0x3c7e79d3	0.015531975
60	0x3eea0593	0.45707378
61	0x3c85b4f2	0.016321633
62	0xbec3f68c	-0.38274038
63	0x3de80422	0.11328913
64	0xbf82d4b8	-1.0221167
65	0x3dab16b4	0.0835394
66	0xbc90ac70	-0.01766035
67	0x3ebdfbc1	0.37106135
68	0xbc65017b	-0.013977404
69	0xbf8af738	-1.0856695
70	0xbde52fe6	-0.111907765
71	0xbf8e8796	-1.1135128
72	0x3dcfc818	0.10145587
73	0x3d853f96	0.06506269
74	0x3e13588d	0.14389248
75	0x3d1ca3db	0.038242202
76	0xbf90a6f9	-1.1300956
77	0xbdfeadcf	-0.12435495
78	0x3dd71cec	0.10503563
79	0x3e30079f	0.17190407
80	0xbdb642df	-0.088994734
81	0xbcc97c88	-0.024595514
82	0x3cace238	0.021103963
83	0x3dcd3fb0	0.10021913
84	0xbe27f608	-0.16402447
85	0xbf35ea43	-0.7106058
86	0x3db94e66	0.090481564
87	0x3d7e45a0	0.06207812
88	0x3e121afa	0.14268103
89	0xbc971577	-0.018442852
90	0xbe3509b9	-0.1767949
91	0xbf750bf1	-0.95721346
92	0x3de5cb93	0.11220469
93	0xbe3e71d9	-0.18598117
94	0xbeba43db	-0.36379895
95	0x3d471270	0.048601568
96	0xbdc0f7b8	-0.094222486
97	0xbddba693	-0.10725131
98	0x3e8da384	0.27663815
99	0xbd9c96bc	-0.07645938
100	0x3d55b21e	0.05217182
101	0xbee02586	-0.43778628
102	0x3d294fdf	0.041335937
103	0x3d4ddb37	0.050257888
104	0xbbc9ead1	-0.0061620255
105	0xbde26e69	-0.11056215
106	0xbdd28b3b	-0.10280462
107	0xbc72a850	-0.014810637
108	0xbe7e5e07	-0.24840556
109	0xbd9c7508	-0.076395094
110	0x3d7a4e3a	0.06110976
111	0xbed02b42	-0.40658003
112	0x3d363a44	0.04448916
113	0xbe9d7377	-0.30752155
114	0xbf2fb47b	-0.68634766
115	0x3e0f3dfd	0.1398849
116	0x3f0d6f3f	0.55247873
117	0x3d8ef3f7	0.06980126
118	0xbd44d68d	-0.048056174
119	0xbd4340f7	-0.047669377
120	0xbd80b647	-0.06284767
121	0x3d7ba7dd	0.061439384
122	0x3d8f6e87	0.07003503
123	0xbe2c0d3c	-0.16801924
124	0x3db449bb	0.088031255
125	0xbd0382fc	-0.03210734
126	0x3dc068f1	0.09395016
127	0xbde4d9f9	-0.111743875
128	0xbea45269	-0.32094124
129	0x3d526311	0.05136401
130	0xbc565031	-0.013080643
131	0xbc0104f4	-0.007874716
132	0xbd04f110	-0.032456458
133	0xbd7198c0	-0.058983564
134	0x3ebfac9b	0.37436375
135	0xbedc23ae	-0.4299597
136	0x3df46830	0.11933935
137	0x3dce0695	0.10059849
138	0x3e0f1aea	0.1397511
139	0x3cba9b53	0.022779142
140	0xbe2b7acd	-0.16746064
141	0xbeb9fe24	-0.36326706
142	0x3e378ada	0.17924061
143	0x3f4793bf	0.7795982
144	0xbd3a3230	-0.04545802
145	0x3d3bfe32	0.045896716
146	0xbd4ea0ca	-0.05044631
147	0xbe2cc500	-0.16872025
148	0xbe00fb54	-0.12595874
149	0xbf7f56a1	-0.9974156
150	0xbd5e44de	-0.054264896
151	0xbd78eed2	-0.06077463
152	0xbda7c7f4	-0.08192435
153	0x3d8f4ef6	0.069974825
154	0xbfdc5502	-1.7213442
155	0x3dd8f096	0.10592763
156	0xbf504c35	-0.8136628
157	0xbfbe0a1c	-1.4846835
158	0x3dbb87cc	0.091567606
159	0xbd5d8f91	-0.054091994
160	0x3e07c5e7	0.13259088
161	0x3e873274	0.2640568
162	0xbdfcf005	-0.123504676
163	0x3ea43f43	0.32079515
164	0xbe37ac0c	-0.17936724
165	0x3dce80c0	0.10083151
166	0x3e151a02	0.14560702
167	0x3e818851	0.25299314
168	0x3d95ddf1	0.073177226
169	0x3d0958b3	0.033531856
170	0xbf0b3795	-0.54381686
171	0xbd563fbb	-0.05230687
172	0x3e84ae1b	0.25914082
173	0x3de1a25a	0.11017294
174	0x3da57997	0.08079832
175	0xbf03c666	-0.51474607
176	0x3bdc2ce1	0.006719217
177	0xbd765b99	-0.060145948
178	0xbd893993	-0.067004345
179	0xbe2f4843	-0.1711741
180	0x3ec2e2e8	0.3806374
181	0x3d93daa8	0.0721944
182	0xbe3e4cde	-0.1858401
183	0xbd8190b3	-0.06326427
184	0xbd90e447	-0.070747904
185	0x3deb2f95	0.11483685
186	0xbe2e984b	-0.17050283
187	0x3d30b7d5	0.043144066
188	0x3dd64479	0.10462279
189	0x3dc988d9	0.09840555
190	0x3e778b78	0.24174297
191	0x3db6aead	0.089200355
192	0x3de1fe12	0.11034788
193	0x3e38deac	0.18053693
194	0xbf1e3116	-0.6179365
195	0xbf8a91b0	-1.082571
196	0xbe81edf0	-0.25376844
197	0x3da12817	0.07868975
198	0xbe91eefe	-0.2850265
199	0x3c819867	0.015819741
200	0xbed188ae	-0.4092459
201	0xbee5dd9f	-0.44895646
202	0xbcd907fa	-0.026493061
203	0xbf4aed6c	-0.7926853
204	0xbe12a629	-0.14321198
205	0xbd934370	-0.07190597
206	0xbdd16e6e	-0.10226141
207	0x3efd9ad4	0.49532187
208	0x3d91ac12	0.07112898
209	0x3c93df69	0.018050866
210	0xbce6aec8	-0.028159514
211	0xbe8222db	-0.25417218
212	0x3efb4234	0.49073946
213	0xbbe7ea50	-0.007077493
214	0xbe2756f3	-0.16341762
215	0xbf6966e7	-0.9117264
216	0x3e148009	0.14501967
217	0xbe11b73e	-0.14230058
218	0x3e31b135	0.17352755
219	0xbe04827c	-0.12940401
220	0xbc52ef6b	-0.0128744645
221	0xbedcb87e	-0.43109506
222	0x3d9b1eb5	0.07574216
223	0xbd91f99e	-0.07127689
224	0x3d22f101	0.03978062
225	0x3e5ce777	0.21572672
226	0xbf1514f3	-0.5823509
227	0xbf507039	-0.8142124
228	0xbde449e5	-0.11146907
229	0x3d83b7ea	0.06431563
230	0xbf0c367f	-0.54770654
231	0xbe0b542e	-0.13606331
232	0xbc773c66	-0.015090084
233	0x3d58e4f6	0.05295273
234	0x3e6651c9	0.22492136
235	0xbf16387b	-0.5867993
236	0xbe30f3fa	-0.1728057
237	0xbeb988b8	-0.3623712
238	0x3d049531	0.032368843
239	0x3c55c54d	0.013047528
240	0x3d8ded31	0.06930006
241	0x3d38ae88	0.04508832
242	0xbf9e84ce	-1.2384279
243	0xbee32a6e	-0.4436831
244	0xbf311b4d	-0.6918228
245	0xbdf817d2	-0.12113918
246	0x3cc7a0c3	0.02436865
247	0xbe920a24	-0.28523362
248	0xbdd02387	-0.10163026
249	0x3d5f1475	0.05446287
250	0x3d9ce0fd	0.076601006
251	0xbc23958d	-0.009984386
252	0xbea9927c	-0.3311957
253	0xbd808305	-0.0627499
254	0xbe256518	-0.16151845
255	0xbdf5e358	-0.12006253

conv1.0.bias f4 [64]
0	0xbd85f0b5	-0.06540052
1	0xbdfaf528	-0.12253791
2	0x3ef8fa0d	0.48628274
3	0x3eef7224	0.4676677
4	0xbeca4cbd	-0.39511672
5	0xbe797fac	-0.24365109
6	0x3df0257e	0.11725901
7	0x3dfcc0d5	0.12341467
8	0x3e7590bf	0.23980998
9	0x3eb0af7a	0.34508878
10	0xbbc49444	-0.00599912
11	0xbf14a822	-0.5806905
12	0xbf1bfdbb	-0.60934037
13	0x3de8c94e	0.11366521
14	0x3dc124da	0.09430857
15	0xbf0bfae6	-0.54679716
16	0xbadc296b	-0.0016797011
17	0xbe86bf1e	-0.26317686
18	0xbe963744	-0.2933904
19	0x3e2d9604	0.16951758
20	0xbd0d44ba	-0.03448937
21	0x3ee23ce0	0.4418707
22	0xbb3fd68c	-0.0029272167
23	0x3eb7f441	0.35928538
24	0x3ea48d8d	0.32139245
25	0xbe95e246	-0.29274195
26	0xbe877395	-0.2645537
27	0xbeef48d3	-0.46735248
28	0xbed27e2a	-0.4111188
29	0x3de43868	0.11143571
30	0xbee06243	-0.43824968
31	0xbf5665dc	-0.83749175
32	0x3e7e0a94	0.24808723
33	0x3ca253d7	0.019815369
34	0xbdad8d7f	-0.08474254
35	0xbf219be2	-0.63128483
36	0x3e36448b	0.17799585
37	0xbd10fcfa	-0.035397507
38	0xbe33d4f9	-0.17561711
39	0xbefdf841	-0.49603465
40	0xbe672b47	-0.22575103
41	0x3e8ddac6	0.27705973
42	0xbea5c5d5	-0.32377496
43	0xbec078ba	-0.37592107
44	0xbe8f5c8b	-0.28000292
45	0xbd57b3b4	-0.052661613
46	0xbf757cd5	-0.95893604
47	0x3e88b193	0.26697978
48	0xbeaccb7f	-0.33749005
49	0xbdc0352f	-0.09385144
50	0xbf4183f8	-0.75591993
51	0x3c8d8bd3	0.017278587
52	0xbf0ce80b	-0.5504157
53	0xbe275c62	-0.16343835
54	0x3ece57e2	0.40301424
55	0xbdd2ac6a	-0.102867916
56	0xbe2057ab	-0.15658443
57	0xbaa9cc49	-0.0012954558
58	0xbe190c9f	-0.14946221
59	0xbf2287a2	-0.6348821
60	0xbf1151ed	-0.56765634
61	0xbeb45b7b	-0.35226044
62	0xbe3ffa60	-0.18747854
63	0x3e849b45	0.2589971

conv2.0.weight f4 [128, 64, 1]
0	0xbeaa9105	-0.33313766
1	0xbd3ec059	-0.046570156
2	0x3d232541	0.03983045
3	0xbef59313	-0.4796377
4	0xbe428aef	-0.18998311
5	0x3cfec132	0.031097982
6	0xbde108bd	-0.10987995
7	0xbe334147	-0.1750537
8	0xbbdef183	-0.006803693
9	0xbe6ad507	-0.22932826
10	0x3da1b048	0.07894951
11	0xbf5af200	-0.8552551
12	0x3e3f528e	0.18683836
13	0x3dad3aea	0.084585026
14	0xbdac4e1b	-0.08413335
15	0x3cea55ca	0.02860536
16	0xbe662ce7	-0.22478066
17	0xbe84a260	-0.25905132
18	0xbf210098	-0.6289153
19	0x3ea2ee83	0.31822595
20	0xbcbea510	-0.023272067
21	0xbe1514b5	-0.1455868
22	0x3be40c0f	0.0069594453
23	0x3d2fdbc0	0.04293418
24	0xbd4d40d8	-0.050110668
25	0x3dcead34	0.100916296
26	0xbc7af272	-0.0153165925
27	0x3e8257a0	0.25457478
28	0xbd151fed	-0.0364074
29	0xbec92a85	-0.39290252
30	0xbd14d011	-0.03633124
31	0x3d5e5414	0.054279402
32	0xbdf79fc7	-0.12091022
33	0xbdc4bfd3	-0.096069
34	0xbf223e2a	-0.63376105
35	0xbeefe286	-0.4685251
36	0xbf979c04	-1.1844487
37	0x3eacf67b	0.337818
38	0x3da47c0a	0.08031471
39	0x3e5b95b5	0.21443827
40	0x3d0dcd3a	0.034619547
41	0xbe22b465	-0.15889128
42	0xbe2242a3	-0.15845732
43	0xbf1db9e2	-0.6161176
44	0xbe214399	-0.15748443
45	0xbf3ddb55	-0.741628
46	0x3d361da1	0.04446185
47	0xbd5dfb64	-0.054194823
48	0xbe4fb822	-0.20285085
49	0xbe032624	-0.12807518
50	0xbcca7fd5	-0.024719158
51	0xbe938b22	-0.28817087
52	0xbeceb163	-0.4036971
53	0xbe2b59aa	-0.16733423
54	0xbf3a1aee	-0.7269734
55	0x3ddef986	0.108874366
56	0xbe6d9e2f	-0.23204874
57	0xbe6a5781	-0.22884943
58	0xbe1e4715	-0.15456803
59	0xbf2085e7	-0.6270432
60	0x3e93537d	0.28774634
61	0xbe34f201	-0.17670442
62	0xbf3ea620	-0.74472237
63	0x3dcb09ec	0.09914002
64	0xbe4b9558	-0.19881189
65	0xbe63a368	-0.22230303
66	0x3dbf7ef5	0.09350387
67	0x3ea41db3	0.3205391
68	0x3e34cf42	0.17657188
69	0xbd5d598b	-0.054040473
70	0xbe82f6d4	-0.2557894
71	0x3d98e321	0.074651964
72	0x3e33f300	0.17573166
73	0xbdd4ae96	-0.10384862
74	0x3ddff861	0.109360464
75	0xbe0b20a2	-0.13586667
76	0xbf48593c	-0.7826116
77	0x3d298e88	0.041395694
78	0xbc3cd3a4	-0.011525068
79	0xbd869d86	-0.06573014
80	0x3d83ef4d	0.064421274
81	0x3e0c0cf0	0.1367681
82	0xbe8fbf93	-0.28075847
83	0x3df5043b	0.119636975
84	0xbeae3520	-0.34024906
85	0x3e1675a6	0.14693317
86	0xbe894b22	-0.26815134
87	0xbd48152a	-0.04884831
88	0x3dbd1889	0.09233195
89	0xbe6efcd8	-0.2333864
90	0x3caf9949	0.021435397
91	0x3e9712ad	0.29506436
92	0x3eb8d8f4	0.36103022
93	0x3de6f867	0.11277848
94	0xbe4feedf	-0.20305966
95	0xbefe5772	-0.4967609
96	0x3de07127	0.10959082
97	0xbd1f5b28	-0.038905293
98	0x3ec49d6f	0.38401362
99	0x3d6025ff	0.054723736
100	0xbd4865dc	-0.048925266
101	0xbde4a1cf	-0.11163675
102	0xbf162605	-0.58651763
103	0xbe278298	-0.16358411
104	0xbedf8416	-0.4365546
105	0x3e68b157	0.227239
106	0xbea52cce	-0.32260746
107	0xbe8503c1	-0.25979427
108	0x3c4d158d	0.012517345
109	0xbdd8b874	-0.10582057
110	0xbe1ad820	-0.15121508
111	0x3e8804f0	0.26566267
112	0xbec09a9b	-0.37617955
113	0xbeb62722	-0.3557673
114	0x3c0b54f7	0.008504144
115	0xbd17664f	-0.036962803
116	0x3f16ff59	0.5898338
117	0xbd7bbb1a	-0.06145773
118	0xbd7783f3	-0.06042857
119	0x3d8e772e	0.069563255
120	0xbd3b6a44	-0.04575564
121	0x3e73f122	0.23822454
122	0xbeb927aa	-0.36163074
123	0xbd826c20	-0.063682795
124	0x3e080a60	0.13285208
125	0xbddb89b9	-0.10719628
126	0xbd9aed91	-0.075648434
127	0xbe9cfe2e	-0.30662674
128	0xbe835bd7	-0.25656006
129	0xbe27db36	-0.16392216
130	0xbf6aee4c	-0.9176986
131	0xbf3c88f9	-0.73646504
132	0x3e11d20b	0.14240281
133	0x3d268d86	0.04066231
134	0xbd7772a7	-0.060412075
135	0x3e2d547d	0.16926761
136	0x3c401557	0.011723838
137	0x3e229d59	0.15880336
138	0xbdc0efcb	-0.09420737
139	0xbdcbc5a4	-0.09949806
140	0x3e76f174	0.24115545
141	0xbf2c8e5e	-0.67404735
142	0x3e66d9e4	0.22544056
143	0x3e5b0091	0.21386935
144	0x3ddd39c4	0.108020335
145	0xbe78934b	-0.24274938
146	0xbe988d2b	-0.29795203
147	0x3dd90571	0.10596741
148	0xbf3a526b	-0.7278201
149	0xbe0ef59f	-0.13960885
150	0xbdfff215	-0.12497345
151	0x3d488ef6	0.048964463
152	0xbe05092a	-0.12991777
153	0xbf28f705	-0.6600192
154	0x3e9851a1	0.29749778
155	0xbd1aa726	-0.03775706
156	0x3edff610	0.43742418
157	0x3e86f1b5	0.26356283
158	0x3eab5364	0.3346206
159	0x3e59aba9	0.2125689
160	0x3da248bd	0.0792403
161	0xbb14b1b5	-0.002268893
162	0xbe1520cf	-0.14563297
163	0x3e8de59b	0.27714238
164	0x3e020b1d	0.12699552
165	0xbd9d6f61	-0.076872595
166	0x3d4323c0	0.047641516
167	0xbe7f2520	-0.24916506
168	0xbe911e3b	-0.28343377
169	0xbe1bffa1	-0.15234233
170	0xbed4fd51	-0.41599515
171	0xbe5b5d73	-0.21422367
172	0x3c6aef6f	0.014339312
173	0x3ea316db	0.31853375
174	0x3e565c65	0.20933683
175	0xbe2f8302	-0.1713982
176	0xbeab6ad1	-0.33479932
177	0x3e4f10f5	0.20221312
178	0xbe90eea0	-0.28307056
179	0xbdc71ef1	-0.097226985
180	0xbf599774	-0.84996724
181	0xbcb3d609	-0.021952646
182	0xbea0fc09	-0.31442288
183	0xbf17fde8	-0.59371805
184	0xbe676d73	-0.22600345
185	0x3c10d7d8	0.008840524
186	0xbd7bedb9	-0.061506007
187	0x3e690a50	0.2275784
188	0xbf360ee2	-0.7111646
189	0x3ec020a3	0.375249
190	0xbe0a68f7	-0.13516603
191	0xbda9120d	-0.08255396
192	0xbe359411	-0.17732264
193	0xbdd32a95	-0.10310856
194	0xbe10a95d	-0.14127107
195	0x3ddaf4de	0.10691236
196	0x3c914fb1	0.017738195
197	0xbde86d8a	-0.11349018
198	0x3d232e43	0.03983904
199	0x3e5772c9	0.21039881
200	0x3d7615dc	0.06007944
201	0x3d7f567d	0.06233834
202	0xbe0a4c2d	-0.13505621
203	0x3a765512	0.0009396832
204	0xbec58170	-0.38575315
205	0x3eb1690e	0.34650463
206	0xbe9c85ed	-0.30570927
207	0xbe6ba7fe	-0.23013303
208	0xbee152de	-0.44008535
209	0xbe79bfc6	-0.24389562
210	0xbc5eb7b4	-0.013593603
211	0x3e1e16c5	0.15438373
212	0x3e2d9f0a	0.169552
213	0xbe6701a6	-0.22559223
214	0x3e3146fc	0.17312235
215	0xbee5ab29	-0.44857147
216	0xbd71ead9	-0.05906186
217	0xbc89c1c8	-0.016816035
218	0x3e82ad49	0.2552283
219	0x3e025098	0.12726057
220	0x3cc02095	0.023453036
221	0xbd3cfd1f	-0.046139833
222	0xbe9e4e70	-0.30919218
223	0x3d436ad4	0.0477093
224	0x3d0aa6ff	0.033850666
225	0x3dd6bc1c	0.10485098
226	0xbceb9447	-0.028757228
227	0xbc974c16	-0.018468898
228	0x3e577bc0	0.210433
229	0xbe4635e4	-0.19356495
230	0x3d805d97	0.06267851
231	0xbddbc58b	-0.10731038
232	0xbea34e2f	-0.31895587
233	0xbe0c4909	-0.13699736
234	0xbccd4d42	-0.025061253
235	0xbd3d1c3b	-0.0461695
236	0xbd4907a7	-0.049079563
237	0xbe381bdc	-0.17979378
238	0xbec828a2	-0.390935
239	0xbdba7679	-0.09104628
240	0x3e9a65b5	0.3015572
241	0x3e610f3c	0.21978468
242	0x3bbfccf0	0.005853288
243	0x3d4e5cde	0.050381534
244	0xbe22297c	-0.15836138
245	0x3d1b4ee7	0.037917044
246	0x3c9b031e	0.018922385
247	0x3d4b8115	0.04968365
248	0xbe0aaf76	-0.13543496
249	0xbe597d8f	-0.21239303
250	0xbdb76faf	-0.08956849
251	0xbde46881	-0.11152745
252	0xbdac90f5	-0.08426086
253	0xbdb7351c	-0.08945677
254	0x3d0b675a	0.03403411
255	0x3dda2b1b	0.10652753

conv2.0.bias f4 [128]
0	0xbe5b61da	-0.21424046
1	0x3aed7540	0.0018116608
2	0xbea2de6c	-0.3181032
3	0x3e33b031	0.1754768
4	0x3e6beaf4	0.23038846
5	0xbda22600	-0.07917404
6	0x3f03fa42	0.5155374
7	0x3df9c135	0.121950544
8	0x3d4ca90a	0.049965896
9	0x3bbf5608	0.005839113
10	0x3ddb5492	0.1070949
11	0x3a65319c	0.0008743049
12	0x3ddaa684	0.106762916
13	0xbf4983b7	-0.78716606
14	0x3eb25248	0.348284
15	0xbe15df12	-0.14635876
16	0x3e1759ad	0.14780302
17	0xbed95cdc	-0.4245366
18	0x3e4d5bc3	0.20054536
19	0x3e4bb70e	0.19894049
20	0xbafb6ea1	-0.001918275
21	0x3d3d77c0	0.04625678
22	0x3ef0de47	0.47044584
23	0x3e57628c	0.21033686
24	0x3e39ea7c	0.18155855
25	0xbe920eb4	-0.28526843
26	0xbee620fc	-0.4494704
27	0x3c377889	0.011198171
28	0x3e493182	0.19647792
29	0x3d12532b	0.035723846
30	0x3c973f78	0.018462881
31	0xbf2e5776	-0.68102205
32	0x3dbd190f	0.09233295
33	0xbebf719b	-0.37391362
34	0xbee828bf	-0.45343587
35	0xbea029b1	-0.31281808
36	0xbdcd046f	-0.10010611
37	0x3e33eb64	0.17570263
38	0xbe0c8080	-0.13720894
39	0x3cbe37a9	0.0232199
40	0xbdfd0137	-0.12353747
41	0x3e58cd34	0.21172029
42	0xbdd1a1f3	-0.102359675
43	0x3d8292a6	0.06375627
44	0xbdf535d1	-0.11973155
45	0x3e40aa2f	0.1881492
46	0x3eb4260f	0.35185286
47	0x3d6f953b	0.058491927
48	0xbecc8d1f	-0.39951417
49	0x3dfff554	0.124979645
50	0x3c09ff9e	0.00842276
51	0xbe1bc644	-0.15212351
52	0x3e500b61	0.2031684
53	0xbe8cefe5	-0.27526775
54	0x3e27218d	0.16321392
55	0xbe83bed4	-0.25731528
56	0x3e0b3af1	0.13596703
57	0xbe6001ff	-0.21875761
58	0xbde1fd68	-0.110346615
59	0xbf17a51f	-0.5923633
60	0xbcf61bfa	-0.030042637
61	0xbe735a19	-0.23764838
62	0xbdebe157	-0.115175895
63	0xbe12491e	-0.14285704
64	0xbd711634	-0.058859065
65	0xbb8ae8a0	-0.004239157
66	0xbe0a7e23	-0.1352468
67	0xbd9b37b6	-0.075789854
68	0xbf54f19c	-0.83181167
69	0xbd802e72	-0.06258859
70	0xbec94fab	-0.39318594
71	0x3dc49bf1	0.09600056
72	0x3e6f0b2c	0.23344105
73	0xbdc04fa4	-0.0939019
74	0xbe038b89	-0.12846197
75	0x3d4cc962	0.04999674
76	0x3f08c042	0.5341836
77	0xbf0104fd	-0.50398237
78	0x3eb200b4	0.3476616
79	0x3ee3612f	0.44410083
80	0xbeb3eccb	-0.35141596
81	0xbe4109ee	-0.18851444
82	0xbe7d62a2	-0.24744657
83	0xbc6ed10f	-0.014576211
84	0x3b16e4bf	0.0023024527
85	0xbe4f7518	-0.20259511
86	0xbc0bb632	-0.0085273255
87	0xbd4f056f	-0.05054229
88	0x3e5489e6	0.20755729
89	0xbdb117ea	-0.08647139
90	0x3e1d1869	0.15341343
91	0x3e8f4202	0.27980047
92	0xbde64145	-0.11242918
93	0xbcc070b9	-0.02349125
94	0x3de4f03e	0.11178635
95	0x3eed4c3d	0.46347228
96	0xbd1d3281	-0.038378242
97	0xbcf72728	-0.030170038
98	0xbd917340	-0.0710206
99	0xbefbdf57	-0.49193832
100	0xbd365aed	-0.044520307
101	0x3ebc505a	0.36780053
102	0xbdcfa991	-0.10139764
103	0x3e8ef8fc	0.27924335
104	0xbdef8d62	-0.116968885
105	0x3d1a683a	0.037697054
106	0x3e4d765d	0.20064683
107	0xbe8daef5	-0.27672544
108	0x3e29c91a	0.1658062
109	0x3e2270d1	0.15863349
110	0xbe6714da	-0.22566548
111	0x3d5d7ac4	0.054072157
112	0x3dc493dc	0.095985144
113	0x3e43b994	0.19113761
114	0x3e3a5331	0.18195798
115	0xbdfdf6e0	-0.12400603
116	0xbda9e221	-0.08295084
117	0xbd304f53	-0.0430444
118	0x3d40c37f	0.04706144
119	0xbe730406	-0.23732004
120	0xbe1c6371	-0.15272309
121	0xbc708d7d	-0.014682171
122	0xbe7731ac	-0.24140042
123	0xbec69aa3	-0.38789853
124	0x3ec22bee	0.3792414
125	0x3db9b79b	0.09068223
126	0xbe4a7e42	-0.19774726
127	0xbf10e9b5	-0.5660661

fc1.0.weight f4 [64, 128]
0	0xbbd83675	-0.0065982887
1	0xbf042b5b	-0.51628655
2	0x3c0230a9	0.007946172
3	0xbe783413	-0.24238615
4	0xbe0e8e71	-0.13921525
5	0x3d8b4c4f	0.06801664
6	0x3d23819e	0.039918534
7	0xbda4b821	-0.08042932
8	0xbebb39dd	-0.36567584
9	0xbe9a3ecb	-0.30126032
10	0x3dec37de	0.11534093
11	0x3d53f6ca	0.05174903
12	0xbc7e4d30	-0.015521333
13	0xbf5599de	-0.8343791
14	0x3e5cdfff	0.21569823
15	0xbf73a851	-0.95178705
16	0x3c08f03f	0.00835806
17	0x39186888	0.0001453479
18	0x3ccd58fe	0.025066849
19	0x3e10ebca	0.14152446
20	0xbd5bd87d	-0.053673256
21	0xbdcdbad0	-0.10045397
22	0x3e6e95f5	0.23299392
23	0x3d740eda	0.059584476
24	0xbbee3d3a	-0.0072704824
25	0x3de2ef71	0.11080826
26	0xbf9dac42	-1.2318194
27	0x3dadb4dc	0.08481762
28	0x3e005442	0.12532142
29	0x3dccf8b7	0.10008376
30	0xbec3c81e	-0.38238615
31	0xbf90ef3f	-1.1323012
32	0x3d0dc4a9	0.034611378
33	0xbc506600	-0.012719631
34	0x3e5e5410	0.21711755
35	0xbf132748	-0.57481813
36	0xbea40c4c	-0.32040632
37	0xbefe5494	-0.49673903
38	0xbead5901	-0.33856967
39	0xbcbaa2a1	-0.022782626
40	0x3d4a6797	0.049415197
41	0xbd1685d8	-0.036748737
42	0x3e1bde6e	0.15221569
43	0xbdb5441b	-0.08850881
44	0xbeb26668	-0.34843755
45	0x3d11f922	0.035637982
46	0x3dd09e28	0.10186416
47	0x3e09fab1	0.13474537
48	0xbf9d19ed	-1.2273537
49	0xbaaac5a0	-0.0013028868
50	0xbe32967a	-0.17440215
51	0x3dbbbf2d	0.09167323
52	0x3db46b4c	0.08809528
53	0xbed5b73b	-0.41741356
54	0xbdfebea3	-0.12438705
55	0x3c57e9ee	0.013178332
56	0x3e09c293	0.1345313
57	0x3d167728	0.03673473
58	0xbee5e914	-0.44904387
59	0x3bc427e9	0.005986203
60	0xbde9b946	-0.11412291
61	0x3e38ee9c	0.18059772
62	0x3e40fdd9	0.18846835
63	0x3ce1a675	0.027545193
64	0xbeb7f0c7	-0.35925886
65	0x3e7706b9	0.24123658
66	0x3c8d13a2	0.017221276
67	0x3ce05503	0.027384287
68	0x3b23addd	0.0024975457
69	0xbed062f9	-0.4070051
70	0xbda1ece8	-0.079065144
71	0x3e02e64c	0.12783164
72	0x3d69d053	0.05708344
73	0xbdcbd54d	-0.09952793
74	0xbd646686	-0.055761836
75	0xbf150653	-0.58212775
76	0x3c843fac	0.016143642
77	0xbf80ab5a	-1.0052292
78	0xbdd022bd	-0.10162876
79	0xbdec2878	-0.11531156
80	0xbce09f82	-0.02741981
81	0x3c9abe06	0.018889438
82	0x3e9ef181	0.31043628
83	0xbe027070	-0.12738204
84	0xbb8233d8	-0.0039734654
85	0x3deaeb45	0.11470655
86	0xbd88611e	-0.06659149
87	0x3d74c926	0.059762143
88	0x3da16726	0.07881002
89	0x3e358843	0.17727761
90	0x3d59cbb2	0.053172775
91	0xbea53f55	-0.3227488
92	0xbd81d1c1	-0.063388355
93	0xbc1e80c6	-0.009674257
94	0x3e0bf179	0.13666333
95	0x3d337ab9	0.04381821
96	0x3e14db83	0.14536862
97	0xbf0feae9	-0.5621782
98	0xbd9736fa	-0.07383533
99	0xbe14c0f3	-0.1452673
100	0xbda2a8ed	-0.07942376
101	0x3d67d38b	0.056598227
102	0xbd7f0f5e	-0.062270515
103	0x3d141e1a	0.03616152
104	0xbe99bd5f	-0.3002729
105	0x3ca0fe07	0.01965238
106	0xbed0e411	-0.40799
107	0x3db9dec4	0.09075692
108	0xbd4d4bf3	-0.05012126
109	0xbf015a50	-0.5052843
110	0xbd23f7e0	-0.040031314
111	0xbea130bd	-0.31482497
112	0x3e1778a5	0.14792116
113	0xbe1aaa3c	-0.15104002
114	0xbe039c4e	-0.12852594
115	0xbca3e073	-0.020004487
116	0xbeb9e2aa	-0.36305743
117	0x3e20e0f6	0.15710816
118	0xbbc429a2	-0.0059864083
119	0xbb924545	-0.004463824
120	0xbc8a0221	-0.016846718
121	0x3e4eca94	0.20194465
122	0xbf824f70	-1.0180492
123	0x3d29ab2c	0.041423008
124	0xbdf604aa	-0.12012608
125	0x3d96aaff	0.07356834
126	0xbe2bd032	-0.16778639
127	0xbf23c516	-0.63972604
128	0xbe1a141e	-0.15046737
129	0x3df1a355	0.11798731
130	0xbcbf8eb9	-0.023383485
131	0xbe5caa00	-0.21549225
132	0x3e48d034	0.19610673
133	0x3d8cfc84	0.06884101
134	0xbbfc64ac	-0.0077024307
135	0xbdc076e7	-0.09397679
136	0x3cce934e	0.025216725
137	0xbd913999	-0.07091064
138	0x3e36288d	0.17788906
139	0x3d30d422	0.043171056
140	0x3ddd57ba	0.10807748
141	0x3cf5f193	0.030022418
142	0x3d22ba3a	0.03972838
143	0xbe1d95db	-0.15389197
144	0xbe0aedf7	-0.13567339
145	0xbe5dbf82	-0.21655086
146	0xbe32775b	-0.17428343
147	0x3d1a50e7	0.03767481
148	0xbebe8fff	-0.37219235
149	0xbe003758	-0.12521112
150	0xbdb78f86	-0.08962922
151	0x3de9aa4f	0.11409437
152	0xbf07e107	-0.5307774
153	0x3cc22dbe	0.023703452
154	0x3db517e7	0.0884245
155	0x3d502dfc	0.050825104
156	0x3d545464	0.051838294
157	0x3d782b55	0.0605882
158	0x3cab5454	0.020914234
159	0xbdcaaa49	-0.098957606
160	0x3e238b5f	0.15971135
161	0xbe5a623d	-0.21326537
162	0x3e18f58a	0.14937416
163	0xbe595421	-0.21223499
164	0x3eb4ba3c	0.35298336
165	0x3d05747c	0.03258179
166	0xbe6675da	-0.22505894
167	0x3dccf899	0.10008354
168	0xbdf28ed7	-0.11843651
169	0x3e1395d6	0.14412627
170	0xbe89b818	-0.26898265
171	0xbea6e1f1	-0.32594255
172	0xbe2e4896	-0.17019877
173	0x3e0d4d02	0.13798907
174	0x3df2a517	0.11847895
175	0xbd7dc59c	-0.061956033
176	0xbe2698d7	-0.16269241
177	0x3cf397ea	0.029735524
178	0xbe65874f	-0.22414897
179	0xbe78c875	-0.24295218
180	0x3e07b073	0.13250904
181	0x3d58e8cf	0.0529564
182	0xbe7b3000	-0.2453003
183	0xbd47b730	-0.048758686
184	0xbd5b90db	-0.05360494
185	0x3bf0b0a2	0.007345275
186	0xbcf1fb83	-0.029538875
187	0xbe93489c	-0.28766334
188	0x3cd0b8f9	0.025478827
189	0xbdb1aa4e	-0.08675061
190	0x3c396017	0.0113144135
191	0xbd99c5a7	-0.07508402
192	0x3db7ccb2	0.089745894
193	0xbe069481	-0.13142587
194	0xbece0320	-0.4023676
195	0x3e56b5cb	0.20967786
196	0xbcc560fe	-0.024094101
197	0xbe59a14b	-0.21252935
198	0x3ec6c2ea	0.38820583
199	0x3d155bac	0.03646438
200	0x3da9ec27	0.082969956
201	0x3bd60973	0.006531888
202	0x3db52011	0.08844007
203	0xbe6bee47	-0.23040114
204	0x3de381a6	0.11108713
205	0xbd9a06b3	-0.07520809
206	0x3e119b63	0.14219432
207	0x3e218b8d	0.1577589
208	0x3e0b66a4	0.13613373
209	0x3d4a579f	0.04939997
210	0xbe3bd0b3	-0.18341331
211	0xbe9443c2	-0.28957945
212	0x3daf358c	0.08555135
213	0xbec3e9a2	-0.38264185
214	0xbe868f77	-0.2628133
215	0xbe602745	-0.2188998
216	0xbeba8695	-0.36430803
217	0xbf289172	-0.6584693
218	0x3d28fe78	0.041258305
219	0x3c1b1755	0.009466012
220	0xbece1b4e	-0.40255207
221	0x3e02201a	0.12707558
222	0xbe5b4c83	-0.21415906
223	0x3ec0ba2d	0.3764204
224	0xbe9ff6dd	-0.3124303
225	0xbdf93cfb	-0.12169834
226	0xbd7ffea9	-0.062498722
227	0x3d3f8157	0.046754207
228	0x3dfcf9fa	0.12352367
229	0x3e1b40f2	0.15161493
230	0x3cf9979c	0.0304678
231	0xbde56987	-0.11201768
232	0x3e17704f	0.14788936
233	0xbe0d19d3	-0.13779382
234	0xbcd39929	-0.025829868
235	0x3e0aced1	0.13555457
236	0x3bd10675	0.0063789436
237	0xbba05d60	-0.0048939437
238	0x3d54a29a	0.05191288
239	0xbe9a2498	-0.30106044
240	0xbee41842	-0.44549757
241	0xbea466d7	-0.3210971
242	0x3cfe1c55	0.03101937
243	0x3d1adbff	0.03780746
244	0xbd520d7f	-0.051282402
245	0x3d4e1e5c	0.05032192
246	0xbceda918	-0.029011294
247	0xbeb2e8a0	-0.34943104
248	0x3db0721b	0.08615514
249	0x3d1b39e4	0.037897006
250	0xbeacd942	-0.33759505
251	0x3e4fcd73	0.20293216
252	0x3daf9583	0.08573439
253	0x3d511655	0.051046688
254	0x3e582081	0.2110615
255	0x3d9ab4c6	0.07554011

fc1.0.bias f4 [64]
0	0x3e1d855c	0.15382904
1	0xbe46fd28	-0.19432509
2	0x3d8d0a62	0.06886746
3	0x3e9a0d80	0.30088425
4	0x3de355b6	0.111003324
5	0xbe16b89b	-0.14718859
6	0xbd8a3c83	-0.06749823
7	0x3debdd05	0.115167655
8	0xbe9fa975	-0.31183973
9	0x3dae8d77	0.08523076
10	0x3e020f7c	0.1270122
11	0x3e2bfd08	0.16795743
12	0x3e615668	0.22005618
13	0x3ec84114	0.3911215
14	0x3e53282f	0.20620798
15	0xbe1a83e9	-0.15089382
16	0xbed50e91	-0.41612676
17	0x3d9cb3e8	0.07651502
18	0x3e2046f3	0.15652065
19	0x3c3ab2ec	0.011395197
20	0x3e4e215b	0.20129912
21	0xbd988289	-0.074467726
22	0xbdb88e04	-0.09011462
23	0x3debce16	0.11513917
24	0x3e6db00e	0.23211691
25	0xbd805f33	-0.06268158
26	0xbcb23693	-0.021754539
27	0x3d9b46c2	0.07581855
28	0x3cc48da3	0.023993319
29	0xbdac1903	-0.08403208
30	0x3e8ff999	0.28120115
31	0x3ccb5cb8	0.024824485
32	0xbe09d787	-0.13461123
33	0xbc64681a	-0.013940835
34	0xbe2ea9c2	-0.17056945
35	0xbbf7e072	-0.0075645978
36	0x3e339c03	0.17539982
37	0xbcf7ca2d	-0.030247772
38	0x3e150b4a	0.14555088
39	0xbd9bd914	-0.07609764
40	0x3e4f34f9	0.20235051
41	0x3db972b6	0.090550825
42	0x3d037730	0.032096088
43	0xbd83cddc	-0.06435749
44	0xbd6db61a	-0.058034994
45	0x3d16857c	0.036748394
46	0xbdf1caad	-0.118062355
47	0xbdb532cc	-0.08847579
48	0x3e6b0470	0.22950912
49	0xbdca4cb6	-0.09877913
50	0xbe27d132	-0.16388395
51	0xbd82aa24	-0.06380108
52	0x3cd28bf2	0.025701497
53	0x3dcc0759	0.09962339
54	0xbe1d8bce	-0.15385363
55	0xbec121b6	-0.37721032
56	0x3d36863e	0.044561617
57	0x3eb604ed	0.35550633
58	0xbdeb91b5	-0.11502401
59	0x3df6a259	0.12042684
60	0xbe9359ec	-0.28779542
61	0xbe602471	-0.21888901
62	0xbe493700	-0.19649887
63	0x3d27f2fb	0.04100321

fc2.0.weight f4 [32, 64]
0	0x3c951f33	0.018203354
1	0x3cd6eb5b	0.026235273
2	0x3e4c4a6f	0.19950269
3	0x3e24390c	0.16037387
4	0x3e5b74d5	0.21431287
5	0xbe9cf628	-0.30656552
6	0xbebf5dde	-0.37376302
7	0xbebc1f04	-0.36742413
8	0xbf03ce75	-0.51486903
9	0xbea5505c	-0.32287872
10	0xbec29754	-0.3800608
11	0x3cc79d06	0.024366867
12	0x3e294060	0.16528463
13	0xbe451ba1	-0.19248821
14	0x3d8635d7	0.06553238
15	0xbea62e7a	-0.32457334
16	0xbcb8dd32	-0.022566412
17	0xbebccb7a	-0.3687399
18	0x3d35f62b	0.044424217
19	0x3dfcec98	0.12349814
20	0x3da56c57	0.08077305
21	0xbe750cb4	-0.23930627
22	0xbdaf04b6	-0.085458204
23	0x3e53eb31	0.20695187
24	0xbf0df96f	-0.5545873
25	0x3d6cffda	0.057861187
26	0x3cceb9c1	0.025235059
27	0x3d72936b	0.05922262
28	0xbd8a6b94	-0.067588
29	0xbc1d1cc8	-0.0095893815
30	0x3db45dd4	0.08806959
31	0x3e13571e	0.14388701
32	0x3dd5c4ef	0.10437953
33	0xbe9cb67a	-0.3060797
34	0xbec67c12	-0.38766533
35	0x3e6ba53b	0.23012249
36	0x3c8cfd54	0.01721064
37	0xbe50aa59	-0.20377482
38	0x3e56889b	0.20950548
39	0x3e4e2524	0.20131356
40	0xbe9807cc	-0.2969345
41	0x3da97ec2	0.0827613
42	0x3e0cca4b	0.13749044
43	0x3ceb3c8b	0.028715393
44	0xbdcb94cf	-0.09940492
45	0xbe8e6cd0	-0.27817392
46	0xbcd0949b	-0.025461486
47	0x3f460e28	0.7736535
48	0x3d1a80b4	0.037720397
49	0xbb93cd96	-0.0045105917
50	0xbd8f6721	-0.07002092
51	0xbdedde35	-0.11614648
52	0x3d839a20	0.064258814
53	0x3d68116f	0.05665725
54	0xbda22b51	-0.07918418
55	0xbf50fec7	-0.8163876
56	0x3e82dfff	0.2556152
57	0xbe6f0d40	-0.23344898
58	0x3d4aa56b	0.04947416
59	0x3e32abd6	0.17448363
60	0xbdf6518a	-0.12027271
61	0x3e7ecc76	0.24882683
62	0xbd9ea58c	-0.07746419
63	0x3b3410d2	0.0027475846
64	0x3ccd6b00	0.025075436
65	0xbea0132f	-0.31264636
66	0xbf860a44	-1.0471883
67	0xbefa34a2	-0.4886828
68	0x3da512e0	0.08060241
69	0xbd0c4cfb	-0.0342531
70	0x3df8b9cb	0.12144812
71	0xbb33777c	-0.002738445
72	0x3dff8157	0.124758415
73	0xbd94f4aa	-0.072732285
74	0xbaf807fa	-0.0018923276
75	0xbf399c94	-0.72504544
76	0xbf85079b	-1.0392946
77	0x3e0c791c	0.13718075
78	0xbf6c3e1e	-0.92282283
79	0xbd1ad927	-0.03780475
80	0xbed7a6bb	-0.42119393
81	0x3e307771	0.17233063
82	0xbdd8b414	-0.10581222
83	0xbf300ab3	-0.68766326
84	0x3dbd86f2	0.092542544
85	0xbefdef6e	-0.49596733
86	0x3dd9332c	0.106054634
87	0xbf3b0105	-0.7304843
88	0xbdab2cd1	-0.083581574
89	0x3e1b4c07	0.15165721
90	0xbee0f0e9	-0.439338
91	0xbe9c9f6d	-0.30590382
92	0x3dcb9bd4	0.09941831
93	0xbc1dce01	-0.009631635
94	0x3eb462eb	0.35231718
95	0xbeba739e	-0.36416334
96	0xbf1b2eb9	-0.6061817
97	0xbf183fe9	-0.5947252
98	0x3e68e062	0.22741845
99	0x3eb8d792	0.36101967
100	0xbf7b6f7b	-0.9821698
101	0x3c84125a	0.016122032
102	0xbf1608d5	-0.58607227
103	0xbedbbd39	-0.42917803
104	0x3e39e9e6	0.18155631
105	0xbf52c976	-0.82338655
106	0xbee644eb	-0.44974455
107	0xbeb390e6	-0.35071486
108	0xbdc5d791	-0.09660257
109	0x3d2c8958	0.04212317
110	0x3db6b1c5	0.089206256
111	0xbf44309d	-0.7663668
112	0xbf6a5d43	-0.91548556
113	0x3d8372b3	0.064183615
114	0xbc6f9920	-0.01462391
115	0xbcc8246e	-0.024431434
116	0xbe0755ec	-0.1321637
117	0xbf30ba4d	-0.6903427
118	0xbf1d2603	-0.61386126
119	0x3f3fb758	0.74889135
120	0xbf14db87	-0.5814747
121	0x3e974334	0.2954346
122	0x3c615e55	0.013755401
123	0x3e234d9c	0.15947574
124	0xbe4c34ac	-0.19941968
125	0xbecdca78	-0.40193534
126	0x3d9b32ca	0.075780466
127	0xbeead04c	-0.45862043
128	0xbe8999af	-0.26875064
129	0x3e492811	0.1964419
130	0x3bd8dca3	0.006618099
131	0x3dabc11f	0.08386444
132	0xbedc9aea	-0.4308694
133	0xbc269be5	-0.010169004
134	0xbdbd8dcd	-0.09255562
135	0xbc900e6a	-0.017584998
136	0x3e3db8b9	0.18527497
137	0x3e2cd159	0.16876735
138	0xbe180d00	-0.14848709
139	0xbcbd9bcd	-0.02314558
140	0xbe6112e9	-0.2197987
141	0xbe649cee	-0.22325489
142	0x3dabdfe5	0.08392314
143	0xbe021b45	-0.12705715
144	0xbd681dc0	-0.056668997
145	0xbda269a0	-0.079303026
146	0x3e805895	0.25067583
147	0xbd9409f8	-0.07228464
148	0xbe772b40	-0.24137592
149	0x3e98c605	0.29838577
150	0x3dccd278	0.10001081
151	0x3de54e1e	0.1119654
152	0x3e1ce80e	0.15322897
153	0x3d9df3dc	0.07712528
154	0x3d09ff58	0.03369078
155	0x3dbf9963	0.09355428
156	0x3e04587c	0.12924379
157	0xbd8b4d06	-0.068018004
158	0xbebaff6c	-0.36522996
159	0xbe2380c2	-0.15967086
160	0x3ecbda14	0.39814818
161	0x3ea1a922	0.3157435
162	0xbeab2ae4	-0.3343116
163	0xbe86161a	-0.26188737
164	0x3f33df2b	0.702624
165	0x3d8ac51e	0.06775878
166	0x3e3ade87	0.1824895
167	0x3f04d590	0.5188837
168	0xbe96086f	-0.2930331
169	0x3cef9db4	0.029250003
170	0x3dd29ea3	0.10284164
171	0x3eca7255	0.39540353
172	0x3c9a7c5c	0.018858127
173	0xbd383acd	-0.04497795
174	0x3d1d308c	0.038376376
175	0x3f1286b4	0.5723679
176	0x3e8ac1b4	0.2710091
177	0xbcc974f5	-0.024591902
178	0x3d3f6f3f	0.046736952
179	0x3bf525b9	0.0074813035
180	0xbdf36054	-0.118836075
181	0x3d9816cb	0.074262224
182	0x3e613bc6	0.21995458
183	0xbf176b02	-0.59147656
184	0x3f7483ac	0.95513415
185	0xbed4f634	-0.41594088
186	0xbdca2be9	-0.098716564
187	0x3e208114	0.1567424
188	0x3c95e2f7	0.018296702
189	0x3ebfb8e0	0.37445736
190	0xbd6a4a88	-0.057199985
191	0x3ea2ee08	0.31822228
192	0xbb241e9b	-0.0025042656
193	0xbe819c8c	-0.25314748
194	0x3d80621d	0.062687136
195	0x3ea038bd	0.31293288
196	0xbddb6629	-0.10712845
197	0xbe40cd4a	-0.18828312
198	0xbed79300	-0.4210434
199	0xbea1968e	-0.31560177
200	0xbf4c50be	-0.798107
201	0xbe2de1ef	-0.16980718
202	0xbec3540d	-0.38150063
203	0x3e0dbb7c	0.13841051
204	0x3e12ebd0	0.14347768
205	0xbec07c2f	-0.37594745
206	0x3e383c82	0.17991832
207	0xbe592d2b	-0.21208636
208	0xbe661e72	-0.22472551
209	0xbe75570f	-0.23958991
210	0x3d155072	0.03645367
211	0x3e2c48c1	0.16824628
212	0xbd9b352b	-0.075785
213	0xbed2994c	-0.4113258
214	0x3df3f515	0.1191198
215	0x3de35806	0.111007735
216	0xbea1bdcd	-0.3159012
217	0xbea35353	-0.3189951
218	0x3db03a36	0.08604853
219	0xbdb22000	-0.0869751
220	0xbe72c758	-0.23708856
221	0xbdfa6434	-0.122261435
222	0xbed705b2	-0.41996533
223	0x3d688c1f	0.056774255
224	0xbe08a21e	-0.13343093
225	0xbec59676	-0.38591355
226	0xbef89e0b	-0.48558077
227	0xbdd671d0	-0.10470927
228	0x3e1fe6c2	0.15615371
229	0xbe503329	-0.20332016
230	0x3e10e267	0.14148866
231	0x3df3b907	0.119005255
232	0xbee7c608	-0.45268273
233	0x3c923392	0.017846856
234	0x3cb65f8c	0.022262357
235	0x3dcec9e9	0.10097105
236	0xbbf54c19	-0.007485878
237	0xbea01bcd	-0.3127121
238	0x3c960756	0.018314045
239	0x3eb6532b	0.35610327
240	0xbd3140dd	-0.04327475
241	0xbeb7c7ac	-0.35894525
242	0x3c258ec2	0.010104837
243	0xbec64095	-0.38721147
244	0x3dd490f5	0.10379211
245	0x3de1ca12	0.1102487
246	0xbdaad846	-0.08342032
247	0xbe9b8d4d	-0.3038124
248	0x3e913760	0.2836256
249	0xbe070b94	-0.1318801
250	0x3b8189e9	0.0039532077
251	0x3e0e3dc3	0.13890748
252	0x3c893bb8	0.016752109
253	0xbd68a31f	-0.05679619
254	0xbe8766c4	-0.2644559
255	0x3cb46020	0.022018492

fc2.0.bias f4 [32]
0	0xbd35e452	-0.044407196
1	0x3e6e4ba1	0.23271038
2	0x3e44a2f5	0.19202788
3	0x3e1245f2	0.14284495
4	0x3e1759ac	0.14780301
5	0x3da6e908	0.08149916
6	0xbe113472	-0.14180163
7	0x3e3aa898	0.18228376
8	0x3d8bd66e	0.068280086
9	0x3e10dd6b	0.14146964
10	0x3e1a38eb	0.15060775
11	0x3e2ae370	0.16688323
12	0xbe0dccd3	-0.13847665
13	0x3d76c3ff	0.06024551
14	0xbe1f3374	-0.15546972
15	0x3d83d8fb	0.0643787
16	0x3e1cdd93	0.15318899
17	0x3d85ea4c	0.06538829
18	0xbe11f2ce	-0.14252779
19	0x3e52e1ed	0.20593996
20	0xbcaece7f	-0.0213387
21	0xbde43e90	-0.11144745
22	0xbe227e58	-0.15868509
23	0x3e33e6e2	0.17568544
24	0xbe35ac75	-0.17741568
25	0x3ec2934b	0.38003
26	0xbe8d5c37	-0.27609417
27	0x3e17275b	0.14761107
28	0xbde35d46	-0.11101775
29	0x3bb6f5c4	0.0055834968
30	0x3e3506d9	0.17678393
31	0xbe2afc8c	-0.16697901

head.0.weight f4 [11, 32]
0	0xc03f5226	-2.989389
1	0xbd8a28ba	-0.06746049
2	0xbfa13ced	-1.2596718
3	0xc08ca5ee	-4.395255
4	0xbfcc9583	-1.5983127
5	0xc0317ddd	-2.773307
6	0xbd810cdd	-0.063012816
7	0xbfebc14a	-1.8418362
8	0xbf0d04f3	-0.55085677
9	0xbfd08a49	-1.6292201
10	0xbf208c9b	-0.62714547
11	0xbf674a88	-0.903481
12	0xbecff764	-0.40618432
13	0xbe83db50	-0.2575326
14	0x3bd06d04	0.006360652
15	0xbd3a6eb0	-0.045515716
16	0xbe6dc9cf	-0.23221515
17	0xbfd5512c	-1.6665397
18	0xbe94ddf0	-0.29075575
19	0xc00fe504	-2.248353
20	0xbe9401f0	-0.28907728
21	0xbe43a32b	-0.19105212
22	0xbe8d6c2e	-0.27621597
23	0xbfc40e31	-1.5316831
24	0xc052c26c	-3.2931166
25	0xbfeec104	-1.8652654
26	0xbed51a61	-0.41621688
27	0xbe47cb40	-0.19511127
28	0xbe2bcc92	-0.16777256
29	0xbe9b9b51	-0.30391935
30	0xbfbdf4a4	-1.4840283
31	0xbe81ea84	-0.25374234
32	0xc0198851	-2.398945
33	0xbfc191f8	-1.5122671
34	0xbeebcacb	-0.46053156
35	0xbf9998d3	-1.1999763
36	0xbfb6caf7	-1.428069
37	0xbe80ed83	-0.25181207
38	0xbe45353b	-0.19258587
39	0xbf41ac97	-0.75653976
40	0xbeffd18e	-0.49964565
41	0xbed84666	-0.4224121
42	0xbf9e3c71	-1.2362195
43	0xbfb3a5d8	-1.4034986
44	0xbe28ee0c	-0.16497058
45	0xbe8c3ba3	-0.2738925
46	0xbe64d622	-0.2234731
47	0xbe98d3b2	-0.2984901
48	0xbebb8e28	-0.36631894
49	0xc0035a45	-2.0523846
50	0xbe34c725	-0.17654093
51	0xbfa48097	-1.2851743
52	0xbea0350e	-0.31290478
53	0xbeabe70f	-0.3357472
54	0xbe7ea493	-0.24867468
55	0xbf2e7b26	-0.6815666
56	0xbfc23176	-1.5171344
57	0x3e781ebe	0.24230477
58	0xbee6f23f	-0.45106694
59	0xbe5d0ca4	-0.21586853
60	0xbb822e2a	-0.0039727883
61	0xbea5afbb	-0.32360634
62	0xbf3c3c98	-0.7352996
63	0xbdea89cf	-0.11452066
64	0xc0250b0d	-2.5787995
65	0xbf9f7d97	-1.2460202
66	0xbeef3aaa	-0.46724445
67	0xbff76598	-1.9327879
68	0xbf756104	-0.9585116
69	0xbf210d28	-0.629107
70	0xbe6b13f4	-0.2295683
71	0xbf419e12	-0.7563182
72	0xbed6c156	-0.4194438
73	0xbeeb62fd	-0.4597396
74	0xbfbe72f5	-1.4878832
75	0xbfb70f6f	-1.4301585
76	0xbdc64f70	-0.0968312
77	0xbeb262b1	-0.3484092
78	0xbdb58a20	-0.08864236
79	0xbf131714	-0.5745709
80	0xbf00f6e0	-0.503767
81	0xbfc9f35d	-1.5777394
82	0xbe3e9724	-0.18612343
83	0xbfe52f2d	-1.7905022
84	0xbebad2a4	-0.3648883
85	0xbeaafd2e	-0.33396286
86	0xbe2f7494	-0.17134315
87	0xbf0320c8	-0.51221895
88	0xbf3ce686	-0.7378925
89	0xbe75e79e	-0.24014136
90	0xbecad01d	-0.39611903
91	0xbe9bf04e	-0.30456775
92	0xbdfa80fb	-0.12231632
93	0xbec724f2	-0.38895375
94	0xbf0c8425	-0.54889137
95	0xbed0da0b	-0.40791354
96	0xbff6db1e	-1.9285619
97	0xbfcee72c	-1.6164298
98	0xbefafc5f	-0.4902067
99	0xbfeb1135	-1.8364626
100	0xbf4110ad	-0.7541607
101	0xbf266fad	-0.65014154
102	0xbe49e4cf	-0.1971619
103	0xbf0bfecc	-0.54685664
104	0xbee6b602	-0.45060736
105	0xbed0f082	-0.40808493
106	0xbf7ca089	-0.9868246
107	0xbfaa83eb	-1.3321508
108	0xbdfb2128	-0.122621834
109	0xbe9dc5bd	-0.30814925
110	0xbea658a6	-0.32489508
111	0xbf358a0c	-0.7091377
112	0xbf40a60b	-0.7525336
113	0xbf9a6a38	-1.2063665
114	0xbe938a70	-0.28816557
115	0xc00d2bf9	-2.2058089
116	0xbebeb836	-0.37249917
117	0xbec45773	-0.38347968
118	0xbe7334bf	-0.2375059
119	0xbf065740	-0.5247688
120	0xbfb2c5fe	-1.3966672
121	0xbe9d19a4	-0.30683625
122	0xbeb18f92	-0.34679848
123	0xbec50472	-0.38479954
124	0xbea19785	-0.31560913
125	0xbeb8703e	-0.36023134
126	0xbf0bdeba	-0.5463673
127	0xbdec92f7	-0.11551469
128	0xbfa12cf5	-1.2591845
129	0xbfb11501	-1.3834535
130	0xbf086486	-0.53278387
131	0xbfaff9f8	-1.374816
132	0xbf1ad2fe	-0.604782
133	0xbef9a0ae	-0.487554
134	0xbe79bcf1	-0.24388482
135	0xbec987d3	-0.39361438
136	0xbf0ae625	-0.5425742
137	0xbedc9185	-0.43079773
138	0xbfde29e1	-1.735653
139	0xbfb6a4ec	-1.426908
140	0xbeb1377c	-0.34612644
141	0xbecbc360	-0.39797497
142	0xbe8b219a	-0.27174073
143	0xbf6e14b7	-0.9300036
144	0xbf64f551	-0.89436823
145	0xbf63f936	-0.8905214
146	0xbe85a38f	-0.26101348
147	0xbfcd2c72	-1.6029189
148	0xbed8473d	-0.4224185
149	0xbeb6387f	-0.35589978
150	0xbdf5fa83	-0.12010672
151	0xbec3d0b5	-0.38245168
152	0xbf9bb1ff	-1.2163695
153	0xbf095d90	-0.5365839
154	0xbe956582	-0.29179007
155	0xbef2a41f	-0.4739084
156	0xbead7874	-0.3388096
157	0xbed8f10f	-0.42371413
158	0xbee933ea	-0.4554742
159	0xbe542f16	-0.20721087
160	0xbf77c005	-0.96777374
161	0xbfdf1ddb	-1.7430986
162	0xbf06f444	-0.5271647
163	0xbfaf573f	-1.36985
164	0xbf03ca4c	-0.51480556
165	0xbef323c8	-0.47488236
166	0xbe88ea3b	-0.26741204
167	0xbeb8af36	-0.36071175
168	0xbf1f420a	-0.6221014
169	0xbed2440b	-0.41067538
170	0xbfaa650c	-1.3312087
171	0xbf6b6890	-0.91956425
172	0xbe4e14bb	-0.20125096
173	0xbee1d0f2	-0.44104725
174	0xbcc81dd5	-0.024428288
175	0xbfb2ad99	-1.3959228
176	0xbf61e0d4	-0.88233685
177	0xbf1fc8b2	-0.6241561
178	0x3d07cfce	0.033157162
179	0xbfe2db09	-1.7723094
180	0xbef460b3	-0.47730026
181	0xbed50ce7	-0.41611406
182	0xbd8fad60	-0.070154905
183	0xbed046bd	-0.4067897
184	0xbfa66712	-1.3000205
185	0xbf0c7465	-0.54865104
186	0xbeb55e92	-0.35423714
187	0xbf32b7d1	-0.6981173
188	0xbebd15ec	-0.36930788
189	0xbee21636	-0.4415757
190	0xbef4f402	-0.47842413
191	0xbeb07d50	-0.34470606
192	0xbf13f3fa	-0.57794154
193	0xbfc9d940	-1.5769424
194	0xbf06db41	-0.52678305
195	0xbf42a7a1	-0.7603703
196	0xbf15a0b6	-0.5844835
197	0xbf07de99	-0.5307403
198	0xbe6f0192	-0.23340443
199	0xbeb29d81	-0.3488579
200	0xbf11c0d6	-0.5693487
201	0xbeb93da4	-0.3617984
202	0xbf83b075	-1.0288225
203	0xbf215972	-0.6302711
204	0xbecf42b3	-0.40480575
205	0xbef8a7ba	-0.48565465
206	0xbea1f701	-0.31633762
207	0xbf9e6469	-1.2374393
208	0xbfa08af1	-1.2542402
209	0xbedf422f	-0.43605182
210	0xbe94f0d8	-0.2909
211	0xbfb4e06e	-1.413099
212	0xbf19c70b	-0.6006934
213	0xbf062eec	-0.5241535
214	0xbe35b057	-0.1774305
215	0xbeb461e1	-0.35230926
216	0xbfc111fa	-1.5083611
217	0xbf42e1b6	-0.7612566
218	0xbe67a10c	-0.22620028
219	0xbf47832c	-0.7793453
220	0xbe67b4d9	-0.22627582
221	0xbf084ced	-0.5324238
222	0xbeecca37	-0.46248028
223	0xbec05f84	-0.37572873
224	0xbeb554c0	-0.35416222
225	0xbf9b54c8	-1.2135248
226	0xbf0e1c13	-0.5551159
227	0xbf0adeea	-0.5424639
228	0xbf07b4f4	-0.5301049
229	0xbefca392	-0.49343544
230	0xbc118766	-0.008882379
231	0xbe9e0159	-0.30860403
232	0xbf4e9c2f	-0.8070707
233	0xbecb94f8	-0.39762092
234	0xbf62e618	-0.88632345
235	0xbef4dcaf	-0.47824618
236	0xbebe00d3	-0.37110004
237	0xbf23c7b6	-0.6397661
238	0x3cd0c2ca	0.025483508
239	0xbf941dc5	-1.1571585
240	0xbfbc97c7	-1.4733819
241	0xbec49712	-0.38396508
242	0xbe7edff9	-0.24890126
243	0xbf9bc4cf	-1.2169436
244	0xbf4b046d	-0.7930363
245	0xbf0e8232	-0.5566741
246	0xbcad5c7b	-0.021162262
247	0xbeb67f80	-0.3564415
248	0xbf56f4b2	-0.83967125
249	0xbf4c4c11	-0.7980357
250	0xbede6e67	-0.43443605
251	0xbf6312a3	-0.8870031
252	0xbec73a5d	-0.38911715
253	0xbf13a8df	-0.5767955
254	0xbee47ba4	-0.4462558
255	0xbe145bb4	-0.14488107

head.0.bias f4 [11]
0	0x3e1a7b50	0.15086102
1	0xbec27613	-0.37980708
2	0xbe7ab3dd	-0.24482675
3	0xbe808bf0	-0.25106764
4	0xbe774890	-0.24148774
5	0xbe56b37a	-0.20966902
6	0xbe6e391f	-0.23263977
7	0xbe6f8c62	-0.23393396
8	0xbe564c2e	-0.20927498
9	0xbe8817bd	-0.2658061
10	0xbe825894	-0.25458205
