ckpt/ckpt_6/camera_model.pth (torch, 218762 bytes, 16 tensors)

input.0.weight f4 [8, 3, 3, 3]
0	0xbe795ad6	-0.24351057
1	0x3dd90183	0.105959915
2	0x3dcaa829	0.09895355
3	0x3cb391a2	0.02192003
4	0xbe882b7d	-0.2659568
5	0xbe6a1b75	-0.22862037
6	0x3d87a737	0.066236906
7	0xbe4d54f5	-0.2005194
8	0xbe020f33	-0.1270111
9	0xbe2790c9	-0.16363825
10	0xbe3266bf	-0.17422007
11	0xbe3b3498	-0.18281782
12	0xbe0b5abe	-0.13608834
13	0xbe26c68b	-0.16286676
14	0xbe34ef77	-0.17669474
15	0xbe86ce43	-0.2632924
16	0xbe851356	-0.25991315
17	0xbe884a1d	-0.26619044
18	0xbe019d77	-0.12657724
19	0xbddfbe59	-0.10924978
20	0xbdf0251d	-0.11725829
21	0x3dcac960	0.099016905
22	0xbdbf3181	-0.09335614
23	0xbd26a2a8	-0.040682465
24	0xbd2fbd6b	-0.042905252
25	0xbe49de9c	-0.19713825
26	0x3bad1b23	0.005282776
27	0x3d1f2cd6	0.03886112
28	0xbeabe520	-0.33573246
29	0xbe923a90	-0.28560305
30	0xbd4914cd	-0.049092103
31	0xbe471bd8	-0.19444215
32	0xbea6266f	-0.32451198
33	0xbe11a7d0	-0.14224172
34	0xbe19f6f8	-0.15035617
35	0x3c79c8c6	0.015245622
36	0xbe62d6d9	-0.2215227
37	0xbe959f88	-0.29223275
38	0xbe42f99d	-0.19040532
39	0xbc8b00aa	-0.01696809
40	0x3d808770	0.06275833
41	0xbe8d7274	-0.27626383
42	0xbe99d2d4	-0.30043662
43	0xbe988a54	-0.29793036
44	0xbd9c43cb	-0.07630118
45	0xbe8551cd	-0.26038972
46	0xbe6c1d49	-0.23058046
47	0x3e151d20	0.14561892
48	0xbd04f775	-0.032462556
49	0x3d3c2f55	0.045943577
50	0xbe72cf85	-0.23711975
51	0x3c12fa0e	0.0089707505
52	0xbdf47752	-0.11936821
53	0x3c10e0b9	0.008842641
54	0xbea0c133	-0.313974
55	0x3e323c23	0.17405753
56	0x3dab2f02	0.083585754
57	0x3e8a68c5	0.27033058
58	0x3d016c7f	0.03159761
59	0x3e6dc45f	0.23219441
60	0x3ecb5d75	0.3971974
61	0xbdde7fc6	-0.108642146
62	0xbeb81c81	-0.35959247
63	0xbddf9abe	-0.109181866
64	0x3e5b2ea4	0.2140451
65	0x3e63ddaa	0.22252527
66	0x3e3d2fce	0.18475267
67	0x3ed59034	0.4171158
68	0x3e053e4b	0.13012044
69	0x3e837f37	0.25682995
70	0xbdbdbb3c	-0.09264228
71	0x3db89ac8	0.09013897
72	0xbe21d37f	-0.15803336
73	0x3dce1af1	0.100637324
74	0x3d1ccc6b	0.038280886
75	0x3e88b598	0.26701045
76	0x3e80546f	0.25064418
77	0x3e8efcbf	0.27927205
78	0x3eec45e4	0.46147072
79	0xbd2ecb78	-0.04267451
80	0xbe31f4d2	-0.17378548
81	0xbecc9599	-0.39957884
82	0x3de0ca41	0.10976077
83	0xbdea7a72	-0.11449136
84	0xbeadb123	-0.33924207
85	0x3aa807f0	0.0012819748
86	0xbca42eb8	-0.020041808
87	0xbe69ce08	-0.22832501
88	0xbe9571f4	-0.29188502
89	0xbe1b9b92	-0.15196064
90	0xbe517c40	-0.20457554
91	0xbd47490a	-0.04865364
92	0x3e0005e9	0.12502255
93	0xbdaa8d2f	-0.0832771
94	0xbe050d17	-0.12993275
95	0xbea7cf40	-0.32775307
96	0xbe866e68	-0.26256108
97	0xbeae3386	-0.34023684
98	0xbe971d93	-0.2951475
99	0xbdeb5c24	-0.11492184
100	0xbcd15ac0	-0.025555968
101	0xbd9fac15	-0.07796494
102	0xbe30c8ce	-0.17264101
103	0xbd917903	-0.07103159
104	0xbe362b46	-0.17789945
105	0xbe426aa3	-0.18985991
106	0x3d78b238	0.060716838
107	0xbe911e51	-0.28343442
108	0xbe6cc289	-0.23121084
109	0xbe07992f	-0.13242029
110	0x3d627cff	0.055294987
111	0xbe10db7a	-0.14146224
112	0xbdcb5a05	-0.09929279
113	0x3cc593f8	0.024118409
114	0x3cd73d36	0.026274305
115	0xbe71e847	-0.23623763
116	0xbea3a528	-0.31961942
117	0x3c1fa306	0.009743458
118	0xbcc52b4e	-0.0240685
119	0x3bab6aa3	0.005231218
120	0xbe608248	-0.21924698
121	0xbe1607f9	-0.14651479
122	0xbe8051a1	-0.25062278
123	0xbd8d03b4	-0.06885472
124	0xbdc08415	-0.09400193
125	0xbe9136d3	-0.2836214
126	0x3cfe478d	0.031039977
127	0xbcf52d79	-0.02992891
128	0xbdcbfd85	-0.099604644
129	0xbda4b9c5	-0.08043245
130	0xbd1bad1c	-0.038006887
131	0xbdc2ce81	-0.09512044
132	0xbe825b3b	-0.25460228
133	0xbe7fd0ba	-0.24981967
134	0xbd8099f9	-0.06279368
135	0xbedcce1d	-0.43126002
136	0x3bf3ffc6	0.007446262
137	0xbda523a9	-0.08063442
138	0xbe1cb16f	-0.1530206
139	0x3ba223df	0.004948124
140	0x3d31cd74	0.043408826
141	0xbe1e3b60	-0.15452337
142	0x3d4a90af	0.049454387
143	0xbf0575a4	-0.5213263
144	0xbed76fd5	-0.4207751
145	0xbe8bfa47	-0.27339384
146	0xbe6d0f62	-0.231504
147	0xbebaa98b	-0.36457476
148	0xbca8e578	-0.020617232
149	0xbe8c7c3d	-0.27438536
150	0xbe574c63	-0.21025233
151	0x3d94d633	0.07267418
152	0xbece7841	-0.4032612
153	0xbd9c2d6b	-0.0762585
154	0xbe23e40b	-0.1600496
155	0xbe5fbe28	-0.21849883
156	0xbeafa5f1	-0.3430629
157	0x3c954ba3	0.018224543
158	0x3c4c38fc	0.012464758
159	0xbd955132	-0.072908774
160	0xbddd4aa2	-0.10805251
161	0xbf02f1f6	-0.51150453
162	0xbdd514a7	-0.1040433
163	0xbcc2b0eb	-0.023766002
164	0x3e80101a	0.25012285
165	0x3e21950a	0.1577951
166	0x3ed970e0	0.4246893
167	0xbcc8cda4	-0.02451212
168	0x3ead2cb0	0.33823156
169	0xbd240a90	-0.040049136
170	0x3ef363f9	0.4753721
171	0xbd2c9877	-0.04213759
172	0xbee2cf50	-0.44298792
173	0xbcfd592b	-0.030926308
174	0xbe047ca6	-0.12938175
175	0x3e847c19	0.2587593
176	0xbe62129e	-0.22077414
177	0x3e289a3e	0.16465089
178	0xbe7c5e1f	-0.2464528
179	0x3e1c22da	0.1524767
180	0xbe687e37	-0.22704397
181	0x3da125c8	0.07868534
182	0x3e8f4080	0.27978897
183	0xbe202be9	-0.1564175
184	0x3eb41744	0.35174
185	0xbd9b08c5	-0.07570032
186	0x3ebdfc05	0.37106338
187	0xbe1f3aed	-0.15549822
188	0x3e4e4898	0.2014488
189	0xbebcc1d2	-0.36866623
190	0xbe07fefb	-0.13280861
191	0xbefd6dc0	-0.49497795
192	0xbdda5eb2	-0.10662593
193	0x3d23064e	0.039800934
194	0xbf270f07	-0.65257305
195	0xbe1acd02	-0.15117267
196	0xbebd91d0	-0.3702531
197	0xbe120a95	-0.14261849
198	0xbe3b7faa	-0.18310419
199	0xbe05bf9d	-0.13061376
200	0xbede80ae	-0.4345755
201	0xbedd065f	-0.43168923
202	0x3e2136f7	0.15743624
203	0xbe8d258f	-0.27567717
204	0xbf12b9ee	-0.57314956
205	0xbe956efc	-0.29186237
206	0x3ddf323c	0.10898253
207	0xbe40608e	-0.18786833
208	0xbe0b8962	-0.13626626
209	0xbe44910f	-0.1919596
210	0xbde8cdeb	-0.11367401
211	0xbe0efb6e	-0.139631
212	0xbe5edf20	-0.21764803
213	0xbe8626a3	-0.26201352
214	0xbeda2748	-0.42608094
215	0x3c9bccd5	0.01901857

input.0.bias f4 [8]
0	0xbd861c4f	-0.06548368
1	0xbde8ea4d	-0.11372814
2	0xbf217e66	-0.63083494
3	0xbe4ac6e1	-0.19802429
4	0xbd3e4484	-0.04645206
5	0xbe95554f	-0.29166648
6	0xbea0c0cc	-0.31397092
7	0xbe317dfc	-0.17333215

conv1.0.weight f4 [16, 8, 3, 3]
0	0xbd164955	-0.03669103
1	0xbdd7cb71	-0.1053685
2	0xbe13dee7	-0.14440499
3	0x3d04a6ff	0.032385822
4	0xbe0a8ce4	-0.13530308
5	0xbdcb2c15	-0.09920517
6	0x3d0f89a8	0.03504339
7	0xbd718e75	-0.05897375
8	0x3d20f9c6	0.039300703
9	0x3e39baa9	0.18137611
10	0x3deb9d27	0.11504584
11	0xbd665aae	-0.056238823
12	0xbda316a3	-0.07963302
13	0xbd47fc5d	-0.048824657
14	0xbe03c0eb	-0.12866561
15	0xbd10461a	-0.035223104
16	0xbdc48f5f	-0.09597658
17	0xbd4b8bce	-0.049693875
18	0xbc3f40c4	-0.011673156
19	0xbdcd0e57	-0.10012501
20	0x3ac1ce20	0.0014786161
21	0xbd13aa82	-0.03605128
22	0xbe8b052c	-0.27152383
23	0xbe1ee997	-0.15518795
24	0xbde0654c	-0.10956821
25	0xbdbcf9f3	-0.092273615
26	0xbe4e9765	-0.2017494
27	0xbc83ad9a	-0.01607399
28	0xbe9e8d93	-0.30967388
29	0xbe5d51fa	-0.21613303
30	0x3d6dcecf	0.058058556
31	0xbebee39d	-0.3728303
32	0xbe973a6c	-0.2953676
33	0xbd961c6b	-0.07329639
34	0xbdde8ce2	-0.10866715
35	0xbe822bdf	-0.25424096
36	0x3d9a866d	0.07545171
37	0xbd4e1422	-0.05031217
38	0xbdee94fa	-0.11649509
39	0xbd96846a	-0.07349475
40	0x3d8970e1	0.06710983
41	0xbcbb6b8b	-0.022878429
42	0x3d855bfe	0.06511687
43	0xbd86672b	-0.065626465
44	0xbce8b857	-0.028408213
45	0xbebc9dc3	-0.36839113
46	0xbedf11c5	-0.43568245
47	0xbe9ad4ed	-0.30240574
48	0xbf60fe78	-0.8788829
49	0xbea6894f	-0.32526633
50	0xbea92aa2	-0.3304034
51	0xbecede50	-0.40403986
52	0xbf13b906	-0.577042
53	0xbe817007	-0.25280783
54	0xbed537c3	-0.41644105
55	0xbf0b90ea	-0.54517996
56	0xbed77035	-0.42077795
57	0xbf16d6b7	-0.5892138
58	0xbf3aa750	-0.7291155
59	0xbe8f18d1	-0.2794862
60	0xbee5a642	-0.44853407
61	0xbc3d16d2	-0.011541085
62	0xbe283414	-0.16426116
63	0xbe641013	-0.22271757
64	0xbd7672ac	-0.060167953
65	0x3c1299d7	0.008947811
66	0xbe3e06ba	-0.18557253
67	0xbe35f85e	-0.17770526
68	0xbcbf7de4	-0.023375459
69	0xbed0784d	-0.40716782
70	0xbecd9714	-0.40154326
71	0xbb71eddf	-0.0036915464
72	0xbe17d2a0	-0.14826441
73	0xbdc90b6e	-0.09816633
74	0xbe2d104e	-0.16900751
75	0xbe589574	-0.21150762
76	0x3cafacee	0.021444764
77	0xbd9fae2e	-0.07796894
78	0xbe052cd8	-0.13005388
79	0xbe320afe	-0.17387006
80	0xbe333315	-0.17499955
81	0xbe1b696c	-0.15176934
82	0x3dabfd29	0.08397896
83	0xbe1fb106	-0.15594873
84	0x3d96a45c	0.07355568
85	0xbd2240b7	-0.039612498
86	0xbda49844	-0.08036855
87	0xbde41ccd	-0.11138306
88	0xbd8c7abc	-0.06859347
89	0x3bced50f	0.0063120197
90	0xbea163c6	-0.31521434
91	0xbe1215e1	-0.14266159
92	0xbef83014	-0.4847418
93	0xbdc1bde9	-0.094600506
94	0xbf0d1147	-0.5510449
95	0xbe49af2a	-0.19695726
96	0xbe2d66e2	-0.16933778
97	0xbe5041c8	-0.20337594
98	0xbe19381a	-0.14962807
99	0xbcef9f09	-0.029250639
100	0xbd996e7d	-0.07491777
101	0xbeb3493c	-0.3501681
102	0xbd592d3c	-0.053021654
103	0xbedb42ab	-0.428243
104	0xbebdf7b1	-0.37103036
105	0xbe8e76ad	-0.27824917
106	0xbda80382	-0.08203794
107	0x3dd843d6	0.10559814
108	0x3cb65aaa	0.022260029
109	0xbdf096de	-0.11747526
110	0xbd51e80b	-0.051246684
111	0xbdc54136	-0.096315786
112	0xbd9da457	-0.07697361
113	0xbdc161b7	-0.09442466
114	0x3da929dd	0.08259938
115	0xbe135e8f	-0.1439154
116	0xbd87216f	-0.06598174
117	0xbd35a46f	-0.04434627
118	0xbdd6f410	-0.1049577
119	0xbe87928b	-0.2647899
120	0xbeacfccd	-0.33786622
121	0xbf498d90	-0.7873163
122	0xbe87762e	-0.2645735
123	0x3de7fe11	0.11327756
124	0xbe56d2af	-0.20978807
125	0x3db46b89	0.08809573
126	0xbf06ab24	-0.5260489
127	0xbe354c5c	-0.1770491
128	0xbe1ffea9	-0.15624489
129	0xbcba3a74	-0.02273295
130	0xbf440a20	-0.7657795
131	0xbd4fd66b	-0.050741594
132	0xbf3c7982	-0.73622906
133	0xbee31cf2	-0.4435802
134	0xbd615564	-0.055013075
135	0xbeaf2d2c	-0.3421415
136	0xbf7baf68	-0.98314524
137	0xbd5b54bc	-0.053547606
138	0xbf1495fb	-0.5804135
139	0x3c912894	0.017719544
140	0xbeb98dde	-0.3624105
141	0xbed32539	-0.41239336
142	0xbf082c3e	-0.5319251
143	0xbf02d77f	-0.5111007
144	0xbd1ba1a5	-0.037995953
145	0xbe1bf935	-0.15231784
146	0xbdc8b47b	-0.09800049
147	0xbcb5126a	-0.022103507
148	0x3b1c0751	0.0023808072
149	0x3b84f381	0.0040573482
150	0xb8da99c6	-0.000104236926
151	0xbe001b15	-0.12510331
152	0xbdd55abf	-0.10417699
153	0x3d433499	0.047657583
154	0x3d3fe927	0.04685321
155	0xbab6823e	-0.0013924313
156	0x3dbc39c2	0.09190704
157	0xbe4673b5	-0.19380076
158	0xbe1a0eec	-0.15044755
159	0xbd8732b8	-0.06601471
160	0x3d8f3f20	0.06994462
161	0x3cef942d	0.02924546
162	0xbda7117b	-0.08157631
163	0xbf3825f3	-0.71932906
164	0xbeb3642c	-0.35037363
165	0xbf40f984	-0.7538073
166	0x3e230b00	0.15922165
167	0xbf8649fe	-1.0491331
168	0xbede81b8	-0.43458343
169	0xbe011df7	-0.12609087
170	0xbe02f2cd	-0.12787934
171	0xbeb6ee39	-0.35728624
172	0xbec93b2f	-0.39302966
173	0xbd90a876	-0.070633814
174	0xbe9807cc	-0.2969345
175	0xbd1dec10	-0.038555205
176	0xbe9ecd58	-0.3101604
177	0x3daa78c6	0.08323817
178	0xbd328526	-0.04358401
179	0xbdedb67c	-0.11607072
180	0x3d952e4a	0.072842196
181	0x3d32dcb4	0.04366751
182	0x3d4a4682	0.049383648
183	0x3d8b22bb	0.06793734
184	0xbdd57759	-0.104231544
185	0x3d2b3075	0.04179426
186	0xbd150b9b	-0.03638802
187	0xbdfad319	-0.12247295
188	0xbdc3204e	-0.09527646
189	0xbdf5440d	-0.1197587
190	0xbec676cb	-0.38762507
191	0x3de1c793	0.11024394
192	0xbebadd97	-0.36497185
193	0xbd8281ba	-0.063724
194	0xbc84446f	-0.016145913
195	0x3deafcc9	0.11473996
196	0xbecb0866	-0.39654845
197	0x3d3ba920	0.045815587
198	0x3d0079c4	0.031366125
199	0xbeddb40e	-0.43301433
200	0xbe861d96	-0.26194447
201	0xbe6492de	-0.2232165
202	0xbeb81280	-0.35951614
203	0xbf08444c	-0.5322921
204	0x3d4f9ded	0.05068772
205	0xbef86d65	-0.4852096
206	0x3d575c69	0.052578364
207	0xbe99ab74	-0.3001362
208	0x3e22b6e5	0.15890081
209	0xbdaff3d9	-0.08591432
210	0xbe3bdee1	-0.1834674
211	0xbdec327f	-0.11533069
212	0x3ccf9b68	0.025342658
213	0xbed610b3	-0.41809615
214	0xbc81aecd	-0.015830422
215	0xbe7be51c	-0.24599117
216	0x3d5f83fe	0.054569237
217	0x3bbc75be	0.0057513407
218	0xbdaed2d4	-0.08536306
219	0xbca6e19f	-0.020371256
220	0xbd8f22f0	-0.06989086
221	0x3d9af83c	0.07566878
222	0x3c85e3f3	0.016344046
223	0xbbe75576	-0.0070597483
224	0xbe3eedd2	-0.18645409
225	0xbd0d75bb	-0.034536105
226	0xbd71ba92	-0.059015818
227	0xbe3953c2	-0.18098357
228	0xbdcf9946	-0.101366565
229	0xbbfeedf2	-0.00777983
230	0xbd9f932a	-0.07791741
231	0xbdd26682	-0.10273458
232	0xbe3a1959	-0.18173732
233	0xbe471cb7	-0.19444548
234	0xbea10b29	-0.31453827
235	0xbe233e28	-0.1594168
236	0xbc70d446	-0.014699047
237	0xbe390c2a	-0.18071046
238	0xbf333369	-0.7000032
239	0xbd069468	-0.032856375
240	0xbd2259fd	-0.0396366
241	0xbc8724d8	-0.01649706
242	0xbf0f42e8	-0.55961466
243	0xbe8a834c	-0.27053297
244	0xbe17fe57	-0.14843117
245	0xbe090ccb	-0.13383786
246	0xbd0e3411	-0.034717623
247	0xbed15d23	-0.4089137
248	0xbd55418d	-0.052064467
249	0xbe8865ed	-0.26640263
250	0xbe487a91	-0.19578005
251	0x3deda056	0.11602847
252	0xbc416060	-0.011802763
253	0x3cb9c3e0	0.022676408
254	0x3d488a5e	0.048960082
255	0x3d9d1ded	0.076717235

conv1.0.bias f4 [16]
0	0xbf8b7daa	-1.0897725
1	0xbfe4ea65	-1.7884032
2	0xbfd3dd1f	-1.6551856
3	0xbfd94966	-1.6975524
4	0xbeb42438	-0.35183883
5	0x3e8480dc	0.25879562
6	0xbe218fe8	-0.15777552
7	0xbfe3c338	-1.7793951
8	0xbf3b46e5	-0.7315505
9	0x3ec7d6da	0.39031106
10	0xbfa2dc2b	-1.272344
11	0xbf1a24ee	-0.602126
12	0xbfa1848c	-1.2618575
13	0xbf22d156	-0.6360067
14	0xbfee5068	-1.8618288
15	0xbf8e092d	-1.109655

conv2.0.weight f4 [32, 16, 3, 3]
0	0xbcbc86d0	-0.023013502
1	0xbd938e6a	-0.07204898
2	0xbe9e1bd8	-0.30880618
3	0x3d168bd9	0.036754463
4	0xbd940162	-0.07226826
5	0xbe787c9b	-0.24266283
6	0x3e4f4b39	0.20243539
7	0xbe40cbb4	-0.18827707
8	0xbe718a60	-0.23587942
9	0x3be6105e	0.007020994
10	0xbeab8924	-0.33503067
11	0x3d9abd61	0.075556524
12	0xbdcd7cd6	-0.10033576
13	0x3d8415f3	0.06449499
14	0x3f323cab	0.6962382
15	0xbe9a0023	-0.3007823
16	0x3eb99365	0.36245266
17	0x3e1e6551	0.15468337
18	0x3e30c56b	0.17262809
19	0xbf05eb45	-0.5231212
20	0x3e0ae1ea	0.13562742
21	0xbef217a7	-0.4728367
22	0xbf0e376e	-0.5555333
23	0xbf436a72	-0.763343
24	0xbd3236ae	-0.043509178
25	0xbecda04b	-0.40161356
26	0xbe78d252	-0.24298981
27	0xbcefbc71	-0.02926466
28	0xbe0ecc27	-0.13945065
29	0xbeaf95b0	-0.3429389
30	0x3e799c40	0.24376011
31	0xbf19a85b	-0.60022515
32	0x3d617b5c	0.055049285
33	0xbed0c1ef	-0.4077296
34	0x3e23b7dd	0.15988107
35	0xbecb5651	-0.39714292
36	0xbf6db651	-0.9285632
37	0xbecb1839	-0.39666918
38	0xbee96a90	-0.45589113
39	0xbe97aed6	-0.29625577
40	0xbed2750f	-0.41104934
41	0x3d51bc0b	0.051204722
42	0xbf06a4f9	-0.5259548
43	0xbe963456	-0.29336804
44	0x3d1b9ac5	0.037989397
45	0xbf3e49d9	-0.7433143
46	0xbf3cb962	-0.7372037
47	0xbebe7530	-0.37198782
48	0xbfa20772	-1.2658522
49	0xbf739411	-0.95147806
50	0xbf245d80	-0.6420517
51	0xbf5375bd	-0.8260153
52	0xbf363d93	-0.71187705
53	0xbec2ee83	-0.38072595
54	0xbd5dd9d5	-0.05416282
55	0xbf10f971	-0.5663062
56	0xbf013b24	-0.50480866
57	0xbee2c88e	-0.44293636
58	0x3e6d3b31	0.23167111
59	0xbe12bbfa	-0.1432952
60	0x3df11513	0.11771598
61	0xbdb74c1a	-0.08950062
62	0xbdd07830	-0.10179174
63	0xbde9b4d3	-0.114114426
64	0xbe0ede78	-0.13952053
65	0xbf44bc00	-0.76849365
66	0xbe9680a3	-0.29395017
67	0xbee8b2b8	-0.45448852
68	0x3e845222	0.25843912
69	0x3ec89cee	0.39182228
70	0xbf11fd2a	-0.5702692
71	0x3bdb6893	0.006695816
72	0x3d2d70b4	0.04234381
73	0xbdc032f7	-0.09384721
74	0xbd39231f	-0.04519951
75	0x3def75a6	0.116923615
76	0xbe461afe	-0.19346234
77	0xbdf16dc5	-0.11788515
78	0xbe611aa6	-0.21982822
79	0xbdad486f	-0.08461081
80	0xbe3184a8	-0.1733576
81	0xbf09b7db	-0.53796166
82	0xbf6a1341	-0.9143563
83	0xbf68e6c3	-0.90977114
84	0xbf077112	-0.52906907
85	0xbe2595cd	-0.16170426
86	0xbe91034b	-0.28322825
87	0xbf09b7bc	-0.5379598
88	0xbe8d0be9	-0.2754815
89	0xbe2e551e	-0.17024657
90	0x3e03b3af	0.12861513
91	0x3c7fdbf4	0.015616406
92	0xbd51cb49	-0.05121926
93	0x3eb972f2	0.3622051
94	0x3e991500	0.29898834
95	0x3d97cf1f	0.07412552
96	0x3d864900	0.065568924
97	0x3e539665	0.2066284
98	0x3e693c36	0.22776875
99	0xbd15bd32	-0.036557384
100	0xbf035d98	-0.5131469
101	0x3ec72b11	0.38900045
102	0xbd3170f7	-0.043320622
103	0xbe5e12aa	-0.21686807
104	0x3e63fa6b	0.22263496
105	0xbf4538c0	-0.7703972
106	0xbf270905	-0.6524814
107	0xbe2a8370	-0.16651702
108	0xbd876b75	-0.06612293
109	0xbf0de6b2	-0.5543014
110	0xbe3b2104	-0.18274313
111	0xbe59114a	-0.21198002
112	0xbecfa60e	-0.40556377
113	0x3eb44072	0.35205418
114	0x3ce8856a	0.02838393
115	0xbdf44dfa	-0.11928935
116	0x3db0df02	0.08636285
117	0xbe9848df	-0.29743096
118	0xbe86060c	-0.26176488
119	0xbc10d106	-0.008838898
120	0xbda2cc01	-0.07949067
121	0xbecaf471	-0.3963962
122	0xbec41d26	-0.38303488
123	0xbdece88c	-0.11567792
124	0x3c6f494c	0.014604878
125	0xbdd04d14	-0.101709515
126	0xbf1e9487	-0.61945385
127	0xbf7dfefd	-0.99217206
128	0xbe5b08b1	-0.21390034
129	0xbea2f685	-0.31828704
130	0xbd9af9f2	-0.075672045
131	0xbe111cee	-0.14171192
132	0xbf4d0ebd	-0.80100614
133	0xbb1d96b2	-0.002404612
134	0xbec8b201	-0.39198306
135	0xbf23543e	-0.6380042
136	0xbf526a6d	-0.8219364
137	0xbecb8b95	-0.3975493
138	0xbe84743b	-0.25869927
139	0x3e29256f	0.16518186
140	0x3e011c65	0.12608488
141	0xbf72d965	-0.9486297
142	0xbeed4b0b	-0.46346316
143	0xbec06ee1	-0.37584594
144	0x3e55db0a	0.20884338
145	0xbe5c2f6f	-0.2150247
146	0x3e626ff4	0.22113019
147	0x3d9aae41	0.075527675
148	0xbd3f62ef	-0.04672521
149	0x3d8c3b34	0.068472296
150	0x3d565642	0.052328356
151	0x3da835f7	0.08213418
152	0xbe634cb9	-0.22197236
153	0x3ce5d8d5	0.028057495
154	0x3d12b37f	0.035815712
155	0xbdd27a15	-0.102771915
156	0xbe0a8e79	-0.13530912
157	0xbea6b1e6	-0.325576
158	0x3e7e0eff	0.24810408
159	0x3e1750d6	0.1477693
160	0x3e4f7d98	0.20262754
161	0x3e01d2b2	0.1267803
162	0xbe287158	-0.16449487
163	0xbe64f4fe	-0.22359082
164	0xbebe8966	-0.37214202
165	0xbe9252ce	-0.285788
166	0x3eaeb74e	0.34124225
167	0x3d705aca	0.058680333
168	0xbe0cae0f	-0.13738273
169	0x3ed81359	0.4220226
170	0xbe01469f	-0.12624596
171	0x3d1f3bd7	0.038875427
172	0x3e5ec800	0.21755981
173	0x3e91cb5b	0.2847546
174	0xbeaa379b	-0.3324555
175	0xbea42f30	-0.3206725
176	0x3db0bf6e	0.08630262
177	0x3c445a37	0.0119843995
178	0xbeb7864b	-0.35844645
179	0xbd09577e	-0.033530705
180	0x3e9da716	0.3079154
181	0xbdd956e7	-0.106122784
182	0xbe30921d	-0.17243238
183	0xbea62251	-0.32448056
184	0xbe08965a	-0.13338605
185	0xbe8bebbb	-0.27328286
186	0xbddb398c	-0.107043356
187	0xbc097938	-0.008390717
188	0xbe1f2f4c	-0.15545386
189	0xbdd2c136	-0.10290758
190	0xbea97648	-0.33098054
191	0xbe288a24	-0.16458946
192	0x3e634362	0.22193673
193	0x3e7fab4e	0.24967691
194	0x3e081415	0.1328891
195	0x3f5aca5d	0.8546503
196	0xbe432248	-0.19056046
197	0x3e9f5bb7	0.3112466
198	0x3ddf5b68	0.10906106
199	0xbe05884d	-0.13040276
200	0x3e565b67	0.20933305
201	0xbe6bd1af	-0.23029207
202	0xbe157eb6	-0.14599118
203	0x3e21b282	0.15790752
204	0x3e8dac16	0.27670354
205	0x3c6de6b4	0.014520336
206	0x3e84af00	0.25914764
207	0xbdbde4c6	-0.09272151
208	0x3e4d10e7	0.20025979
209	0xbd4f12f9	-0.050555203
210	0x3e2dc26e	0.169687
211	0xbe1ec282	-0.15503886
212	0x3e3dd505	0.18538292
213	0x3e38112c	0.179753
214	0xbe2ecec9	-0.1707107
215	0x3e3be3d7	0.18348633
216	0x3de629ed	0.112384655
217	0xbd09f271	-0.033678476
218	0x3e197b80	0.14988518
219	0x3db81470	0.08988273
220	0x3c3c30de	0.01148626
221	0x3e108c50	0.14116025
222	0x3e88144f	0.26577994
223	0xbdb0cb6e	-0.08632551
224	0x3e04a954	0.12955219
225	0xbeae4187	-0.34034368
226	0x3e313d77	0.17308603
227	0xbf2a325b	-0.66483086
228	0xbf62e30e	-0.8862771
229	0xbe520135	-0.20508273
230	0x3eec349a	0.46133882
231	0xbdde858c	-0.10865316
232	0xbe036c6e	-0.12834331
233	0xbeb9741d	-0.362214
234	0x3e62654d	0.22108956
235	0xbe62533b	-0.22102062
236	0xbd3c5c23	-0.045986306
237	0xbde9847e	-0.11402224
238	0x3c3e664c	0.011621069
239	0xbde6d66b	-0.11271366
240	0xbe8cac7c	-0.27475345
241	0x3e83cf39	0.25744036
242	0x3ea6c7ce	0.32574314
243	0x3e5f6907	0.21817409
244	0xbc72d2ee	-0.014820797
245	0x3d9dfc51	0.07714141
246	0xbea67886	-0.32513827
247	0xbd2c8d3b	-0.042126875
248	0xbeb31d3b	-0.3498324
249	0x3e97200c	0.29516637
250	0xbd1814d7	-0.03712925
251	0xbe0f50db	-0.13995688
252	0x3d145c27	0.036220696
253	0x3dfa1d4e	0.12212621
254	0xbe9af558	-0.30265307
255	0x3c2acabb	0.010424311

conv2.0.bias f4 [32]
0	0xbf7da107	-0.99073833
1	0xbfdc02f2	-1.7188399
2	0xbf48d1fb	-0.78445405
3	0xbdb88256	-0.090092346
4	0xbffc224b	-1.9697965
5	0xbff2f2af	-1.8980311
6	0xbfc0780f	-1.5036639
7	0xbfebda2e	-1.8425958
8	0xbeceb19c	-0.4036988
9	0xbfca5297	-1.5806454
10	0xbf580ddd	-0.84396154
11	0xbfe85d34	-1.8153443
12	0xbfda07af	-1.7033595
13	0xbf5e00d7	-0.8672003
14	0xbf4b8c26	-0.79510725
15	0xbe9613f8	-0.2931211
16	0xbfbb13b9	-1.4615394
17	0xbfaed1c5	-1.3657767
18	0xbf356d5f	-0.7087001
19	0xbf1b3f04	-0.6064303
20	0xbfefd12d	-1.873571
21	0xbfd49a35	-1.660956
22	0xbf8bcb40	-1.0921402
23	0xbfcfd426	-1.6236618
24	0xbf220c23	-0.6329977
25	0xbf8cf437	-1.1012028
26	0xbf927ae2	-1.1443751
27	0xbf8ed12f	-1.1157588
28	0xbf417189	-0.75563866
29	0xbf92a68a	-1.1457074
30	0xbf9d3243	-1.2280964
31	0xbf893d17	-1.0721768

conv3.0.weight f4 [64, 32, 3, 3]
0	0x3eeed7ee	0.46649116
1	0xbecd6d28	-0.40122342
2	0xbf73e419	-0.95269924
3	0x3e0d1b5f	0.13779972
4	0x3efe6598	0.49686885
5	0xbdba1a1d	-0.09087012
6	0xbde89524	-0.11356571
7	0x3e349240	0.17633915
8	0xbec3df55	-0.38256326
9	0x3eb870b3	0.36023483
10	0x3f0854ca	0.5325438
11	0xbdb60350	-0.088873506
12	0x3ea4798d	0.32123986
13	0x3eb18acd	0.3467621
14	0x3ebca752	0.36846405
15	0xbcef96a7	-0.029246641
16	0x3e81df93	0.25365886
17	0x3ee4561d	0.4459695
18	0x3eb12894	0.3460127
19	0xbeecd779	-0.46258143
20	0x3e987a15	0.2978064
21	0xbf0460fb	-0.5171048
22	0xbe085557	-0.13313805
23	0xbf518b62	-0.81853306
24	0x3ecda13a	0.4016207
25	0x3e80ab31	0.2513061
26	0x3e52e835	0.20596392
27	0x3e580e0c	0.21099108
28	0xbdfb8df7	-0.12282937
29	0xbe1d0f3a	-0.1533784
30	0x3efac4b1	0.4897819
31	0xbf11e352	-0.5698749
32	0xbe056678	-0.1302737
33	0x3f22dd7c	0.6361921
34	0xbeb35ef9	-0.35033396
35	0x3c5c6e35	0.01345401
36	0x3ea615d3	0.32438526
37	0xbe7f5d7d	-0.24938007
38	0x3dc6cbe9	0.097068615
39	0x3e8287ff	0.25494382
40	0xbdf67327	-0.12033682
41	0x3e9dacce	0.30795902
42	0xbed53646	-0.4164297
43	0xbe564bc9	-0.20927347
44	0x3f3b5934	0.7318299
45	0xbeada596	-0.33915395
46	0x3e8fdff0	0.28100538
47	0x3e5c8008	0.21533215
48	0x3ec1b086	0.3782999
49	0x3d547a1d	0.05187427
50	0x3ebfe099	0.37476042
51	0xbedcf45d	-0.43155184
52	0xbdb74b1f	-0.08949875
53	0x3ea1932d	0.315576
54	0x3e20f1f9	0.15717305
55	0xbdccefc6	-0.10006671
56	0x3e2ac39c	0.16676182
57	0xbe98ee2a	-0.29869205
58	0x3d9f83e9	0.07788832
59	0xbe8ba44a	-0.2727378
60	0x3f7bc867	0.98352665
61	0xbeca22fa	-0.3947981
62	0xbf4384d6	-0.76374567
63	0x3cf5f3ee	0.030023541
64	0xbdb067b3	-0.08613529
65	0xbe33299d	-0.17496343
66	0x3f1a5ecc	0.603009
67	0xbdfe7760	-0.12425113
68	0xbc9349d6	-0.017979544
69	0x3ee15c5e	0.44015783
70	0xbda2bcc8	-0.079461634
71	0xbe422f20	-0.1896329
72	0xbe2f3482	-0.17109874
73	0xbe0dd061	-0.13849021
74	0x3f0d9348	0.5530286
75	0x3e02adee	0.12761661
76	0xbedbda30	-0.429399
77	0x3b3aa8c7	0.0028481947
78	0x3d0aad90	0.03385693
79	0x3ebe3a6c	0.37153947
80	0x3de2ef2d	0.110807754
81	0xbe9a94a1	-0.3019152
82	0xbe8a53a0	-0.27016926
83	0x3d489ed2	0.048979588
84	0xbe049f0f	-0.12951301
85	0x3f112740	0.56700516
86	0xbedc553d	-0.43033782
87	0xbe806165	-0.25074306
88	0xbd0c3696	-0.034231745
89	0xbe0958ad	-0.13412733
90	0x3d8f5f7a	0.070006326
91	0xbe96f736	-0.29485482
92	0xbd9ec873	-0.077530764
93	0x3ddae2c9	0.10687787
94	0xbe12580c	-0.142914
95	0x3d93fd98	0.072261035
96	0x3e404f69	0.18780293
97	0xbe4f183e	-0.20224091
98	0xbd24d033	-0.040237617
99	0xbd459761	-0.04824007
100	0x3f0987d5	0.5372289
101	0x3df91480	0.12162113
102	0xbea2fb99	-0.3183258
103	0xbeb50b78	-0.35360312
104	0xbeb1e1bb	-0.3474253
105	0x3e882c4c	0.26596296
106	0x3ecca972	0.39973027
107	0x3adc2240	0.0016794875
108	0xbe2bfe26	-0.16796169
109	0xbf456b9f	-0.7711734
110	0xbe958042	-0.29199415
111	0xbebced14	-0.36899626
112	0xbe87b5e2	-0.26505953
113	0x3ecbf458	0.39834857
114	0xbe137560	-0.14400244
115	0xbf1ff609	-0.62484795
116	0x3edf20fc	0.43579853
117	0x3e1d3ac9	0.15354456
118	0x3e0a8a4e	0.13529322
119	0x3ed8927d	0.42299262
120	0x3e16e181	0.1473446
121	0xbef7f9b5	-0.484327
122	0xbe0150f2	-0.12628534
123	0x3e03cdbb	0.12871449
124	0xbe4328b6	-0.19058499
125	0xbe90dc56	-0.28293103
126	0x3eab7eeb	0.33495268
127	0x3e6ce6cc	0.23134917
128	0x3e4bf20b	0.19916551
129	0x3d5d7cd9	0.054074142
130	0x3f087006	0.53295934
131	0x3ed2e29e	0.4118852
132	0xbf3537e1	-0.7078839
133	0x3e1f51d6	0.15558562
134	0x3d96b81e	0.07359336
135	0xbe83ce0d	-0.25743142
136	0xbd8f75e8	-0.07004911
137	0xbe877cfc	-0.26462543
138	0xbf2c75cb	-0.6736724
139	0x3d0e3b35	0.034724433
140	0xbec460c9	-0.3835509
141	0x3c9062bf	0.01762521
142	0x3e94313c	0.28943813
143	0xbe4d20e1	-0.20032074
144	0x3e80f56b	0.2518724
145	0xbe908193	-0.28223857
146	0x3eb24c9c	0.34824073
147	0x37b68a2b	2.176043e-05
148	0xbf21f279	-0.6326061
149	0xbee7a38f	-0.45241973
150	0x3acb1bd3	0.0015495963
151	0x3cfc8f26	0.030829977
152	0x3ca9b181	0.020714523
153	0x3e02cbcd	0.12773056
154	0x3f200f88	0.625237
155	0x3c762892	0.015024321
156	0x3ec1e66c	0.3787111
157	0xbeed812b	-0.4638761
158	0xbe6ac5bd	-0.22926994
159	0x3ed70674	0.4199711
160	0xbe274436	-0.16334614
161	0x3e152781	0.14565851
162	0x3ecdcba8	0.4019444
163	0xbf09f699	-0.53891903
164	0xbdbf29e0	-0.09334159
165	0x3f0a5f23	0.5405142
166	0xbefeffdc	-0.4980458
167	0x3ea31ec5	0.31859413
168	0xbe179c51	-0.14805724
169	0x3d2853d9	0.04109559
170	0xbeac39d5	-0.33637872
171	0x3e8adb7b	0.27120575
172	0x3ee5e95b	0.449046
173	0xbdc48a3f	-0.09596681
174	0x3ed3433f	0.41262242
175	0xbec1bb27	-0.37838098
176	0x3ea65c01	0.32492068
177	0x3edaf38b	0.42763934
178	0x3ecf6fc2	0.40514952
179	0x3ed79004	0.42102063
180	0x3dabdd57	0.083918266
181	0xbd921edc	-0.07134792
182	0xbedf8dee	-0.4366297
183	0xbebe3b30	-0.3715453
184	0xbe8023c9	-0.25027302
185	0xbe6d1709	-0.23153318
186	0xbed88e80	-0.4229622
187	0x3ee7f7e4	0.45306313
188	0xbc9a5ffd	-0.018844599
189	0xbb526484	-0.003210337
190	0x3e2bca38	0.16776359
191	0x3ef737bc	0.4828471
192	0x3e623ca8	0.22093451
193	0xbd9a1ec5	-0.075254
194	0x3f3093e4	0.68975663
195	0x3f1ff9b4	0.6249039
196	0xbd81245c	-0.06305763
197	0x3f2fa1f7	0.68606514
198	0x3f515efe	0.8178557
199	0x3d9aa156	0.07550304
200	0xbe557853	-0.20846681
201	0xbd655d81	-0.055997375
202	0x3cb66b02	0.022267822
203	0xbdab849d	-0.08374903
204	0x3e75a37d	0.23988147
205	0x3f1406c5	0.5782283
206	0xbec5d2ba	-0.38637334
207	0x3ee25756	0.44207257
208	0x3e10d65a	0.14144269
209	0x3dc263cb	0.0949169
210	0xbee06502	-0.43827063
211	0x3dd14e81	0.102200516
212	0xbe471b83	-0.19444089
213	0x3ef1f3b8	0.47256255
214	0xbe877e40	-0.2646351
215	0x3edbc76f	0.42925593
216	0x3d708789	0.058723006
217	0x3e002c5f	0.12516926
218	0x3e4825da	0.19545689
219	0x3e9b7b48	0.30367494
220	0xbdb7db32	-0.08977355
221	0x3db8ff9b	0.09033128
222	0xbca9ee0d	-0.020743394
223	0xbe76e218	-0.24109685
224	0xbe1e40d2	-0.15454414
225	0x3e4a4cc5	0.19755848
226	0x3e5847b9	0.2112111
227	0xbc433ac2	-0.011915864
228	0xbd6fd017	-0.05854806
229	0xbf2aa5d7	-0.666593
230	0xbe6e676c	-0.2328164
231	0x3ec2aeb8	0.38023925
232	0x3ec6260f	0.3870091
233	0xbe86a518	-0.26297832
234	0x3eb123ca	0.34597617
235	0x3ebe7966	0.37201995
236	0xbefe6f8c	-0.4969448
237	0x3e2814d3	0.16414194
238	0xbe5aa4e4	-0.21351963
239	0xbecc240c	-0.39871252
240	0xbeaf3f04	-0.34227765
241	0xbd1ff7f9	-0.039054845
242	0xbebb7282	-0.366108
243	0xbec0b1f4	-0.37635767
244	0xbe68abbe	-0.22721764
245	0x3eb9919b	0.362439
246	0xbf10d9f0	-0.56582546
247	0xbc7559ec	-0.014975052
248	0xbf2bf26c	-0.6716678
249	0x3df5f84d	0.1201025
250	0x3e78152d	0.24226828
251	0xbdb2d459	-0.08731908
252	0xbe2a3ba0	-0.16624308
253	0xbd2c7a62	-0.0421089
254	0x3c83942c	0.016061865
255	0xbe6b2c7b	-0.22966187

conv3.0.bias f4 [64]
0	0xbfc8d550	-1.5690098
1	0xbf9859d0	-1.1902409
2	0xbf965f0b	-1.1747755
3	0xbf0a43c1	-0.54009634
4	0x3dad975d	0.08476136
5	0xbf6dd1e3	-0.92898387
6	0xbfaeff6f	-1.3671702
7	0xbf73ac53	-0.9518482
8	0x3d2246ea	0.03961841
9	0xbe6b1eb7	-0.22960936
10	0xbf38c2f3	-0.7217247
11	0xbf8b976d	-1.0905586
12	0xbfad83e5	-1.3555876
13	0xbedffa2b	-0.4374555
14	0xbf97e5bd	-1.1866986
15	0xbf828c62	-1.0199091
16	0xbd1f3805	-0.038871784
17	0xbfa6a26a	-1.3018315
18	0xbf509f04	-0.8149264
19	0xbe9ccc53	-0.30624637
20	0xbfadff2a	-1.3593495
21	0xbf84ebb9	-1.0384437
22	0xbf954b9b	-1.1663698
23	0xbf591114	-0.84791684
24	0xbfaf9781	-1.371811
25	0xbf6638e6	-0.8993057
26	0x3dfb6918	0.122759044
27	0xbfb004b0	-1.375143
28	0xbf8bfeda	-1.093715
29	0x3dc6dc23	0.097099565
30	0x3c4b2498	0.012398861
31	0xbd998ee7	-0.074979596
32	0xbf7d95cf	-0.99056715
33	0xbe4cd01b	-0.20001261
34	0xbf734f8b	-0.9504325
35	0xbe061ea2	-0.13097623
36	0xbf6f382a	-0.93445075
37	0xbf9f5bd1	-1.2449895
38	0xbf810b8f	-1.0081652
39	0xbf685fd5	-0.9077123
40	0xbd8e3997	-0.06944578
41	0xbedb188b	-0.42792162
42	0xbe44c754	-0.19216663
43	0xbd80109f	-0.0625317
44	0xbf207a3a	-0.626865
45	0xbf6529f3	-0.89517134
46	0xbeaa4f6e	-0.33263725
47	0xbe9f31db	-0.31092724
48	0xbed010c1	-0.40637782
49	0xbf783172	-0.9695045
50	0xbf23529e	-0.6379794
51	0xbef19ad8	-0.4718845
52	0xbf90fb19	-1.1326629
53	0xbd3a726c	-0.045519277
54	0xbd90e194	-0.070742756
55	0xbdec3f90	-0.11535561
56	0xbf0d7956	-0.5526327
57	0x3e81a12f	0.25318286
58	0xbebe5be8	-0.37179494
59	0x3daaf592	0.0834762
60	0xbf79a9b6	-0.97524583
61	0xbf84cf3d	-1.0375744
62	0xbfbf21c9	-1.4932185
63	0xbfa81c28	-1.3133593

conv4.0.weight f4 [32, 64, 3, 3]
0	0x3e3c9abf	0.18418406
1	0xbede1aca	-0.43379813
2	0xbd3e0dcc	-0.046399876
3	0xbe8af4f9	-0.27140024
4	0xbdc90e64	-0.09817198
5	0xbede6f78	-0.4344442
6	0xbed9a8a7	-0.42511484
7	0x3e15f054	0.14642459
8	0x3e949bad	0.2902502
9	0x3e12d5fa	0.14339438
10	0xbe806dc4	-0.25083745
11	0xbe53e89b	-0.206942
12	0xbe135ee1	-0.14391662
13	0xbe4b2f33	-0.19842224
14	0x3d8d19c3	0.06889679
15	0x3e499696	0.1968635
16	0xbddce3fe	-0.107856736
17	0xbe9287bb	-0.2861918
18	0x3db5a5ff	0.08869552
19	0xbd98705e	-0.07443307
20	0xbf26412b	-0.6494319
21	0xbec37b8f	-0.38180205
22	0xbd5a7cd0	-0.053341687
23	0xbee01830	-0.43768454
24	0xbecf92ef	-0.4054179
25	0x3dda7672	0.10667123
26	0xbea4602e	-0.3210463
27	0x3cc5c22d	0.024140442
28	0xbe2a200a	-0.16613784
29	0x3e439039	0.19097985
30	0x3ea4f847	0.3222067
31	0xbdda7c6c	-0.10668263
32	0xbe42f6cd	-0.1903946
33	0x3f0b1267	0.54324955
34	0xbe9bc568	-0.30424047
35	0xbeb9842b	-0.3623365
36	0xbec02610	-0.3752904
37	0xbe05ebce	-0.13078234
38	0xbf00db97	-0.5033507
39	0xbe756a58	-0.23966348
40	0x3d992190	0.07477105
41	0xbe78514b	-0.24249761
42	0x3e2243a0	0.1584611
43	0xbefdc3b8	-0.49563384
44	0x3d04bd74	0.03240724
45	0xbf16cea7	-0.58909076
46	0x3cc19917	0.02363257
47	0x3f0d4eb5	0.5519822
48	0xbd42dca8	-0.047573715
49	0xbeab1a17	-0.33418342
50	0x3b4dc518	0.0031397995
51	0xbcdf9042	-0.027290467
52	0xbed35204	-0.4127351
53	0xbe8b3bd6	-0.2719409
54	0xbd60aa6f	-0.05485004
55	0x3e208c72	0.15678576
56	0xbe317b1f	-0.17332123
57	0x3df608aa	0.12013371
58	0x3e8fda1a	0.28096086
59	0xbdb3da72	-0.087818995
60	0x3e0e553b	0.138997
61	0x3ef9d4bf	0.48795125
62	0xbeaff0a4	-0.34363282
63	0x3e06fc8f	0.13182281
64	0xbf274f03	-0.6535494
65	0xbdd9185c	-0.10600349
66	0xbe04fb21	-0.12986423
67	0x3e89b68d	0.26897088
68	0xbe86e866	-0.2634918
69	0x3df846da	0.12122889
70	0x3e06100a	0.13092056
71	0xbe3547f5	-0.1770323
72	0xbe05cca7	-0.1306635
73	0x3e6b8d24	0.2300306
74	0xbec9ae66	-0.39390868
75	0x3ec85d31	0.391336
76	0x3ea59508	0.32340264
77	0xbea5e9ae	-0.32404846
78	0x3df2f756	0.11863582
79	0xbf31fc9a	-0.69526064
80	0x3e65fe1a	0.22460213
81	0x3e8bd86b	0.2731355
82	0x3e0ff918	0.14059865
83	0xbf23c53e	-0.6397284
84	0xbedb878b	-0.4287685
85	0x3e0822a8	0.1329447
86	0xbf457d28	-0.771441
87	0xbe607c25	-0.21922357
88	0x3deebf8c	0.116576284
89	0xbddf2a4a	-0.10896738
90	0xbe77c928	-0.24197829
91	0xbcd09afa	-0.025464524
92	0xbd95f5ba	-0.07322259
93	0xbeef98ce	-0.46796268
94	0xbeeb630e	-0.4597401
95	0x3c7a0792	0.015260594
96	0xbee37bb3	-0.44430313
97	0x3e048839	0.1294259
98	0xbea670fe	-0.3250808
99	0xbea15752	-0.31511933
100	0xbc2f6dff	-0.010707377
101	0xbe2ed575	-0.17073615
102	0xbef4034c	-0.47658765
103	0xbf07dcef	-0.5307149
104	0xbede73ce	-0.43447727
105	0x3cf38040	0.02972424
106	0xbcb25d48	-0.021772996
107	0x3de9b3b4	0.11411229
108	0xbf06aec6	-0.52610433
109	0xbeb19554	-0.3468424
110	0x3eacbe6c	0.3373903
111	0xbf4dc9a3	-0.803858
112	0xbecd1645	-0.40056053
113	0x3e46c5e5	0.19411428
114	0xbf62d08b	-0.8859946
115	0x3e9a0499	0.30081633
116	0xbf185150	-0.59499073
117	0xbe1625a2	-0.14662793
118	0x3e95673b	0.2918032
119	0x3e9c3159	0.305064
120	0x3d5ceb83	0.05393554
121	0xbf2b0ede	-0.6681956
122	0xbe8601b1	-0.26173165
123	0xbeacd5a1	-0.33756736
124	0x3f01080e	0.50402915
125	0x3e07fb43	0.13279442
126	0xbe98492a	-0.2974332
127	0x3f005996	0.501367
128	0xbe3e82a6	-0.18604526
129	0xbe94cb28	-0.29061246
130	0x3de77517	0.1130163
131	0x3c062e4d	0.00818975
132	0xba698601	-0.0008908213
133	0xbd7f57f0	-0.062339723
134	0x3e7bcb5d	0.24589296
135	0x3e68e9e6	0.22745475
136	0xbef18413	-0.47171077
137	0xbd32997d	-0.04360341
138	0x3e29e567	0.16591416
139	0x3de7a609	0.113109656
140	0x3e964f5a	0.29357415
141	0x3dfc5c77	0.12322324
142	0x3c91942f	0.017770855
143	0x3d3cf533	0.046132278
144	0xbf11e237	-0.569858
145	0xbe9eb5f2	-0.30998188
146	0xbead9432	-0.33902127
147	0xbcb0388e	-0.021511342
148	0xbe2dc0ba	-0.1696805
149	0xbebaf20f	-0.365128
150	0x3cf1e062	0.02952594
151	0xbe188fa5	-0.14898546
152	0xbefa0191	-0.4882932
153	0x3d8dc0b2	0.06921519
154	0xbe6d50f1	-0.23175408
155	0x3e6513df	0.22370861
156	0xbd2a3a15	-0.041559298
157	0xbeec13c5	-0.46108833
158	0x3dd19a2d	0.10234485
159	0xbf3b41f7	-0.7314753
160	0xbeb37f38	-0.35057998
161	0xbf60d074	-0.87818074
162	0xbdcbf468	-0.09958726
163	0xbecb5922	-0.3971644
164	0xbe2615b1	-0.16219212
165	0x3e45150d	0.19246311
166	0xbdc48d90	-0.095973134
167	0xbea9ecc2	-0.33188444
168	0xbf23efcd	-0.6403778
169	0xbdb005f9	-0.08594889
170	0xbe12857c	-0.14308733
171	0xbc9cf4bd	-0.019159669
172	0x3f408177	0.7519755
173	0xbe21d4be	-0.15803811
174	0x3c302146	0.0107501205
175	0xbf176c57	-0.5914969
176	0xbe8df4f9	-0.27725962
177	0xbefd409f	-0.49463364
178	0xbe83c734	-0.25737917
179	0xbcaf0dfa	-0.02136897
180	0x3e3b2df9	0.18279256
181	0xbf51e988	-0.81996965
182	0xbd96465d	-0.073376395
183	0xbd9c61f1	-0.07635868
184	0x3e76fc65	0.24119718
185	0x3de5700d	0.112030126
186	0x3c0bdd9f	0.008536725
187	0x3d79216a	0.06082288
188	0x3d5bc2bd	0.053652514
189	0xbe47563b	-0.19466488
190	0x3cba4764	0.02273912
191	0xbe4b2248	-0.19837296
192	0xbe465fbd	-0.19372459
193	0xbefb030e	-0.49025768
194	0xbf4e6137	-0.8061709
195	0xbf834a6e	-1.0257089
196	0x3ecd064f	0.40043876
197	0xbe83e973	-0.25764045
198	0xbb8c38c9	-0.0042792303
199	0xbec16b6a	-0.37777263
200	0xbf1c1c92	-0.60981095
201	0xbee22ccd	-0.44174805
202	0xbebce58b	-0.36893877
203	0xbf3a9e1a	-0.72897494
204	0xbea4be68	-0.32176518
205	0x3cfe625f	0.031052766
206	0xbf26631a	-0.64994967
207	0xbe41dfdc	-0.18933052
208	0xbee96ff3	-0.45593223
209	0xbd2f2e1d	-0.042768586
210	0xbe08a7e2	-0.13345292
211	0xbe35a0e2	-0.17737153
212	0xbe5d2951	-0.21597792
213	0xbe908594	-0.28226912
214	0xbe7acad9	-0.24491443
215	0x3dd404bd	0.10352466
216	0x3ed55324	0.41664994
217	0xbe317a67	-0.17331849
218	0x3c02dc3c	0.007987078
219	0xbeed7d11	-0.4638448
220	0xbee4fdef	-0.44724986
221	0xbc677f4e	-0.014129473
222	0xbe862682	-0.26201254
223	0xbf035da2	-0.5131475
224	0xbe320f40	-0.1738863
225	0x3e7b8209	0.24561323
226	0xbed4b53c	-0.4154452
227	0xbe942ffb	-0.28942856
228	0xbe74e97c	-0.23917192
229	0xbe8d4efe	-0.2759933
230	0xbdf339b9	-0.11876244
231	0xbbd6d0f9	-0.006555673
232	0xbf12b71f	-0.5731067
233	0xbea8d168	-0.32972264
234	0x3ee19dd7	0.44065735
235	0xbe8e8f3b	-0.2784365
236	0xbe834050	-0.25635004
237	0xbd870429	-0.0659259
238	0xbe1fbf61	-0.15600349
239	0xbe856b5a	-0.26058465
240	0x3d8ef492	0.06980242
241	0xbf0a06aa	-0.5391642
242	0xbe298a1a	-0.16556588
243	0x3d532513	0.05154903
244	0x3d912a7b	0.07088181
245	0xbe001dac	-0.12511319
246	0xbec97b65	-0.39351955
247	0xbe287458	-0.16450632
248	0xbf5d8ad7	-0.8653998
249	0xbe650fcf	-0.22369312
250	0xbf5f88df	-0.87318224
251	0xbe7aa19e	-0.24475715
252	0xbf076e9b	-0.52903146
253	0xbe7d16be	-0.24715707
254	0xbf3b9bff	-0.73284906
255	0xbec36215	-0.38160768

conv4.0.bias f4 [32]
0	0xbecd36e5	-0.40080944
1	0xbf89ab80	-1.0755463
2	0xbf558cdb	-0.83418053
3	0xbf410746	-0.75401723
4	0xbf5285f9	-0.82235676
5	0xbfbbe172	-1.4678175
6	0x3d3f99a2	0.046777375
7	0xbf07856d	-0.52937967
8	0xbf1fe524	-0.62459016
9	0xbf0f81d7	-0.56057495
10	0x3cc64549	0.02420296
11	0x3c2791f2	0.010227667
12	0xbf00fb36	-0.5038332
13	0xbf3cc4f3	-0.7373802
14	0xbfa9bbfa	-1.3260491
15	0x3bc98b83	0.0061506643
16	0xbf43b4f9	-0.7644802
17	0xbfc85128	-1.5649767
18	0xbf77774e	-0.9666642
19	0xbe81981e	-0.2531137
20	0xbdefc3aa	-0.11707242
21	0x3cf7cd0f	0.030249147
22	0xbf58ae28	-0.8464074
23	0xbf41492d	-0.7550228
24	0xbf01a48b	-0.506417
25	0xbe675ae2	-0.22593263
26	0xbf1058e5	-0.5638564
27	0xbf2f8636	-0.68564165
28	0xbf25162a	-0.64486945
29	0xbe11a14d	-0.14221688
30	0xbf1d5a30	-0.6146574
31	0x3dd6af06	0.10482602

conv5.0.weight f4 [16, 32, 3, 3]
0	0xbf27c54a	-0.65535414
1	0xbf18ff74	-0.5976479
2	0x3d3c157b	0.045918923
3	0xbe4bb9e8	-0.19895136
4	0xbdac6777	-0.08418172
5	0xbf2310de	-0.6369761
6	0x3e2ff7f7	0.17184435
7	0x3df1af3b	0.11801001
8	0x3e621c3d	0.22081085
9	0xbeeab17e	-0.4583854
10	0xbe74849b	-0.2387871
11	0xbe844347	-0.2583258
12	0xbe1974a7	-0.14985906
13	0xbefe3a10	-0.49653673
14	0xbf113f4c	-0.5673721
15	0x3ce657b3	0.02811799
16	0xbe90cce9	-0.28281334
17	0xbf2bfc5c	-0.67181945
18	0xbee1c532	-0.4409576
19	0xbe138e98	-0.14409864
20	0x3ea6a69c	0.32548988
21	0x3e100e61	0.14067985
22	0xbda28538	-0.07935566
23	0xbf109326	-0.5647453
24	0xbe2cc3da	-0.16871586
25	0xbf197155	-0.59938556
26	0xbd655184	-0.055985942
27	0xbdc143f4	-0.09436789
28	0xbdb29f1b	-0.08721753
29	0x3e030f58	0.12798822
30	0x3d2e4bf2	0.042552896
31	0xbdc1cb6d	-0.094626285
32	0xbd8c5a69	-0.06853182
33	0xbd254379	-0.04034755
34	0x3d09b924	0.03362383
35	0x3d7d605a	0.061859466
36	0xbf156183	-0.58351916
37	0xbf5eef5a	-0.8708397
38	0xbf15f557	-0.58577484
39	0xbe87e128	-0.26538968
40	0xbe85e502	-0.26151282
41	0xbd855c21	-0.06511713
42	0xbed72065	-0.42016903
43	0xbf47803e	-0.7793006
44	0xbf032f64	-0.5124419
45	0xbf692e80	-0.9108658
46	0xbf32835f	-0.69731706
47	0xbeb9c6a9	-0.36284378
48	0xbf322d88	-0.69600725
49	0xbe8df132	-0.2772308
50	0xbef70756	-0.48247784
51	0xbfb9e01a	-1.4521515
52	0xbf74345c	-0.95392394
53	0xbf8c96fc	-1.0983577
54	0xbe9fb163	-0.31190023
55	0xbdd806c8	-0.105481684
56	0x3eecc923	0.46247205
57	0xbeec569f	-0.46159837
58	0xbeb7dac3	-0.3590909
59	0xbd229b0d	-0.03969865
60	0x3e0a9e9b	0.13537066
61	0x3e929032	0.28625637
62	0x3e36ef87	0.1786481
63	0xbda2ed45	-0.07955412
64	0xbd5987a4	-0.053107873
65	0xbe581121	-0.21100284
66	0x3d7dc874	0.061958745
67	0xbeb213b4	-0.34780657
68	0xbdb82fa1	-0.089934595
69	0x3e25b0a0	0.16180658
70	0xbd53b2a0	-0.051684022
71	0xbda9a8f4	-0.082841784
72	0xbd1fee7b	-0.039045792
73	0xbe152380	-0.14564323
74	0xbe1cd546	-0.15315732
75	0x3ee84c11	0.45370534
76	0xbd1fc645	-0.039007444
77	0x3e9ba10b	0.30396304
78	0xbe03ca15	-0.12870057
79	0xbe953d6b	-0.2914842
80	0x3e876878	0.2644689
81	0xbec8561c	-0.39128196
82	0xbe764143	-0.24048333
83	0xbd2ff214	-0.042955473
84	0xbd862866	-0.06550674
85	0xbeae209a	-0.34009248
86	0xbf18b7fe	-0.5965575
87	0xbe3fa059	-0.18713512
88	0xbe8ab6b3	-0.27092513
89	0xbe8783fc	-0.26467884
90	0xbe93f000	-0.28894043
91	0xbed9549e	-0.4244737
92	0x3d65564e	0.05599051
93	0x3f00c655	0.5030263
94	0xbdcc51e1	-0.09976555
95	0x3d735808	0.059410125
96	0x3d488da7	0.048963215
97	0x3e3dcd99	0.1853546
98	0x3d2b0cc0	0.041760206
99	0xbebf8b9a	-0.37411195
100	0x3f093b88	0.5360646
101	0xbe6751d6	-0.22589812
102	0xbed52a6e	-0.41633934
103	0x3df0cbc6	0.11757617
104	0x3e9f58a3	0.31122312
105	0x3d6c972a	0.05776135
106	0x3e9a2f64	0.3011428
107	0x3dc79859	0.09745855
108	0xbe501688	-0.20321095
109	0xbec53e9a	-0.38524324
110	0xbe55376e	-0.20821926
111	0xbe3425c1	-0.17592527
112	0xbe105f79	-0.1409892
113	0xbd3a21c1	-0.045442346
114	0xbe854505	-0.2602922
115	0xbf122a6c	-0.5709598
116	0xbe051c70	-0.1299913
117	0xbeb44fea	-0.3521722
118	0xbdfbf285	-0.12302116
119	0xbe918e78	-0.28429008
120	0x3c0e7dbc	0.00869697
121	0x3d56a22e	0.05240076
122	0xbebabeeb	-0.36473784
123	0xbe306805	-0.1722718
124	0xbd2cb1e2	-0.04216183
125	0xbe26cc6d	-0.1628892
126	0x3d2b70d4	0.04185565
127	0xbe7cde5f	-0.24694203
128	0x3d1d50bc	0.038407072
129	0xbee54d9b	-0.4478577
130	0xbe9bdbf4	-0.30441248
131	0xbef5b5db	-0.47990307
132	0xbedf884e	-0.4365868
133	0x3ed93b32	0.42427975
134	0xbea10db3	-0.31455764
135	0xbe6973c0	-0.22798061
136	0x3e37302c	0.1788947
137	0x3e4da597	0.20082699
138	0xbc656b57	-0.014002643
139	0x3e8842e3	0.2661353
140	0x3e4342fc	0.19068521
141	0x3ded7986	0.115954444
142	0x3e9a4bf9	0.30136088
143	0xbddf49c9	-0.10902745
144	0xbef09deb	-0.46995482
145	0xbd1e71b4	-0.038682655
146	0xbe0e7c2b	-0.13914554
147	0x3d63de15	0.055631716
148	0xbd2b6422	-0.04184354
149	0x3d2bcb2d	0.04194181
150	0xbd2017d1	-0.039085213
151	0x3dff5025	0.12466458
152	0xbdf0798d	-0.11741934
153	0xbf35539c	-0.708307
154	0xbf42752a	-0.7596003
155	0xbf6aa68d	-0.91660386
156	0xbe87879f	-0.26470658
157	0xbdb57f5a	-0.08862181
158	0xbe323713	-0.17403822
159	0xbebc732e	-0.36806625
160	0xbd02b7ac	-0.031913444
161	0xbe3ba64c	-0.18325156
162	0x3e1e7aa2	0.15476468
163	0xbdbf44a1	-0.09339262
164	0xbc4f7292	-0.012661593
165	0xbee1b5e1	-0.44084075
166	0x3de80ce3	0.11330583
167	0x3e9722ae	0.29518646
168	0x3cd409e0	0.025883615
169	0xbe8339bc	-0.25629985
170	0x3e4e39a5	0.20139177
171	0xbd56f76f	-0.052482065
172	0x3c93b4f8	0.018030629
173	0x3ca1eaa9	0.019765215
174	0xbd76a42f	-0.06021517
175	0x3d34d6d1	0.044150177
176	0xbc70cd61	-0.014697404
177	0xbd5e47f7	-0.05426785
178	0x3c6ef7bf	0.014585434
179	0xbd37155b	-0.0446981
180	0x3d88b9cc	0.06676063
181	0x3d7336d9	0.05937848
182	0xbc574830	-0.013139769
183	0x3dfeec11	0.1244737
184	0x3ba99599	0.005175304
185	0xbe1ed127	-0.15509473
186	0x3d1fe111	0.039033
187	0xbe39d924	-0.18149239
188	0xbddb47ad	-0.107070304
189	0xbe9d2ef1	-0.30699876
190	0x3f391aa8	0.723063
191	0x3dd56352	0.104193345
192	0x3cc88e45	0.024481902
193	0xbec7f27f	-0.39052197
194	0x3e763325	0.24042948
195	0x3d139433	0.036030006
196	0xbd203a62	-0.03911818
197	0xbd28a1ec	-0.041170046
198	0xbad2adab	-0.0016073486
199	0x3cadf9a9	0.021237211
200	0x3e1c3264	0.15253597
201	0xbe9609bf	-0.2930431
202	0xbdfb099f	-0.122576945
203	0xbe3e8f63	-0.18609385
204	0xbe447e5e	-0.1918883
205	0xbf03b2e7	-0.5144486
206	0xbdabbad3	-0.08385243
207	0xbec06546	-0.37577266
208	0xbe566a91	-0.2093909
209	0xbd341ad2	-0.04397089
210	0xbe841acf	-0.25801703
211	0x3e934453	0.28763065
212	0xbeeced0e	-0.46274608
213	0xbc689461	-0.014195533
214	0xbe2405bd	-0.16017814
215	0xbe45251e	-0.1925244
216	0xbe00c41c	-0.1257481
217	0x3e9f40d2	0.3110414
218	0xbcc7f0a9	-0.024406748
219	0xbce5777a	-0.028011072
220	0xbdf337c6	-0.11875872
221	0x3e6b1fb9	0.2296132
222	0xbd9fb1d3	-0.07797589
223	0xbd938f70	-0.07205093
224	0xbe4f3610	-0.20235467
225	0xbd966719	-0.07343883
226	0xbdf30ac1	-0.118672855
227	0x3d4a3fc9	0.049377237
228	0x3c87af71	0.01656315
229	0x3cc94888	0.024570718
230	0x3caa5712	0.020793471
231	0x3e28ea8e	0.16495726
232	0xbd40915b	-0.04701362
233	0xbc873c72	-0.016508315
234	0xbd6ed0cc	-0.058304593
235	0xbe794f51	-0.24346663
236	0xbe9c8cf5	-0.30576292
237	0x3d06c6c8	0.032904416
238	0xbe68a578	-0.22719371
239	0xbf108b2a	-0.5646235
240	0xbea1ae3e	-0.3157825
241	0xbcf0f9eb	-0.029416045
242	0xbeac0d75	-0.33604017
243	0x3e46ad50	0.19402051
244	0xbc864170	-0.016388625
245	0xbda66227	-0.0812419
246	0xbe1bd7f7	-0.15219103
247	0xbea7bfc0	-0.3276348
248	0xbe9367f9	-0.28790262
249	0xbe53e8e5	-0.20694311
250	0xbe8b3020	-0.27185154
251	0xbd7d0c07	-0.06177905
252	0x3e2bd279	0.16779508
253	0x3cd5aae1	0.026082458
254	0xbd7061ac	-0.058686897
255	0xbeabb3d8	-0.33535647

conv5.0.bias f4 [16]
0	0xbce85e73	-0.02836535
1	0xbf18c149	-0.5966993
2	0xc001216a	-2.0176644
3	0xbdcba7d2	-0.099441186
4	0xbd156e90	-0.036482394
5	0xbf9b8d8d	-1.2152573
6	0xbf7c18d2	-0.9847537
7	0xbf09caf8	-0.5382533
8	0xc01abf89	-2.4179404
9	0xbf1d1586	-0.6136097
10	0xbf83d1ce	-1.0298402
11	0xbcc6df65	-0.024276445
12	0x3d9d1a6d	0.07671056
13	0xbf943bec	-1.1580787
14	0xbff0a3b3	-1.8799957
15	0xc0138fdf	-2.3056562
