ckpt/ckpt1/radar_model.pth (torch, 601012 bytes, 14 tensors)

input.0.weight f4 [32, 18, 3]
0.17976294 -0.16242424 0.05795567 -0.24631034 -0.19809225 0.04821165 -0.047327887 -0.02161619
-0.12953694 -0.05026435 -0.036191802 0.09902341 -0.13971838 -0.11552565 -0.007766415 0.12143363
0.21137016 -0.3999527 0.3722428 0.14595813 0.07195346 0.276812 0.41947636 -0.05407351
-0.6021816 -0.06530282 -0.5389591 -0.056163944 -0.021749124 0.08780933 -0.095289 0.031696238
-0.11419456 0.3133873 0.0840491 0.05695957 0.23332405 -0.09743101 -0.15678817 0.2231585
-0.03452817 -0.017004795 0.44285306 -0.3287446 0.122505605 -0.033931743 -0.0537513 0.11730813
0.09907724 0.14917125 -0.1581673 0.23013145 -0.041409954 0.000738885 -0.19078648 0.28273246
-0.25308052 0.06535832 0.037142623 0.033207696 -0.07893309 0.03689237 -0.06224844 -0.17512335
-0.18373899 0.19428599 -0.14794694 0.09765353 0.02688763 -0.062633 0.38252097 -0.15894894
-0.039574694 -0.033652063 -0.047694556 -0.105019525 0.20421961 -0.038992442 -0.3446717 -0.28353998
0.083269775 0.47114104 0.11317759 0.070707165 0.22354311 0.0016857415 0.28607982 0.10052207
0.08495338 0.116355725 -0.1120741 0.20628096 -0.0927087 -0.07314386 -0.020668551 0.1923796
0.24864809 0.18042932 0.21189274 0.39192882 0.3268784 0.29005128 -0.08402827 0.14179853
0.0744372 -0.098266445 0.22206372 0.1985652 0.27815977 -0.15903679 -0.08426601 -0.22086677
-0.10593364 -0.159986 -0.073103465 -0.019408103 -0.052904427 0.18537776 -0.16861866 -0.014761613
-0.063975185 0.08254819 -0.0278586 -0.25802428 -0.90916485 0.30383655 0.21985392 -0.20974672
-0.16419314 0.32647586 -0.07108253 -0.038941357 0.5073061 0.5161225 0.3506611 0.01851917
-0.30981937 0.15521973 0.13468406 -0.011066904 0.115606 -0.360034 -0.27091074 -0.061554983
0.1245247 -0.07858948 -0.014812581 -0.086400755 0.1331183 -0.17907958 0.21952574 -0.18551743
0.2926948 0.38474432 0.32737014 0.3229417 0.10536791 0.11165481 -0.119616896 -0.08994857
-0.04758128 -0.26644018 -0.20345804 -0.13680716 -0.18520911 0.41388994 0.14307415 0.32416633
-0.02409123 -0.06601168 -0.081862144 -0.08714701 0.017431483 -0.097966135 0.18176545 0.17154175
-0.07293266 0.0047090254 0.20629376 -0.12618898 -0.24662028 -0.39583516 0.07588443 -0.21176459
0.00504833 -0.2957779 -0.07679467 -0.2978671 -0.45618272 -0.39441067 -0.12191351 0.09572562
-0.21287704 -0.23131771 -0.09650185 -0.15550137 -0.11470919 -0.3794476 -0.04313727 -0.051287178
0.049199812 0.004282058 0.008595253 -0.02005527 0.16965938 -0.09293111 -0.4543885 0.04141371
-0.12550165 -0.23089837 0.049718447 0.001988747 -0.08920206 -0.16639602 0.05271895 -0.16711466
0.13179697 0.09062805 -0.1519533 0.09223401 -0.012719532 0.12614845 -0.03638644 0.027375702
-0.036615454 0.1594819 -0.028586071 -0.030856507 -0.016498784 0.1214462 0.2502661 0.055644415
-0.29217115 -0.32113755 0.109264806 -0.1695815 -0.031983174 -0.12772879 -0.008978193 0.2156457
0.15202816 0.10041857 -0.10033931 0.38121796 0.33387318 0.26622874 -0.3785884 -0.26015946
-0.31690544 -0.19607334 -0.29742694 -0.1009341 -0.09404961 -0.280356 0.0016028057 -0.17426068
00000000: c713 383e 8a52 26be ed62 6d3d c738 7cbe
00000010: b2d8 4abe 9479 453d e3da 41bd 7014 b1bc
00000020: 55a5 04be fee1 4dbd db3d 14bd c9cc ca3d
00000030: 5612 0fbe b698 ecbd 697d febb 32b2 f83d
00000040: 6b71 583e 9ac6 ccbe 9c96 be3e 0c76 153e
00000050: 565c 933d 4dba 8d3e 9bc5 d63e 2f7c 5dbd
00000060: 9328 1abf 7cbd 85bd 39f9 09bf 2a0c 66bd
00000070: 382b b2bc 61d5 b33d e126 c3bd ead3 013d
00000080: d6de e9bd 4d74 a03e ef21 ac3d 704e 693d
00000090: 80ec 6e3e e989 c7bd 148d 20be a983 643e
000000a0: 696d 0dbd a44d 8bbc a3bd e23e 3651 a8be
000000b0: 38e4 fa3d 03fc 0abd 532a 5cbd 3f3f f03d
000000c0: 02e9 ca3d 59c0 183e 9cf6 21be 94a7 6b3e
000000d0: 7c9d 29bd bcb1 413a 885d 43be 4fc2 903e
000000e0: c593 81be 95da 853d dd22 183d cb04 083d
000000f0: aca7 a1bd 741c 173d 38f8 7ebd 8953 33be
00000100: 1326 3cbe e8f2 463e 677f 17be 93fe c73d
00000110: 7243 dc3c bb45 80bd cad9 c33e 83c3 22be
00000120: 1319 22bd bfd6 09bd 5e5b 43bd 7a14 d7bd
00000130: f21e 513e 8ab6 1fbd cf78 b0be 272c 91be
00000140: 5889 aa3d 6639 f13e a7c9 e73d ebce 903d
00000150: 7ce8 643e 19f4 dc3a 0e79 923e 84de cd3d
00000160: 0afc ad3d e94b ee3d 1b87 e5bd 513b 533e
00000170: 0fde bdbd 73cc 95bd 1851 a9bc 28ff 443e
00000180: 9b9d 7e3e 77c2 383e 69fa 583e e5aa c83e
00000190: 9b5c a73e 9a81 943e 0317 acbd a233 113e
000001a0: 8872 983d eb3f c9bd ac64 633e ad54 4b3e
000001b0: f56a 8e3e 8ada 22be a893 acbd e62a 62be
000001c0: bcf3 d8bd 5fd3 23be 45b7 95bd befd 9ebc
000001d0: 50b2 58bd abd3 3d3e 5faa 2cbe b1da 71bc
000001e0: 6c05 83bd 070f a93d b837 e4bc c21b 84be
000001f0: 07bf 68bf 7790 9b3e 6321 613e d8c7 56be
00000200: 3f22 28be d827 a73e b893 91bd f980 1fbd
00000210: d0de 013f 9b20 043f da89 b33e 84b5 973c
00000220: a5a0 9ebe ecf1 1e3e 9eea 093e f651 35bc
00000230: d7c2 ec3d 6056 b8be d0b4 8abe 1421 7cbd
00000240: ce06 ff3d 85f3 a0bd 78b0 72bc e1f2 b0bd
00000250: 2a50 083e a360 37be 5bcb 603e 48f8 3dbe
00000260: 18dc 953e 35fd c43e 0f9d a73e 9d58 a53e
00000270: 21cb d73d 47ab e43d b4f9 f4bd f536 b8bd
00000280: 97e4 42bd d96a 88be 4e57 50be 2d17 0cbe
00000290: 75a7 3dbe 62e9 d33e 0882 123e 21f9 a53e
000002a0: f95a c5bc 2231 87bd 57a7 a7bd 227a b2bd
000002b0: 78cc 8e3c 78a2 c8bd b920 3a3e a4a8 2f3e
000002c0: b85d 95bd 2b4e 9a3b ac3e 533e af37 01be
000002d0: 078a 7cbe e8aa cabe 4c69 9b3d d1d8 58be
000002e0: 766c a53b 3370 97be 8646 9dbd 0982 98be
000002f0: c890 e9be 32f0 c9be caad f9bd cb0b c43d
00000300: 70fc 59be 8dde 6cbe c3a2 c5bd c03b 1fbe
00000310: a7ec eabd f546 c2be b5b0 30bd 8112 52bd
00000320: be85 493d 8250 8c3b 1bd3 0c3c f34a a4bc
00000330: 30bb 2d3e aa52 bebd 9ca5 e8be 6ca1 293d
00000340: 8183 00be 9f70 6cbe 92a5 4b3d a355 023b
00000350: 92af b6bd b863 2abe d3ef 573d 1b20 2bbe
00000360: c9f5 063e 339b b93d a599 1bbe 2fe5 bc3d
00000370: 9565 50bc 0f2d 013e f309 15bd 0243 e03c
00000380: 16fa 15bd 394f 233e 562d eabc c9c6 fcbc
00000390: 7528 87bc c9b8 f83d e122 803e 66eb 633d
000003a0: 7597 95be 246c a4be 3ac6 df3d c6a6 2dbe
000003b0: ca00 03bd 56cb 02be 4519 13bc 3ad2 5c3e
000003c0: 45ad 1b3e 40a8 cd3d b27e cdbd 002f c33e
000003d0: 6df1 aa3e 224f 883e 57d6 c1be 9f33 85be
000003e0: 6e41 a2be 73c7 48be 5848 98be 8ab6 cebd
000003f0: 159d c0bd d28a 8fbe 3c15 d23a 6471 32be

input.0.bias f4 [32]
-0.051228687 0.23534402 0.17717396 -0.04103166 -0.3098909 -0.018790746 0.05293082 -0.108542904
0.17473868 -0.3209497 -0.3261327 0.0036448066 0.1669842 0.14631467 -0.21609144 0.040410228
-0.11912327 -0.1903727 0.046368767 -0.21779318 0.14715613 0.19738275 0.12980945 0.07195796
-0.076397285 0.15963793 0.13883509 0.21476415 -0.048806258 0.17760588 0.028649082 -0.017160237
00000000: 2cd5 51bd 06fe 703e 176d 353e d010 28bd
00000010: 05aa 9ebe 0def 99bc fdcd 583d be4b debd
00000020: b2ee 323e 8553 a4be defa a6be b5dd 6e3b
00000030: e8fd 2a3e 83d3 153e 1347 5dbe 3285 253d
00000040: e7f6 f3bd 10f1 42be 2ded 3d3d 2d05 5fbe
00000050: 19b0 163e b41e 4a3e c5ec 043e b25e 933d
00000060: 2e76 9cbd 2078 233e c92a 0e3e 22eb 5b3e
00000070: 12e9 47bd 51de 353e 7bb1 ea3c a093 8cbc

conv1.0.weight f4 [64, 32, 3]
-0.32120457 -0.08637987 0.13176587 0.000617925 0.30821836 -0.07616967 -0.11273091 -0.3945239
-0.008719637 -0.10802676 -0.17769814 -0.156326 -0.081512235 -0.09470357 0.16371673 0.016396614
-0.34057993 0.18138663 -0.14821588 -0.0023002268 0.2819366 -0.46062285 0.012102265 -0.20399672
-0.03791822 -0.0013105479 0.18881874 -0.08885234 0.0057761106 -0.16687258 -0.37204373 0.105233006
0.20879763 -0.35648796 -0.31391066 0.23739158 0.21886401 -0.08384936 0.1920844 -0.06557413
-0.038637552 -0.49721867 0.08374861 -0.1351485 -0.30329493 -0.23532316 0.17236325 0.15948756
-0.1372702 0.020958425 0.1298253 0.047088984 0.06694779 -0.109515116 0.15714736 0.11480289
0.29232854 -0.35130924 0.08867989 0.01325122 0.21868077 -0.07345892 -0.026964536 0.07142723
0.0009797006 -0.14147711 0.0019502221 -0.11029985 0.25402728 -0.059010286 0.16151813 -0.103030905
-0.23702157 0.13486429 -0.110964864 0.22658962 -0.10026888 0.040228266 0.10801435 0.067897856
0.08525648 0.14293915 -0.123317026 -0.11771598 0.23825227 0.012917711 0.0847778 0.041440453
0.0718589 -0.15193501 0.15760893 0.17359343 -0.056525886 0.00034198345 -0.099886864 0.031560108
-0.2669624 0.046807826 -0.027435774 0.34524798 -0.123929925 0.20397843 -0.34320226 -0.0049901935
-0.4555114 -0.17558344 -0.13219939 -0.024328971 -0.16564013 -0.23110844 -0.07048316 0.29812956
0.056940604 0.22072816 0.15012378 0.1684098 -0.41068715 -0.15505508 -0.026570763 0.30672675
0.018052608 0.03289256 -0.10391893 -0.32166836 -0.55371636 -0.005056747 0.079764605 -0.1389402
0.073614806 -0.07508749 -0.13837822 -0.33246815 -0.08627215 -0.23253825 -0.0106835915 -0.18883954
-0.08806932 0.026096828 0.012755101 -0.11752496 0.033448942 -0.0024228226 0.18973164 -0.15014572
0.10600565 0.22658603 -0.17078052 -0.009974372 0.04173424 0.054365505 0.046429183 -0.3990815
-0.2053089 0.032159135 0.061551746 0.01305314 -0.047324494 -0.044962265 -0.033241894 0.11938043
0.05415102 -0.061994586 -0.046649102 0.07026543 0.13613087 0.055345323 -0.01443145 0.21621394
-0.0443758 -0.09209287 -0.38972068 -0.021555735 -0.11014351 -0.056288984 -0.21137026 0.056046925
-0.10121103 0.062002808 0.0493474 -0.03803956 -0.2965794 0.030921372 0.27528223 -0.23434094
-0.29730415 -0.22304215 0.33499599 -0.27131933 -0.1889195 -0.18872194 -0.101143345 0.2122614
0.108916 0.0774315 -0.18834956 0.20376255 0.21513775 0.20361425 -0.081532724 -0.1699799
-0.1396503 -0.027772117 -0.09482159 -0.4480221 0.15511388 0.12475518 -0.07064639 -0.17069688
-0.22353724 -0.007471574 -0.27197704 -0.13424495 -0.25957096 0.07408887 -0.31431475 -0.14434747
0.028857442 -0.06690446 0.028903821 -0.016051346 -0.04065906 -0.06367764 0.07005051 0.059249133
0.052683257 0.004683123 -0.019948391 0.2649862 -0.13874917 0.100946955 0.031109784 0.19010442
0.038532075 0.03662732 -0.38444552 -0.03455234 -0.057434462 -0.47166926 -0.2922364 -0.08373419
-0.36681974 -0.32303444 -0.6032761 0.012742583 0.040974487 0.039505467 0.049809027 0.050397452
0.08969579 0.03727201 -0.0996556 0.14330994 -0.012081169 -0.16556983 0.2141676 0.051062524
00000000: ed74 a4be eee7 b0bd a2ed 063e 3ffc 213a
00000010: ccce 9d3e d8fe 9bbd 77df e6bd 09ff c9be
00000020: cfdc 0ebc 223d ddbd 80f6 35be ec13 20be
00000030: e3ef a6bd f2f3 c1bd 5ca5 273e 3152 863c
00000040: 7e60 aebe 6bbd 393e e7c5 17be 67bf 16bb
00000050: fe59 903e c2d6 ebbe 9448 463c 84e4 50be
00000060: 2350 1bbd b1c6 abba b359 413e 37f8 b5bd
00000070: 8745 bd3b a5e0 2abe 847c bebe 6784 d73d
00000080: 0ccf 553e 9785 b6be e6b8 a0be c716 733e
00000090: e31d 603e 37b9 abbd c6b1 443e bb4b 86bd
000000a0: 6942 1ebd 7293 febe 6484 ab3d 5e64 0abe
000000b0: 7949 9bbe 8ef8 70be fe7f 303e b550 233e
000000c0: 8f90 0cbe 01b1 ab3c ecf0 043e 61e0 403d
000000d0: ec1b 893d 7649 e0bd 3deb 203e c71d eb3d
000000e0: 16ac 953e cede b3be cd9d b53d a51b 593c
000000f0: daed 5f3e a171 96bd bbe4 dcbc 7148 923d
00000100: 4c69 803a 60df 10be 989e ff3a e3e4 e1bd
00000110: dd0f 823e c5b4 71bd 0265 253e de01 d3bd
00000120: c8b5 72be dd19 0a3e 8c41 e3bd 1c07 683e
00000130: c559 cdbd 65c6 243d a136 dd3d 080e 8b3d
00000140: f39a ae3d a45e 123e a38d fcbd 1315 f1bd
00000150: 67f8 733e cfa4 533c fc9f ad3d 77bd 293d
00000160: c22a 933d da94 1bbe 3c64 213e 7ac2 313e
00000170: b087 67bd 3e4c b339 7c91 ccbd 2c45 013d
00000180: 4caf 88be 90b9 3f3d fdc0 e0bc 58c4 b03e
00000190: f9ce fdbd b9df 503e 35b8 afbe c784 a3bb
000001a0: ca38 e9be 25cc 33be 475f 07be 8d4d c7bc
000001b0: 919d 29be b1a7 6cbe 7a59 90bd 70a4 983e
000001c0: 8d3a 693d 9006 623e 0cba 193e 9e73 2c3e
000001d0: 9645 d2be c2c6 1ebe eeaa d9bc 4a0b 9d3e
000001e0: 10e3 933c 59ba 063d 73d3 d4bd b7b1 a4be
000001f0: 5bc0 0dbf 11b3 a5bb a05b a33d 5746 0ebe
00000200: 5cc3 963d 78c7 99bd 05b3 0dbe 4439 aabe
00000210: 74af b0bd 821e 6ebe 3b0a 2fbc 275f 41be
00000220: b05d b4bd 04c9 d53c c5fa 503c edb0 f0bd
00000230: c201 093d 38c8 1ebb 0349 423e cdbf 19be
00000240: 7d19 d93d 2b06 683e 17e1 2ebe 8c6b 23bc
00000250: 86f1 2a3d 5dae 5e3d 872c 3e3d 6954 ccbe
00000260: 7f3c 52be 4cb9 033d af1d 7c3d d6dc 553c
00000270: 54d7 41bd 5a2a 38bd a728 08bd ba7d f43d
00000280: 76cd 5d3d 09ee 7dbd 2113 3fbd 52e7 8f3d
00000290: e465 0b3e c7b1 623d e371 6cbc 3067 5d3e
000002a0: 66c3 35bd 309b bcbd 7889 c7be a795 b0bc
000002b0: ec92 e1bd 478f 66bd 7271 58be 7691 653d
000002c0: ba47 cfbd a8f6 7d3d 8020 4a3d 5fcf 1bbd
000002d0: 41d9 97be d14e fd3c cbf1 8c3e 12f7 6fbe
000002e0: 4038 98be 2965 64be 9884 ab3e 5eea 8abe
000002f0: 1d74 41be 5340 41be 3e24 cfbd 0d5b 593e
00000300: 5a0f df3d 6894 9e3d b5de 40be 21a7 503e
00000310: 124d 5c3e 4180 503e a1fa a6bd 360f 2ebe
00000320: 7d00 0fbe 5a82 e3bc d231 c2bd 2763 e5be
00000330: 2cd6 1e3e a57f ff3d 0eaf 90bd 2acb 2ebe
00000340: f2e6 64be 1bd4 f4bb 9340 8bbe 8277 09be
00000350: 7ce6 84be e8bb 973d dded a0be d3cf 13be
00000360: 7166 ec3c 3505 89bd b5c7 ec3c 1d7e 83bc
00000370: 1d8a 26bd 6c69 82bd a476 8f3d 38af 723d
00000380: 66ca 573d e274 993b cf6a a3bc 45ac 873e
00000390: 4314 0ebe 47bd ce3d f2d9 fe3c bcaa 423e
000003a0: cfd3 1d3d 8706 163d 0bd6 c4be c186 0dbd
000003b0: 6640 6bbd a27e f1be 02a0 95be d57c abbd
000003c0: cccf bbbe c564 a5be 4d70 1abf 44c6 503c
000003d0: ddd4 273d 7cd0 213d 8d04 4c3d 8f6d 4e3d
000003e0: 6db2 b73d 89aa 183d 3c18 ccbd d7bf 123e
000003f0: 18f0 45bc 238b 29be c04e 5b3e f026 513d

conv1.0.bias f4 [64]
0.013748697 -0.020857185 -0.040561255 0.2052542 -0.10151222 -0.08437094 0.12677614 0.15488766
0.27821574 0.13167469 -0.0106239915 -0.40158266 0.06358598 -0.2840425 0.21333867 -0.15413913
-0.0074207 -0.21761656 0.032726243 -0.16659705 -0.05172559 0.06639579 0.19869395 0.14154007
0.24050495 -0.40696388 0.121054664 -0.24704057 -0.22739132 0.07084364 -0.1844069 -0.08438204
-0.09047128 -0.3268217 0.09325606 -0.06325749 0.23853232 -0.07224039 -0.35112295 -0.008205655
0.045728244 -0.039051212 0.013030873 0.098529495 -0.15852052 -0.44783485 0.06415137 -0.21152414
-0.021591919 -0.14666429 -0.21282844 0.14594756 0.26614526 -0.43055874 -0.33539653 0.00012388137
0.20061277 0.21496552 0.102853015 0.2033097 -0.25600168 0.15506999 -0.33363503 0.14025792
00000000: 3742 613c b0dc aabc 8f23 26bd 282e 523e
00000010: a4e5 cfbd acca acbd 9bd1 013e df9a 1e3e
00000020: 4b72 8e3e bbd5 063e 4010 2ebc 3e9c cdbe
00000030: 5e39 823d 056e 91be 7475 5a3e a6d6 1dbe
00000040: 5829 f3bb e0d6 5ebe f40b 063d 6b98 2abe
00000050: 36de 53bd 84fa 873d 6d76 4b3e e1ef 103e
00000060: ee46 763e 925d d0be 82eb f73d 34f8 7cbe
00000070: 45d9 68be 7816 913d 2ad5 3cbe 7ed0 acbd
00000080: 0249 b9bd 2d55 a7be 08fd be3d 258d 81bd
00000090: d141 743e c5f2 93bd 63c6 b3be 0371 06bc
000000a0: 8a4d 3b3d 2af4 1fbd 717f 553c d5c9 c93d
000000b0: 3453 22be 9c4a e5be cb61 833d c999 58be
000000c0: 89e1 b0bc 2a2f 16be b3ef 59be 4773 153e
000000d0: 3144 883e 3272 dcbe 18b9 abbe 27e6 0139
000000e0: 6f6d 4d3e ec1f 5c3e 9aa4 d23d 6b30 503e
000000f0: a712 83be abca 1e3e 36d2 aabe c69f 0f3e

conv2.0.weight f4 [128, 64, 3]
-0.07883518 -0.2439471 0.058347825 -0.0035309778 0.035409786 -0.35073823 -0.079238325 -0.061449558
0.18486309 -0.37358245 -0.40948755 -0.29395297 -0.11055793 -0.0011821317 -0.1272574 -0.07634751
-0.013936597 0.18131763 -0.44959992 -0.17337422 -0.013197576 -0.1565017 -0.21903773 -0.25207192
0.0027964532 -0.11736147 -0.019715074 -0.112631656 0.044128966 -0.16639017 0.015790245 0.05150272
-0.07990761 0.06863203 0.24400814 0.2030362 0.039665245 -0.14132868 -0.31718186 0.13196099
0.058411475 0.13867976 -0.042149596 -0.16363181 -0.24877563 0.24841127 -0.084869996 -0.28706416
-0.10361345 0.12812446 0.05024222 -0.38881347 -0.0012610637 0.24742068 0.08719964 0.005777718
-0.40062526 -0.053855892 -0.019526256 0.17727026 0.037189346 -0.07820555 0.1878751 0.045918323
-0.071709104 -0.18236306 -0.4273898 -0.21432295 0.04044811 -0.29418367 -0.6580675 -0.5600185
-0.29421502 -0.51759934 -0.44217056 0.1599038 0.029381633 -0.07771435 -0.2198872 0.010042543
-0.24257837 0.01734508 -0.11646939 -0.16600326 0.033806264 0.01994272 0.1377786 -0.07253863
-0.10506868 -0.073097326 -0.041975666 0.16596283 -0.034827832 -0.0674504 0.0008368929 -0.017111197
0.10959705 -0.07631863 -0.31905225 0.13243867 -0.11106494 0.16706422 -0.15300688 0.23066108
-0.24484369 0.21308221 -0.053481493 0.044663627 -0.25163767 -0.028266922 -0.13972491 0.28776273
0.010872168 -0.031260815 0.0040204367 0.006045816 0.23921429 0.20235176 0.019908473 -0.021823948
-0.079635136 0.016942432 0.120673805 0.2847971 -0.24321887 -0.7738883 -0.053454965 0.1145545
0.036124498 -0.124471605 -0.027768863 -0.27497438 0.10906061 -0.4475713 -0.9740932 0.22633602
0.17515498 0.0517572 -0.5018187 -0.3203195 -0.15070094 0.13486156 -0.12600611 -0.5057206
-0.1712404 -0.34336177 0.06909646 0.08290022 0.08287068 -0.06126355 0.12479187 0.17133133
0.09649673 0.0716606 -0.055990536 0.12443824 -0.025043154 -0.044072736 -0.068920724 -0.1528536
-0.03894411 0.18819676 -0.004657497 0.16702181 0.18588892 0.12915854 0.14035745 0.057301473
-0.21187302 -0.047807004 -0.3707837 -0.43026227 -0.04536072 -0.26805434 0.15193735 -0.08879978
-0.17682838 -0.33993402 -0.07412623 -0.5494624 0.02823317 0.052327354 0.07350595 -0.30785087
-0.22442645 -0.027309496 -0.05814596 0.005226933 0.090789855 -0.07093431 0.14822845 -0.09562522
0.11891727 0.090780124 -0.04742629 0.004875524 0.060454566 -0.49867594 -0.16263656 -0.02965859
-0.017454142 -0.14972916 -0.2595397 -0.6478832 0.1346796 -0.103322074 0.08458785 0.26313582
0.06921596 -0.02497756 -0.1996091 -0.51758796 0.1372887 0.22120674 0.052208737 -0.095422804
0.05745884 -0.19312905 0.044435162 -0.19167355 0.026239509 0.11808499 0.055400822 0.03784615
-0.08556018 0.20690669 -0.15794973 -0.04584401 0.0013219567 0.011291372 0.1264798 -0.294648
-0.45700157 -0.19757576 -0.054278076 0.039990973 -0.103138 -0.34800828 0.11038677 -0.25394586
-0.1415225 0.035216186 -0.031244207 -0.4206086 -0.20930845 0.18522145 -0.114020124 0.06300407
0.07807669 -0.03653851 0.046897233 -0.054132804 0.26346976 -0.07245264 -0.15206328 0.36067694
00000000: 5774 a1bd 45cd 79be 21fe 6e3d fa67 67bb
00000010: da09 113d f693 b3be b447 a2bd 88b2 7bbd
00000020: c04c 3d3e 3346 bfbe 5aa8 d1be 0181 96be
00000030: 326c e2bd c2f1 9aba c44f 02be 155c 9cbd
00000040: 5356 64bc 54ab 393e f631 e6be 0389 31be
00000050: a53a 58bc fb41 20be 6d4b 60be 920f 81be
00000060: b344 373b 365b f0bd 8281 a1bc 6dab e6bd
00000070: 93c0 343d 2f62 2abe 8b5a 813c 84f4 523d
00000080: 9aa6 a3bd f38e 8c3d 45dd 793e b9e8 4f3e
00000090: 0678 223d 77b8 10be a965 a2be c820 073e
000000a0: df40 6f3d 1102 0e3e 0ea5 2cbd 198f 27be
000000b0: 0abf 7ebe 865f 7e3e 52d0 adbd 13fa 92be
000000c0: 4a33 d4bd 0f33 033e c9ca 4d3d 8f12 c7be
000000d0: 474a a5ba d95b 7d3e ba95 b23d 0353 bd3b
000000e0: c11e cdbe ff97 5cbd 87f5 9fbc 5686 353e
000000f0: db53 183d 3b2a a0bd 5562 403e da14 3c3d
00000100: 39dc 92bd 62bd 3abe d6d2 dabe 7a77 5bbe
00000110: ebac 253d 3e9f 96be 1d77 28bf 5f5d 0fbf
00000120: 5aa3 96be 6481 04bf 2e64 e2be d2bd 233e
00000130: c0b1 f03c b328 9fbd 1c2a 61be 7a89 243c
00000140: 7766 78be 4517 8e3c 8187 eebd c2fc 29be
00000150: 7078 0a3d ea5e a33c d515 0d3e 228f 94bd
00000160: 402e d7bd 0db4 95bd adee 2bbd 29f2 293e
00000170: a1a7 0ebd 6f23 8abd ef62 5b3a c82c 8cbc
00000180: 6b74 e03d f14c 9cbd d15a a3be 019e 073e
00000190: 0476 e3bd e212 2b3e d6ad 1cbe 6b32 6c3e
000001a0: 4eb8 7abe 3932 5a3e 690f 5bbd 35f1 363d
000001b0: a7d6 80be 0890 e7bc 0c14 0fbe a355 933e
000001c0: 2d21 323c 570b 00bd debd 833b fb1b c63b
000001d0: 97f4 743e 4d35 4f3e 1817 a33c 23c8 b2bc
000001e0: bf17 a3bd dbca 8a3c d423 f73d edd0 913e
000001f0: 5e0e 79be 8b1d 46bf 98f3 5abd 8d9b ea3d
00000200: 48f7 133d f8ea febd 877b e3bc 71c9 8cbe
00000210: 2b5b df3d 1128 e5be 2c5e 79bf a1c4 673e
00000220: d45b 333e 5cff 533d 3177 00bf eb00 a4be
00000230: 5951 1abe 2619 0a3e bf07 01be e876 01bf
00000240: a559 2fbe 1dcd afbe 7282 8d3d 97c7 a93d
00000250: 1ab8 a93d 7def 7abd e192 ff3d 7b71 2f3e
00000260: 14a0 c53d cbc2 923d 5556 65bd 7ad9 fe3d
00000270: 4d27 cdbc 9d85 34bd 4f26 8dbd a785 1cbe
00000280: dc83 1fbd a7b6 403e eb9d 98bb c407 2b3e
00000290: aa59 3e3e 2342 043e ddb9 0f3e f3b4 6a3d
000002a0: 3ef5 58be 47d1 43bd 5cd7 bdbe 564b dcbe
000002b0: 2acc 39bd 6b3e 89be 7795 1b3e a9dc b5bd
000002c0: 8012 35be d50b aebe 7ecf 97bd 91a9 0cbf
000002d0: 4049 e73c 3555 563d 4a8a 963d a19e 9dbe
000002e0: 0cd0 65be 2ab8 dfbc 752a 6ebd b146 ab3b
000002f0: 08f0 b93d 0246 91bd 33c9 173e 28d7 c3bd
00000300: e68a f33d eeea b93d 1242 42bd dcc2 9f3b
00000310: 359f 773d 7452 ffbe 338a 26be 92f6 f2bc
00000320: fdfb 8ebc 9a52 19be 63e2 84be acdb 25bf
00000330: 73e9 093e 869a d3bd 653c ad3d bdb9 863e
00000340: 19c1 8d3d bd9d ccbc 5466 4cbe a580 04bf
00000350: 6995 0c3e 0584 623e d4d8 553d 086d c3bd
00000360: f659 6b3d 9fc3 45be a501 363d 1246 44be
00000370: 3df4 d63c 8bd6 f13d f9eb 623d 9104 1b3d
00000380: 2d3a afbd 59df 533e 93bd 21be eec6 3bbd
00000390: 8245 ad3a 72ff 383c ec83 013e 1adc 96be
000003a0: 1cfc e9be 4d51 4abe b052 5ebd 93cd 233d
000003b0: 043a d3bd 242e b2be 7512 e23d 3105 82be
000003c0: 46eb 10be d93e 103d daf3 ffbc 035a d7be
000003d0: f454 56be b1aa 3d3e 6283 e9bd 4708 813d
000003e0: ace6 9f3d 68a9 15bd 5017 403d 5cba 5dbd
000003f0: 82e5 863e 0d62 94bd 7ab6 1bbe a6aa b83e

conv2.0.bias f4 [128]
-0.3334344 -0.050487053 -0.035722688 0.012746912 0.11616592 0.11521057 0.19027445 -0.014754821
0.04931991 -0.3114527 -0.07001415 -0.040837575 0.047370303 -0.1927658 0.09007252 0.0366844
-0.26765934 -0.08807652 -0.101716176 0.020854307 -0.06480408 -0.19361524 0.101692386 0.09398674
0.11207723 -0.0075149173 0.0375522 -0.018710194 -0.17806423 0.08599987 -0.23130481 0.12975907
-0.045973558 0.014777394 0.16386405 -0.0015427094 0.0070852446 -0.078123264 0.0539237 -0.124177694
0.066045456 0.16722824 -0.094334915 -0.28574097 -0.105626576 -0.044852756 -0.065157264 -0.16056703
-0.06911255 0.0043507745 0.032528 -0.26536712 -0.1980841 -0.06155061 -0.23300686 -0.024301864
0.12330636 -0.07685269 -0.0059353244 0.16150273 -0.19517864 -0.26607332 -0.20061386 0.032635737
0.012235214 0.037088346 -0.22162037 -0.026740372 -0.1772792 0.25331166 0.16778812 -0.26207033
0.101423316 -0.14074138 0.07621288 -0.0799731 -0.023841437 -0.14739777 -0.1600195 0.019186612
-0.18009539 -0.17745823 0.04238401 -0.03863402 0.27831095 -0.13582803 -0.34706596 -0.02285485
-0.100514084 -0.06653961 0.17183961 0.07078417 0.00029793978 -0.13202992 -0.051038124 0.017796267
0.0028400458 0.16785058 -0.2102734 -0.30037403 -0.073627956 -0.24400249 -0.2845262 0.26387548
-0.071243845 0.13954358 0.117934994 0.03515265 0.06093241 0.21536653 -0.0032779342 -0.25165424
-0.17255563 0.19446242 -0.13552739 -0.26870325 0.00012370512 -0.021221027 -0.049228348 0.16382445
-0.08230062 0.083773345 0.24794334 -0.24911655 -0.045571294 -0.15152013 0.12167535 -0.039465196
00000000: eab7 aabe 83cb 4ebd f451 12bd 6dd8 503c
00000010: 66e8 ed3d 85f3 eb3d 4ed7 423e 34be 71bc
00000020: ad03 4a3d ba76 9fbe 9463 8fbd 4d45 27bd
00000030: 5d07 423d 6664 45be f177 b83d 6242 163d
00000040: a50a 89be 7661 b4bd 9250 d0bd a7d6 aa3c
00000050: 00b8 84bd 1343 46be 1944 d03d 1f7c c03d
00000060: bf88 e53d b23f f6bb 56d0 193d 1f46 99bc
00000070: 7856 36be b320 b03d 2bdb 6cbe 90df 043e
00000080: c54e 3cbd e21c 723c facb 273e bd34 caba
00000090: 572b e83b 17ff 9fbd 19df 5c3d e050 febd
000000a0: d742 873d e13d 2b3e aa32 c1bd a44c 92be
000000b0: bf52 d8bd 86b7 37bd 2c71 85bd af6b 24be
000000c0: e18a 8dbd f190 8e3b 153c 053d 33de 87be
000000d0: 8fd6 4abe 7e1c 7cbd 5a99 6ebe b414 c7bc
000000e0: 0b88 fc3d f164 9dbd 1c7d c2bb f960 253e
000000f0: e9dc 47be c33a 88be b86d 4dbe 0dad 053d
00000100: 3576 483c f3e9 173d 73f0 62be a00e dbbc
00000110: ae88 35be 11b2 813e a6d0 2b3e 152e 86be
00000120: 07b7 cf3d 821e 10be 8015 9c3d f0c8 a3bd
00000130: 1e4f c3bc 71ef 16be 27dc 23be 3e2d 9d3c
00000140: ed6a 38be 9cb7 35be db9a 2d3d b53e 1ebd
00000150: c67e 8e3e 8116 0bbe a1b2 b1be 183a bbbc
00000160: 54da cdbd eb45 88bd b9f6 2f3e 4af7 903d
00000170: cd34 9c39 da32 07be 5a0d 51bd 7ac9 913c
00000180: 1020 3a3b 06e1 2b3e e951 57be a0ca 99be
00000190: 41ca 96bd cadb 79be 6bad 91be b01a 873e
000001a0: 4be8 91bd 83e4 0e3e e787 f13d 3afc 0f3d
000001b0: 4394 793d 0b89 5c3e 9cd2 56bb d3d8 80be
000001c0: 6cb2 30be 2821 473e b1c7 0abe 7993 89be
000001d0: d7b6 0139 b8d7 adbc aaa3 49bd 99c1 273e
000001e0: 3a8d a8bd 5c91 ab3d dce4 7d3e 6918 7fbe
000001f0: f7a8 3abd 1828 1bbe ed30 f93d 42a6 21bd

conv3.0.weight f4 [256, 128, 3]
-0.074983716 0.03947956 -0.87227327 0.29189333 0.14570844 -0.01175307 -0.10792462 0.020641087
-0.08505946 -0.049137585 -0.15344921 0.07510029 0.18462625 0.19960718 0.24237183 0.079768024
0.21624315 0.010052031 -0.07742949 0.08499467 -0.05703887 -0.0187235 0.03196753 0.08512485
0.14918251 0.10993252 0.19628021 -0.1273152 -0.31557485 -0.20286739 -0.12010233 0.04275629
0.08576716 0.25393867 0.30155882 0.16991979 -0.19096296 0.26348636 0.30228403 -0.13451035
-0.67212284 -0.2982462 0.06508178 0.065283135 0.16523369 -0.09031853 0.15091287 0.23113714
0.09315669 -0.47604296 -0.49805632 0.17550583 0.23400974 0.026086463 -0.09691789 -0.07677705
-0.08021885 -0.259437 0.19603291 0.2223197 -0.50801975 -0.30514634 -0.16689247 -0.117975205
-0.00060492987 -0.14347157 0.0721472 0.15810765 0.025517562 0.058705907 -0.016943727 0.016790528
0.17695381 0.07897759 -0.025386788 0.037942883 0.04530752 -0.00392715 0.020033645 0.21010596
0.11938508 -0.19735819 -0.16414529 -0.16270974 -0.15602277 -0.4465623 -0.76722217 -0.0061800466
-0.0033737503 0.05416104 -0.059017345 -0.042034727 -0.4030441 -0.24622752 0.13125427 0.05227304
-0.07258432 -0.16999298 0.09853631 0.2510073 0.33702314 0.19622512 -0.018749584 -0.005048156
-0.21149968 -0.12882474 -0.026422925 0.05315335 -0.2546601 0.12190205 0.022458069 -0.040880226
-0.043414343 0.048331264 0.08628851 0.10406532 0.338213 -0.0374022 0.21135722 0.013678638
0.4433409 0.42433813 0.22721371 -0.13539192 -0.34365407 -0.21105193 -0.15708351 0.08846718
-0.3846853 -0.024130592 0.0052728495 -0.22682582 0.09713294 0.20612986 0.10959033 -0.124563836
-0.53680396 -0.8201711 0.065653354 -0.0096593825 -0.035296187 -0.19121592 0.007241191 0.15503885
-0.46254 -0.5730711 -0.78700644 0.037166916 0.070171714 -0.013518637 -0.09182778 -0.1573086
-0.006927062 0.0987114 -0.08294033 -0.78512627 -0.058511026 -0.4156758 -0.3468678 -0.02492267
0.16972749 0.10630844 -0.06754454 -0.53168947 -0.54408956 0.067766085 0.09556844 -0.072208546
-0.10143021 -0.38584188 -0.25116253 0.0200983 -0.0013936003 0.120646864 -0.24703693 -0.14704815
-0.021795675 0.049371257 -0.06829197 -0.020262336 -0.104403965 -0.23705862 -0.21343423 -0.39844266
-0.5822712 -0.84343743 0.25578517 -0.108605765 0.11793289 -0.2485773 -0.04036046 -0.029665293
0.06987768 0.0002544878 0.080755964 -0.044580527 -0.020101113 -0.06023545 0.15166424 -0.40958837
-0.722102 -0.6329727 -0.34131497 -0.20257445 0.4796991 0.22388814 -0.0026330333 -0.043068223
-0.18779749 0.029361866 -0.12242286 -0.00042393015 -0.10420522 -0.083554074 -0.33672038 -0.11101058
-0.11260411 0.0030173298 0.15261534 -0.026129551 0.0990946 -0.0039878786 0.058895685 0.14400548
0.13777308 0.025515763 0.052776817 0.063016325 -0.2626092 -0.23418558 0.027912734 -0.28117144
-0.08537017 0.012840814 -0.037006754 -0.13844366 -0.21822247 0.114797324 0.29295415 0.44173336
0.21668062 0.30002213 0.09318051 -0.0038148072 0.010773585 0.0898285 -0.15542848 0.0231013
0.011865346 0.2791314 0.26266903 0.25183412 -0.06437423 -0.05504595 0.02457184 -0.014610368
00000000: 1091 99bd 52b5 213d 4d4d 5fbf 0b73 953e
00000010: 9834 153e f38f 40bc 9507 ddbd 7f17 a93c
00000020: a733 aebd 7e44 49bd ca21 1dbe 2ece 993d
00000030: aa0e 3d3e d365 4c3e 5230 783e 6b5d a33d
00000040: d86e 5d3e 46b1 243c 5a93 9ebd af11 ae3d
00000050: 97a1 69bd 0762 99bc 62f0 023d f055 ae3d
00000060: 4dc3 183e 4d24 e13d aefd 483e ea5e 02be
00000070: 0793 a1be 78bc 4fbe 36f8 f5bd 3821 2f3d
00000080: b1a6 af3d 4004 823e eb65 9a3e 74ff 2d3e
00000090: cb8b 43be afe7 863e f9c4 9a3e 15bd 09be
000000a0: 3e10 2cbf bab3 98be 9949 853d 2ab3 853d
000000b0: 0533 293e ecf8 b8bd e788 1a3e 37af 6c3e
000000c0: efc8 be3d e7bb f3be 3d01 ffbe cdb7 333e
000000d0: 40a0 6f3e 47b3 d53c e37c c6bd 493d 9dbd
000000e0: c849 a4bd edd4 84be dabc 483e c7a7 633e
000000f0: 950d 02bf 243c 9cbe dce5 2abe fc9c f1bd
00000100: 2894 1eba 36ea 12be e9c1 933d f9e6 213e
00000110: 350a d13c 9b75 703d 92cd 8abc 4a8c 893c
00000120: 6133 353e 01bf a13d f4f7 cfbc ff69 1b3d
00000130: 6194 393d 52af 80bb 991d a43c 0426 573e
00000140: 2a80 f43d 4418 4abe b415 28be 629d 26be
00000150: 6fc4 1fbe d0a3 e4be ac68 44bf fd81 cabb
00000160: 231a 5dbb f7d7 5d3d 2cbc 71bd 9b2c 2cbd
00000170: cc5b cebe 1123 7cbe 8567 063e 411c 563d
00000180: 17a7 94bd a412 2ebe 68cd c93d 0784 803e
00000190: 4c8e ac3e 3def 483e ba98 99bc 006b a5bb
000001a0: 5f93 58be a2ea 03be e474 d8bc 54b7 593d
000001b0: cf62 82be c8a7 f93d fcf9 b73c 0672 27bd
000001c0: 3dd3 31bd 01f7 453d 08b8 b03d 3320 d53d
000001d0: 412a ad3e 0d33 19bd 076e 583e 5e1c 603c
000001e0: 94fd e23e d942 d93e b6aa 683e 2ea4 0abe
000001f0: 6df3 afbe ff1d 58be 80da 20be 482e b53d
00000200: 79f5 c4be 85ad c5bc dec7 ac3b 0745 68be
00000210: a3ed c63d b513 533e e570 e03d 531b ffbd
00000220: fc6b 09bf bcf6 51bf 4475 863d 6342 1ebc
00000230: bc92 10bd 1bce 43be 8347 ed3b 81c2 1e3e
00000240: 0bd2 ecbe cab4 12bf 4179 49bf 563c 183d
00000250: 30b6 8f3d 467d 5dbc 3410 bcbd 8115 21be
00000260: 68fc e2bb 3429 ca3d 9fdc a9bd 09fe 48bf
00000270: 42a9 6fbd 75d3 d4be a898 b1be a12a ccbc
00000280: 0bcd 2d3e 3db8 d93d cb54 8abd cd1c 08bf
00000290: 7449 0bbf f2c8 8a3d 63b9 c33d 13e2 93bd
000002a0: a4ba cfbd 118d c5be 6098 80be 31a5 a43c
000002b0: 77a9 b6ba b415 f73d 40f7 7cbe ca93 16be
000002c0: d88c b2bc 8439 4a3d a9dc 8bbd 33fd a5bc
000002d0: bfd1 d5bd 7fbf 72be 818e 5abe ad00 ccbe
000002e0: ba0f 15bf 84eb 57bf 46f6 823e b36c debd
000002f0: cd86 f13d 0c8b 7ebe 0251 25bd a104 f3bc
00000300: 071c 8f3d c66c 8539 6263 a53d 129a 36bd
00000310: 17ab a4bc 72b9 76bd df4d 1b3e 91b5 d1be
00000320: addb 38bf 800a 22bf d6c0 aebe ad6f 4fbe
00000330: 1f9b f53e ef42 653e f88e 2cbb 4e68 30bd
00000340: fc4d 40be 4c88 f03c d6b8 fabd f142 deb9
00000350: 8c69 d5bd 661e abbd 9d66 acbe 8459 e3bd
00000360: fc9c e6bd 65be 453b 3247 1c3e a40d d6bc
00000370: 1cf2 ca3d c0ac 82bb 9a3c 713d 2c76 133e
00000380: 6314 0d3e 6f06 d13c 812c 583d b40e 813d
00000390: b774 86be 58ce 6fbe 3fa9 e43c b4f5 8fbe
000003a0: 8ed6 aebd 4762 523c 6594 17bd 2dc4 0dbe
000003b0: b675 5fbe dc1a eb3d 16fe 953e e02a e23e
000003c0: 86e1 5d3e 809c 993e 6cd5 be3d d801 7abb
000003d0: b183 303c 01f8 b73d a528 1fbe f03e bd3c
000003e0: de66 423c 50ea 8e3e 8e7c 863e 67f0 803e
000003f0: a3d6 83bd dd77 61bd e24a c93c 5360 6fbc

conv3.0.bias f4 [256]
0.063850224 -0.084509894 -0.03436796 -0.17555882 0.03302152 -0.1297953 0.00019039991 -0.07408915
-0.08996708 0.08453667 -0.09405421 0.14070728 0.079244725 0.2503843 0.043721706 -0.050115578
0.1067624 -0.12721124 0.14195879 0.0040696203 -0.009288068 -0.010566469 -0.06565812 0.14321922
0.00038027708 0.03065066 -0.015386065 -0.030961985 0.23936361 0.09031178 -0.21523911 0.012348223
0.19433793 0.17252876 0.074872196 0.028072024 -0.08953712 0.14505701 -0.20475924 -0.0054249093
0.031126242 0.14363603 0.20462146 0.001638392 0.1818966 0.038776867 0.13329017 0.09199793
0.025096614 0.093547665 -0.06387088 -0.0127266655 -0.11072777 0.042638045 0.039901137 -0.029487178
-0.16959213 0.06086946 0.05969728 0.16742378 -0.05029682 -0.10567597 0.15064424 0.29705682
0.16518681 -0.026382824 0.22159286 0.10934691 -0.10236421 0.09163371 -0.09504386 0.08682715
-0.18389857 0.17865813 0.01578178 0.2142994 0.008119622 0.048208877 -0.09537754 0.11835661
-0.09170518 -0.08806616 0.06395438 -0.0148205655 0.14854237 -0.023303427 0.11238185 0.029089145
-0.004034242 0.05741459 0.09057404 0.023209346 0.03637687 -0.0024655662 -0.060906313 -0.16557668
0.0049386313 -0.2154183 -0.021958081 0.0029040778 -0.08727862 0.09442889 -0.1957391 -0.1009006
-0.12507021 0.15195781 -0.016577533 -0.017546332 0.015013187 -0.12759206 0.04305549 -0.05023776
-0.1682943 -0.36139697 -0.020418892 -0.07341523 0.06144909 0.11653516 -0.12651622 0.15787457
0.07455425 -0.007198065 0.11882752 -0.056483492 0.04086934 0.28130054 -0.0006731472 0.09354424
-0.04487236 -0.12528557 0.10366993 0.09435818 0.06839133 -0.06343943 -0.02297924 0.11252312
-0.13857992 -0.116142884 0.120546706 0.030662231 -0.1412347 -0.08795024 0.12615857 -0.048721034
-0.1729187 -0.15518929 -0.1769173 0.14740188 0.096834406 -0.009769193 -0.11875405 -0.076581575
-0.20016849 0.23958802 0.19886577 0.14366633 0.037321705 -0.1628212 0.091569036 0.12654957
-0.16065773 0.15274416 0.032820445 0.15409939 0.1918663 0.11007978 -0.031708002 -0.18122144
0.10768897 0.011649304 0.1649891 0.03315525 0.067484684 -0.05794701 -0.09621312 0.20947447
-0.009662311 -0.1949837 0.17408596 0.13082911 0.21573114 -0.027518986 -0.18079613 -0.042423267
-0.032636993 -0.073372394 -0.26184407 -0.010008774 0.11972368 0.1106986 0.07572281 0.19730125
0.17710282 0.108691856 0.20666842 0.10460991 0.05179922 0.21507105 0.12182697 0.20428877
0.08839938 0.011246114 0.10000606 0.04402737 0.13651632 0.021820048 -0.038883302 0.21246059
-0.060399063 -0.02692953 -0.048102785 0.15509006 -0.07171905 -0.25031576 -0.08197731 0.07979587
-0.14966448 0.08574021 -0.0571305 -0.057122827 0.23103006 -0.12034663 -0.11746056 0.035676632
0.16426413 -0.26392213 -0.11206349 -0.20263681 -0.20737605 -0.17816631 0.011470788 0.12089283
0.12052552 -0.1712858 0.09080346 -0.12544519 0.14077367 0.1403706 0.06315484 -0.010659895
-0.055040874 -0.18313313 0.050245173 -0.025366504 -0.17765075 0.043865103 0.13489461 0.31972405
-0.029080316 -0.16562054 0.16778168 0.030388823 0.0016668724 0.0042606066 0.1585831 0.106092945
00000000: e8c3 823d 8613 adbd 6bc5 0cbd b1c5 33be
00000010: 9341 073d 0fe9 04be 16a6 4739 0dbc 97bd
00000020: a940 b8bd 9021 ad3d 7e9f c0bd 9215 103e
00000030: 0f4b a23d 5f32 803e 8815 333d fe45 4dbd
00000040: 3fa6 da3d aa43 02be a55d 113e 735a 853b
00000050: fb2c 18bc fc1e 2dbc c477 86bd 0fa8 123e
00000060: ed5f c739 1817 fb3c d515 7cbc fda3 fdbc
00000070: bc1b 753e 62f5 b83d a467 5cbe 3350 4a3c
00000080: 8600 473e 61ab 303e 9856 993d 4df7 e53c
00000090: 3d5f b7bd d389 143e 68ac 51be 70c3 b1bb
000000a0: 76fc fe3c 5315 133e 4a88 513e 50bf d63a
000000b0: 1a43 3a3e 7ed4 1e3d 387d 083e 6969 bc3d
000000c0: 6a97 cd3c eb95 bf3d bcce 82bd 8183 50bc
000000d0: 3ec5 e2bd 3ba5 2e3d 606f 233d 188f f1bc
000000e0: 8fa9 2dbe 4152 793d 2385 743d 2471 2b3e
000000f0: 0a04 4ebd a56c d8bd 7c42 1a3e d517 983e
00000100: bb26 293e cb20 d8bc 3de9 623e 46f1 df3d
00000110: 54a4 d1bd 74aa bb3d 5ba6 c2bd 6fd2 b13d
00000120: e84f 3cbe 28f2 363e cb48 813c 4d71 5b3e
00000130: 2a08 053c ac76 453d 4d55 c3bd f364 f23d
00000140: edcf bbbd 085c b4bd 84fa 823d f5d1 72bc
00000150: 7e1b 183e d4e6 bebc 7528 e63d 5c4c ee3c
00000160: ad31 84bb 902b 6b3d e27e b93d 8721 be3c
00000170: eaff 143d 5695 21bb e678 79bd ef8c 29be
00000180: 3ed4 a13b 9d96 5cbe 6fe1 b3bc 5752 3e3b
00000190: 22bf b2bd ef63 c13d d56f 48be f9a4 cebd
000001a0: 6812 00be d49a 1b3e 9bcd 87bc 53bd 8fbc
000001b0: dff9 753c 7ea7 02be f45a 303d 1cc6 4dbd
000001c0: 5755 2cbe 0609 b9be 8545 a7bc b95a 96bd
000001d0: 0ab2 7b3d fca9 ee3d 788d 01be dfa9 213e
000001e0: e6af 983d bfdd ebbb d85b f33d 3c5b 67bd
000001f0: 9c66 273d a006 903e 2576 30ba 1f94 bf3d
00000200: 14cc 37bd dc4a 00be e650 d43d dd3e c13d
00000210: c110 8c3d 88ec 81bd f63e bcbc 8672 e63d
00000220: e5e7 0dbe 52dc edbd 31e1 f63d 5c2f fb3c
00000230: d49f 10be 411f b4bd b62f 013e b58f 47bd
00000240: 9a11 31be f1e9 1ebe cf29 35be 85f0 163e
00000250: 1e51 c63d f70e 20bc 5335 f3bd cdd6 9cbd
00000260: f8f8 4cbe 9056 753e 78a3 4b3e 441d 133e
00000270: a5de 183d 9aba 26be 8c88 bb3d 3696 013e
00000280: 7683 24be f768 1c3e bb6e 063d 3bcc 1d3e
00000290: 9978 443e 8271 e13d 40e0 01bd 1d92 39be
000002a0: 098c dc3d b9dc 3e3c e7f2 283e cdcd 073d
000002b0: 6935 8a3d d859 6dbd 620b c5bd 7a80 563e
000002c0: ab4e 1ebc cfa9 47be 9743 323e 11f8 053e
000002d0: a0e8 5c3e 7f6f e1bc 9f22 39be 05c4 2dbd
000002e0: 5eae 05bd 4444 96bd 6d10 86be d7fb 23bc
000002f0: b031 f53d f3b5 e23d 9014 9b3d 5709 4a3e
00000300: 715a 353e d699 de3d e3a0 533e b83d d63d
00000310: 6b2b 543d 963b 5c3e 6b80 f93d 1331 513e
00000320: bc0a b53d 9f41 383c facf cc3d 0b56 343d
00000330: efca 0b3e f5bf b23c 1944 1fbd 458f 593e
00000340: 0265 77bd 519b dcbc 6d07 45bd eecf 1e3e
00000350: 70e1 92bd 6329 80be b8e3 a7bd 046c a33d
00000360: a541 19be 9098 af3d ac01 6abd a0f9 69bd
00000370: 2593 6c3e 4b78 f6bd 298f f0bd a921 123d
00000380: db34 283e cd20 87be 8b81 e5bd 0680 4fbe
00000390: 635a 54be 3b71 36be f9ef 3b3c a996 f73d
000003a0: 15d6 f63d 8b65 2fbe 2af7 b93d b474 00be
000003b0: f926 103e 50bd 0f3e 5357 813d d7a6 2ebc
000003c0: 8a72 61bd 4087 3bbe e2cd 4d3d 6acd cfbc
000003d0: 14ea 35be e5ab 333d d021 0a3e dfb2 a33e
000003e0: d839 eebc 6e98 29be f6ce 2b3e fbf1 f83c
000003f0: f57a da3a 8f9c 8b3b 9c63 223e 4247 d93d

fc1.0.weight f4 [64, 256]
-0.051260278 0.40962112 0.023641365 0.023482535 -0.34156325 0.085663825 -0.04726708 0.059080414
-0.012561165 0.08517612 -0.08583372 -0.10607482 0.18270606 -0.032831516 -0.14593117 0.22263172
0.18958113 0.03634237 -0.030578928 -0.09774285 -0.42580205 0.10761689 0.24910708 0.18489988
0.29808092 -0.14124846 0.1099681 0.012816455 0.010503403 0.0366667 0.014018506 -0.058822025
-0.2855791 0.28833386 -0.038131386 -0.10999065 0.105968036 -0.085451856 -0.053050056 -0.46178094
0.11125899 -0.2772839 0.3290659 0.2149693 -0.1739735 -0.18047057 0.17352581 -0.04125289
0.08092727 -0.21276553 0.08421129 0.067779474 0.3888309 -0.018736154 -0.44878426 0.17659865
0.08712562 0.21085325 -0.22011797 0.1283517 0.18174613 0.082037255 0.027551856 0.0952221
-0.057136726 0.056062765 -0.21071732 -0.105969176 0.09513801 -0.18506834 0.10311288 -0.11599431
-0.08557701 -0.12429372 -0.13073726 0.012149789 0.26331133 0.034672208 0.008790796 -0.6435328
0.35729763 0.047787238 -0.30885106 -0.097113706 0.018664835 0.7828378 0.094329454 0.048414204
0.19134837 -0.2550353 -0.15719168 -0.29751453 0.015984952 -0.15464783 0.050471377 -0.08952581
0.1745273 0.2193315 0.052908123 0.048238155 0.16782054 -0.5389603 0.0059337346 0.44425824
0.008691052 0.17774257 -0.5509541 0.17266345 0.13095869 0.50653195 -0.08633415 -0.120250784
0.18727776 -0.15129498 0.08205222 -0.093483984 -0.13162757 -0.019585796 0.16933423 -0.012358536
-0.1649416 0.14458275 -0.45102268 0.09950177 0.10786247 -0.010636774 -0.12785585 -0.15890384
0.37433112 0.073683396 0.046913724 -0.100736424 0.15632597 0.16283546 -0.09840183 0.029682398
0.14222674 0.22126314 -0.3533182 -0.025672752 0.08893998 0.029798012 -0.10639821 0.124544
-0.0205385 -0.020439621 0.32449886 -0.21195303 -0.02975173 0.036295056 0.23781057 0.074821725
0.007990708 0.026958933 -0.0008283389 0.1594915 -0.43522558 0.23778403 0.008900817 0.028783292
0.09904727 -0.27197498 0.08154548 -0.1515977 -0.06734911 0.09415284 -0.13200885 -0.04888501
-0.16072515 -0.00056991196 0.19726981 0.109301396 -0.03968476 0.42803407 0.11071111 -0.090379365
0.06553263 -0.014842601 0.043524794 -0.26607847 0.08998302 0.16586092 -0.024915775 0.19159298
0.2635976 -0.028193574 -0.12010651 0.05943025 0.07990793 0.023725143 -0.251061 -0.13903216
0.043351643 -0.25590968 0.13875738 0.25629082 0.10400268 0.020397456 -0.22549462 -0.16322465
-0.1318123 -0.28197375 -0.258815 -0.14568913 0.015605669 -0.03241795 -0.08613255 -0.005526058
0.19241942 0.70784616 -0.15497969 -0.24338773 0.10345356 -0.112304434 -0.029542247 -0.047096513
0.11996393 0.18250789 0.11466319 0.044941522 -0.40789697 -0.023798272 0.054927934 -0.09895074
-0.23067985 -0.12743725 -0.12160691 0.15846066 -0.046302572 0.13725075 0.23664889 0.07886952
-0.06821545 0.2560782 -0.18015765 0.05191267 -0.19874856 -0.10823107 -0.23749201 -0.09473815
0.2101808 -0.034919333 -0.066598736 -0.04317376 0.37150574 -0.32568142 -0.040835887 -0.38298693
0.32498637 0.06192703 -0.27314368 0.02084629 -0.23304144 -0.09791322 -0.1981063 -0.05513226
00000000: 4cf6 51bd dcb9 d13e 89ab c13c 725e c03c
00000010: 61e1 aebe 8470 af3d 209b 41bd 4efe 713d
00000020: 58cd 4dbc d170 ae3d 97c9 afbd c13d d9bd
00000030: 4c17 3b3e 577a 06bd fb6e 15be 92f9 633e
00000040: 8e21 423e bddb 143d a980 fabc 672d c8bd
00000050: ba02 dabe 3e66 dc3d ed15 7f3e 6556 3d3e
00000060: 109e 983e 70a3 10be f536 e13d 1cfc 513c
00000070: 7716 2c3c d22f 163d e0ad 653c 5def 70bd
00000080: 6c37 92be 7fa0 933e a82f 1cbd c742 e1bd
00000090: c505 d93d 6201 afbd 044b 59bd 8d6e ecbe
000000a0: c1db e33d 28f8 8dbe 537b a83e ea20 5c3e
000000b0: 1c26 32be 47cd 38be c0b0 313e caf8 28bd
000000c0: 32bd a53d 35df 59be f876 ac3d f7cf 8a3d
000000d0: d814 c73e 907c 99bc 0dc7 e5be 47d6 343e
000000e0: eb6e b23d eae9 573e 9b66 61be a16e 033e
000000f0: a81b 3a3e 2603 a83d 6eb4 e13c ce03 c33d
00000100: 3308 6abd 12a2 653d 48c6 57be 5e06 d9bd
00000110: b8d7 c23d 8e82 3dbe d82c d33d 6d8e edbd
00000120: 0043 afbd b58d febd fddf 05be e90f 473c
00000130: bed0 863e 7204 0e3d 4507 103c 91be 24bf
00000140: b7ef b63e 8dbc 433d ba21 9ebe 8de3 c6bd
00000150: ffe6 983c 0f68 483f cd2f c13d f94d 463d
00000160: d4f0 433e fd93 82be dbf6 20be d353 98be
00000170: e0f2 823c 005c 1ebe 13bb 4e3d 4f59 b7bd
00000180: 49b7 323e 7098 603e 30b6 583d 5f95 453d
00000190: 26d9 2b3e 4df9 09bf c66f c23b d175 e33e
000001a0: ea64 0e3c 2602 363e 540b 0dbf b0ce 303e
000001b0: 091a 063e 14ac 013f f5cf b0bd 0b46 f6bd
000001c0: bec5 3f3e 12ed 1abe ff0a a83d 8874 bfbd
000001d0: 61c9 06be 6472 a0bc f465 2d3e 757b 4abc
000001e0: 73e6 28be 800d 143e 72ec e6be 96c7 cb3d
000001f0: 00e7 dc3d dd45 2ebc a5ec 02be b0b7 22be
00000200: 54a8 bf3e 52e7 963d 9b28 403d e64e cebd
00000210: ea13 203e 57be 263e e686 c9bd 8028 f33c
00000220: e3a3 113e ce92 623e 20e6 b4be aa4f d2bc
00000230: 2a26 b63d f61a f43c 4ee7 d9bd ed10 ff3d
00000240: 5b40 a8bc fe70 a7bc b724 a63e 370a 59be
00000250: e6b9 f3bc 20aa 143d 9d84 733e 223c 993d
00000260: 75eb 023c fbd8 dc3c e224 59ba bd51 233e
00000270: e3d5 debe a87d 733e bbd4 113c f0ca eb3c
00000280: 4cd9 ca3d 4e40 8bbe 5101 a73d 6d3c 1bbe
00000290: 55ee 89bd 34d3 c03d 542d 07be a63b 48bd
000002a0: 2295 24be 2566 15ba 1901 4a3e 69d9 df3d
000002b0: 7d8c 22bd 4827 db3e 82bc e23d d118 b9bd
000002c0: f935 863d 612e 73bc 0e47 323d 703b 88be
000002d0: 0549 b83d 72d7 293e 2b1c ccbc f330 443e
000002e0: 44f6 863e 36f6 e6bc 67fa f5bd 226d 733d
000002f0: c5a6 a33d 3b5b c23c 118b 80be 725e 0ebe
00000300: 7e91 313d 9806 83be 6a16 0e3e 8d38 833e
00000310: 5bff d43d 9118 a73c 10e8 66be 5d24 27be
00000320: cef9 06be dd5e 90be 6683 84be 882f 15be
00000330: ebae 7f3c afc8 04bd 4366 b0bd ef13 b5bb
00000340: 9909 453e 6835 353f ffb2 1ebe a23a 79be
00000350: 76df d33d deff e5bd 9502 f2bc 46e8 40bd
00000360: a6af f53d 59e3 3a3e 89d4 ea3d 9a14 383d
00000370: dfd7 d0be 98f4 c2bc 1dfc 603d b0a6 cabd
00000380: 5737 6cbe e97e 02be 0b0d f9bd 8343 223e
00000390: c4a7 3dbd 768b 0c3e 1654 723e 5886 a13d
000003a0: 8bb4 8bbd af1c 833e 3f7b 38be 61a2 543d
000003b0: be84 4bbe 40a8 ddbd 1b31 73be 1306 c2bd
000003c0: a339 573e 9307 0fbd eb64 88bd f8d6 30bd
000003d0: 0036 be3e b7bf a6be 8843 27bd dd16 c4be
000003e0: 9d64 a63e 33a7 7d3d 7dd9 8bbe d7c5 aa3c
000003f0: 6aa2 6ebe ba86 c8bd 61dc 4abe 5dd2 61bd

fc1.0.bias f4 [64]
0.09470359 -0.1293586 -0.032880004 -0.08142728 -0.010549541 -0.06004453 -0.025930636 0.091937795
0.028082605 0.047008485 0.17388523 0.042322747 0.041947026 0.11474475 0.03746505 -0.005097565
0.09652524 0.14531156 -0.067580864 -0.26349023 0.0021313769 0.050982013 -0.035885464 -0.0064042187
0.055392243 -0.07114137 -0.11248057 -0.043685798 0.20299053 0.0068122507 0.034022916 0.26954862
0.026486393 -0.07448787 -0.016031113 -0.06764041 0.11127049 0.16343686 0.09562252 -0.0059048515
0.059020862 0.08148316 0.008398925 -0.03339268 0.23951112 0.123825565 -0.023105795 -0.06690835
0.12367509 -0.06528167 -0.06495392 0.12217172 -0.0813228 -0.27802432 0.017293923 -0.038859617
0.05089912 -0.024285104 -0.074171625 -0.15239626 0.1616588 -0.02180216 -0.3091663 0.0017889404
00000000: f5f3 c13d 9576 04be 2fad 06bd 59c3 a6bd
00000010: fbd7 2cbc 41f1 75bd 7c6c d4bc e249 bc3d
00000020: 7e0d e63c f88b 403d f80e 323e 9e5a 2d3d
00000030: a5d0 2b3d 4cff ea3d f474 193d 7909 a7bb
00000040: 06af c53d 8ecc 143e d667 8abd 31e8 86be
00000050: 92ae 0b3b 84d2 503d a3fc 12bd 7bda d1bb
00000060: fae2 623d 91b2 91bd 375c e6bd e1ef 32bd
00000070: c0dc 4f3e 4d39 df3b 9d5b 0b3d 4702 8a3e
00000080: fef9 d83c 198d 98bd ae53 83bc 0e87 8abd
00000090: c8e1 e33d fe5b 273e bdd5 c33d 7c7d c1bb
000000a0: dcbf 713d a5e0 a63d a59b 093c c3c6 08bd
000000b0: 6742 753e 4298 fd3d 5d48 bdbc 3f07 89bd
000000c0: 5e49 fd3d 65b2 85bd 9006 85bd 2b35 fa3d
000000d0: 918c a6bd 3459 8ebe fcab 8d3c 432b 1fbd
000000e0: 987b 503d 8ef1 c6bc 4be7 97bd c40d 1cbe
000000f0: e289 253e 729a b2bc 0c4b 9ebe e17a ea3a
