ckpt/ckpt5/radar_model.pth (torch, 267250 bytes, 12 tensors)

input.0.weight f4 [32, 18, 3]
00000000: acbe 57be 6bb5 86bd 68c1 91be 8386 73bd
00000010: a9f0 053e 8eb4 6abd a795 06be 952b c53d
00000020: a21b c63d b9de 82bc 9e53 d1bd 6f7f aabd
00000030: d12e d6bd b203 26bd 765f 0cbd cd82 d9bd
00000040: 2910 54bd 19ef 19bd 5857 d8bd 94be 7fbd
00000050: 495e c1bd 7b52 e1bc c05d 1e3d be73 07bd
00000060: 73dd 20be 63a2 123c 3a8d c0bc 9104 96bd
00000070: 6c38 823d 914e 38bd 8151 64be 714f 93be
00000080: 8e30 68be 7be0 0dbe 0c27 49be f8e8 11bd
00000090: 98fe fbbd a16f bbbd dd08 86be d641 0bbe
000000a0: e4c8 51be 966b 8dbe f600 6cbe cf8e 1bbe
000000b0: 45d3 30be c63e b5bd b80d 82bb 3791 ccbd
000000c0: 9856 79be d701 cebd 70f5 85be 007a cfbd
000000d0: 7ca5 25bd b0de 12be 8983 07bf 2609 c4bd
000000e0: 4795 27bf 1e67 b8bf eab1 4f3f ebc1 5e3f
000000f0: f4f6 ae3d 1c9b 803d 9abe d7bd 2976 aa3e
00000100: 8258 ae3f 43fb 86bf 9ab8 d0bf 2065 bcbf
00000110: 0743 a6bf 10db 44bf 3ef4 703f e9e6 a2be
00000120: 3080 74be 103f 4a3f e370 eebe 298b b43d
00000130: c046 e1bd d7e2 153f 8d85 4bc0 e152 5940
00000140: a763 1bc0 c88e 833f e9ab 4540 6046 65bf
00000150: bdbe 78be ee4b c2bd 926e 9e3d 4c00 4abf
00000160: 2f4c b23e f169 af3e cdae 08c0 6421 f43e
00000170: 618a a73e 2895 16c0 c379 033f c42b 523e
00000180: bbcd d4bd 8c5e 9d3f 4887 2dbf 1b53 7a3e
00000190: f0c4 1dbf 8d92 733f 3bec 0bc0 a60c 733f
000001a0: 48e1 123e aece a6bf 74b1 293f eea0 1c3e
000001b0: aadc 723f 834f c3be f25c a0be 5ae5 cebc
000001c0: e045 0e3e 8351 e13c 535a f63d 8604 d53d
000001d0: 40d0 c9bd 2f00 29c0 b026 d33e 462a d13f
000001e0: 7e8c 3cbf 1a04 9b3e 0299 1cbe adeb 6dbf
000001f0: 12f8 b13e fa28 4f3d ae49 113f 7cfe e8bb
00000200: 37d3 993e 84b2 05be 176c d33f a6e4 1abf
00000210: b91d 9cbf 483c f1bd 30f1 32bf 6c33 363f
00000220: fe09 933e 5355 36bf 11b2 1cbf c8bb 243f
00000230: 5a23 8d3f 3200 243e e855 bd3e 049f adbe
00000240: 7754 1dbe 76e9 72bb 56df 633d fee0 1abf
00000250: 6979 c6bd cde0 89bc c39e b63e 196c d1be
00000260: 5172 99bf 4084 c13e 9dd9 eb3e 7fc4 1cbf
00000270: 614f e4bc c099 813e 48c8 d23d ebff d83d
00000280: 6a30 b53e 05fd f83e 0daa d33e 9acd e7bd
00000290: 3416 833d 3a73 623f 237b 82be 4e3c 80be
000002a0: 17ea ddbd 3f23 cb3c 4c66 a03d f048 14bf
000002b0: 6e7c 0bbf 9fca 533f 0c0c 8b3e 34f2 bc3e
000002c0: 5c18 a13e d3c8 fb3d 385c 8c3f 65ad e33e
000002d0: 03e2 a03f f4bc d13f 563e b73f c541 a2bf
000002e0: a0ab 0abf 39f9 433f 7586 2d40 934a 43bf
000002f0: 9407 333d 16a4 3f3f 4995 ff3f 05d2 0bbf
00000300: 9fd9 9cbf 925b 20bf 6de6 38bf cc56 9bbd
00000310: 476d dd3e a47a b23e 0676 bfbe 7b4d 1bbf
00000320: 5cbd 0ebf 51c9 183d 6c2e eabe 1538 b3be
00000330: 3b01 1cbf 0ee6 60be 5aaa f9be 001a 06c0
00000340: 6838 fcbf de08 febf 9065 7abe 829d f4be
00000350: e189 7dbe 8d0a 943b 1fc7 05bf ffa9 e6bd
00000360: c863 bcbd 6736 22be 3013 11c0 5955 813d
00000370: b2c4 b1bd 5072 15be 336e fdbd 2230 bc3d
00000380: 7823 7bbd c503 74be 6559 7e3f 41f2 9c3f
00000390: 5e80 5c3d cf01 cb3e 7086 46bd ae91 1d3f
000003a0: 9856 e63e 0262 433e 986f bfbe 17ca 32bf
000003b0: 164f 453f 787c db3e 4b55 163f 898f 0b3f
000003c0: 2d3b 783f 4632 003f 38ed f93f e3f4 2cbe
000003d0: 23c3 48be b97c 4dbd 95ea 163f b191 303f
000003e0: cc47 863f de43 863f bddd b0bc 4247 633e
000003f0: be7a 993e 8110 7d3e 05d1 173f 5537 483f
-0.2106883 -0.065775715 -0.2846787 -0.059454452 0.13080086 -0.057301097 -0.13143025 0.09627453
0.09673239 -0.015975343 -0.10221027 -0.08325087 -0.10458148 -0.040530868 -0.034270726 -0.106206514
-0.051773224 -0.037581537 -0.105635345 -0.06243761 -0.094418116 -0.02750515 0.038663626 -0.033069365
-0.15709476 0.008949849 -0.023504842 -0.0732509 0.06358418 -0.0449968 -0.22296716 -0.28771546
-0.22674772 -0.13855164 -0.19643801 -0.035622567 -0.12304419 -0.09152151 -0.26178637 -0.13599333
-0.2048679 -0.27621144 -0.23047242 -0.15191196 -0.17268093 -0.08849864 -0.0039689206 -0.09988635
-0.24349439 -0.10058945 -0.26163816 -0.101306915 -0.04044102 -0.14342761 -0.5293508 -0.095720574
-0.65462154 -1.4406469 0.8113085 0.87014645 0.08543196 0.06279585 -0.10534401 0.33293274
1.362076 -1.0545429 -1.6306336 -1.4718361 -1.2989205 -0.7689676 0.94122684 -0.31816795
-0.23877025 0.79002476 -0.465705 0.08815605 -0.109998226 0.58549255 -3.1800263 3.3956835
-2.4279573 1.0277948 3.0886176 -0.8956051 -0.24291511 -0.09487139 0.07735933 -0.78906703
0.34823748 0.34260514 -2.135669 0.47681725 0.32722762 -2.3528538 0.5135767 0.20524508
-0.103908025 1.2294478 -0.6778455 0.24445765 -0.6162863 0.95145494 -2.1862934 0.94941175
0.1434375 -1.3031824 0.66286397 0.15295765 0.94867957 -0.381466 -0.31320912 -0.025255848
0.13893843 0.027504688 0.12028947 0.104012534 -0.09854174 -2.6406362 0.41240454 1.6341026
-0.73651874 0.30276567 -0.15292743 -0.9293774 0.34759575 0.050576188 0.5675305 -0.007110415
0.30043957 -0.1305638 1.6517361 -0.6050514 -1.2196571 -0.11779076 -0.6989927 0.71172214
0.2871856 -0.71223944 -0.6120921 0.6434903 1.1026413 0.160157 0.36979604 -0.33910382
-0.15364252 -0.0037065423 0.05563291 -0.6049956 -0.09691126 -0.016830826 0.35668 -0.40902784
-1.1988012 0.3779621 0.46064463 -0.6123733 -0.027869882 0.25312614 0.10292107 0.105956875
0.353885 0.4863054 0.41340676 -0.11318512 0.06400719 0.8845707 -0.2548457 -0.2504601
-0.10835665 0.02479708 0.078320116 -0.57923794 -0.5448674 0.8273105 0.2715763 0.36903536
0.31463897 0.122941636 1.0965643 0.44468227 1.2568973 1.6385789 1.4315898 -1.2676321
-0.5416813 0.7655216 2.7113316 -0.76285666 0.0437084 0.7485975 1.9967433 -0.5461734
-1.2253913 -0.62639725 -0.722266 -0.075849146 0.43247434 0.34859192 -0.37394732 -0.606651
-0.5575769 0.037301365 -0.45738542 -0.35003725 -0.6093938 -0.21962759 -0.4876278 -2.095337
-1.9704714 -1.9846456 -0.24452806 -0.4777642 -0.24759628 0.0045178593 -0.5225696 -0.11262893
-0.09198719 -0.15841065 -2.266796 0.06315107 -0.08680095 -0.14594388 -0.123745345 0.09188868
-0.061313123 -0.23829563 0.99355155 1.226143 0.053833358 0.39649817 -0.048468053 0.61550415
0.4498794 0.19080356 -0.37389827 -0.69839615 0.770738 0.428684 0.58723897 0.5451589
0.96965295 0.5007671 1.9525518 -0.16890292 -0.19605689 -0.050167773 0.58951694 0.6897231
1.0490661 1.0489461 -0.021590108 0.22195151 0.29976457 0.24713327 0.59303313 0.7820943

input.0.bias f4 [32]
00000000: 5115 57be 53b5 dbbe 32b3 3fbf 0af4 aabf
00000010: 9585 7c3f 4e78 89be f711 24be e1c0 23be
00000020: 2fa0 c5bd 181c 34bf 0c81 35bf 91a8 8c3d
00000030: 69ff 08bf 939c 84bf c12e 8bbe 4a4b 02be
00000040: 9b1f c6be fcfe 7abe c354 21be 74a1 f13e
00000050: c224 a6bd 4f55 dabe 5c28 5640 0ca6 82be
00000060: 4ce8 2740 7888 92bd 73d3 efbf 7f9e 0ebf
00000070: 1cb8 fabe eea5 ddbe f42f b8be c12f 6dbe
-0.21004225 -0.42911777 -0.74882805 -1.3355725 0.9864133 -0.26849598 -0.16022478 -0.15991546
-0.09649693 -0.7035537 -0.70900035 0.06868089 -0.53514725 -1.0360283 -0.27184108 -0.12724033
-0.38695988 -0.24511331 -0.1575499 0.4719349 -0.0811248 -0.4264321 3.3462133 -0.2551731
2.6235533 -0.071549356 -1.8736404 -0.55710596 -0.4896859 -0.43290657 -0.35974085 -0.23162748

conv1.0.weight f4 [64, 32, 3]
00000000: 1499 dcbd ec68 163d 4550 cdbd 11e3 d03e
00000010: df98 543d 5d4f 73bd 4474 593f 6afb 513e
00000020: 28ba 0540 07f7 bb3c 89f1 313e 2ee7 ad3d
00000030: dc1d f83e 5bc2 773e 1f7c 0c3f 6985 42be
00000040: 451c b4bd 401b cbbd 15e1 2fbf c131 593e
00000050: 870e ab3f f21a febd eb77 48be e8a8 eabb
00000060: 1504 ab3e 50cb 17be 8699 d93e 99e3 4f3e
00000070: 1a64 9c3c 275a 33be 0550 1e3d eb77 9c3c
00000080: 6a37 c23e 6686 c13f 9732 2c3e 4ee4 733f
00000090: ae3e 6c3e ecf1 f7bc 5d5d 313e 4a1a b13e
000000a0: 0ded 063f 0b48 64bf a4ba 673d ac5a 863d
000000b0: a8fb bdbc f698 9fbf 7550 853e 9d9f 433c
000000c0: ba07 343d a5a0 453f e57f 063f 299b cfbe
000000d0: 356e 91bd fcee 863e 4b31 543e 1d40 9d3e
000000e0: b1af d43e b6cf 9d3f 073c 2e3e e731 e8be
000000f0: 8ea4 91bf 75ed e73e 9d6f bebd 59db 3ebb
00000100: e1e5 65be 1874 063d 0d67 f13f d0fb 2740
00000110: b64a 2440 ce68 c23d 33bb 10bd 7687 923d
00000120: 2665 2d40 71b8 3f40 fd79 6740 3119 ec3e
00000130: e3a6 ad3e eab6 dabe 5d27 953f b5e5 d73f
00000140: 4590 2ebf 16b6 c5bd 595b 0fbe 20a8 c03d
00000150: 8b64 2ebe d668 2cbe 463d 953c 197e 4dbe
00000160: 60a2 9c3f 0744 903f 76df f83c 2748 083e
00000170: 6179 83bd 3304 8ebd c87a 97bd 65db 66bd
00000180: bb9b aabc cc9c fbbc cde6 27be fb8b 3cbf
00000190: 52bd cabe 98eb cfbf 6236 c0be f80f 763e
000001a0: 6be3 23bf 7213 35bf 32bc 52be 8a5f d93e
000001b0: 9579 fb3d 195d 70bc 4b97 e3bf 8cc2 7bbc
000001c0: adc4 dabc e993 bebd 28d5 2fbd 5b69 c93e
000001d0: 2564 bf3f 77ba 52bd fbf0 98bd e3a5 41be
000001e0: 59d6 1d3d 107c 2abf 83b0 cf3e 4245 2b3f
000001f0: 181c 323d 4411 63bf d1bf 4c3f cc2d 3a3f
00000200: 9313 00bf 6e95 0bbf 2e74 51bf 40e6 75bf
00000210: e6e1 19be 7e0d 0dbe 4bda 44bd 5f21 2ebe
00000220: b2ec d83e cba8 89bf 1976 bbbd f1d7 f4bd
00000230: 6239 c9bd e548 a73e 6d08 763f 0c07 18c0
00000240: 6e68 1dbf 1963 80bf 7d92 dabe 82f8 ccbe
00000250: c0d9 d1be 6a18 1abd 4a2e 23be c5b9 3f3e
00000260: 8aea 793f feac bf3f a099 d93e 3c15 91be
00000270: 2356 cebd d3be 6fbe b133 eebf 3d58 b2bd
00000280: 6354 91bd 11f7 23be fc27 97be 0f11 2b3e
00000290: 6027 463e f51c 1abe 0fa2 023e 2a96 2cbd
000002a0: 2477 04bf 03fc 763f 02aa 573f 0c53 c93f
000002b0: a8cb 723f 01ca 1abf 7bdb 7bbf bba8 38bf
000002c0: 41a7 74bd efc6 0d3c bad8 8b3d 49c3 bd3b
000002d0: 522a 1f3d edf4 27be 0282 dcbd db95 7ebe
000002e0: 72ee 49bf 0d8e 6f3f 6c32 023e 5b93 d8bc
000002f0: 3ce8 da3d 0d8e 1c3d a045 99bd d540 03be
00000300: 137a 9f3d 2584 7a3c 9650 713d 6a82 0c3f
00000310: 9bb7 ec3f e461 6bbe b223 20bf 3d8d 633f
00000320: f5f5 7d3f 2180 a5bf 8847 6c3f e536 4ebd
00000330: f112 a4be 3788 20bf d937 d6bf 09f8 343d
00000340: e26a 08be c25a b8bd 8c9c debe 9d39 54bf
00000350: 5c47 293e 616b cc3b 2fe5 8cbc 5d87 07be
00000360: cc13 cd3d 5b04 80be 187b 8d3d e065 aabe
00000370: e05b bdbd 69f1 ea3d 3ae5 6c3e e936 e63c
00000380: 52b7 4d3e 7eeb 813f 131a fbbe 3878 e03e
00000390: caba d8bd 6185 9bbc 1db8 013e fc93 7c3e
000003a0: 21c8 87bf 4912 743e df5e a83b 136e 61bd
000003b0: 4b8b c0bd dba0 f13e 4bac afbf 9196 433f
000003c0: 4afb 3d3f cbc9 2d3f b228 c2be 462d 933e
000003d0: e865 bc3e 9dc7 563f 1ed8 f93e 0198 173e
000003e0: 331d 943f e7e6 763e 4e55 793e d0e3 96bf
000003f0: 5cdc 66bf 7858 c03e 8e1a fabd fdb0 f8bd
-0.10771385 0.036721155 -0.10025076 0.40798238 0.0519036 -0.05940186 0.8494303 0.20506063
2.089487 0.02294494 0.17377295 0.0849136 0.4846028 0.24195234 0.54876894 -0.18996204
-0.087944545 -0.09917307 -0.6870282 0.21210386 1.3363808 -0.12407483 -0.19576995 -0.0071612485
0.33401552 -0.14823651 0.42499942 0.20301665 0.0190907 -0.17514859 0.03865053 0.01910015
0.37932903 1.511914 0.16816173 0.9527024 0.23070785 -0.030266725 0.17320772 0.3459037
0.5270546 -0.8917243 0.05657448 0.06560263 -0.023191288 -1.2468555 0.26037946 0.01193991
0.04395268 0.7719825 0.525389 -0.40548065 -0.071010984 0.26354206 0.20721929 0.30712977
0.41540292 1.2329013 0.17015086 -0.45350572 -1.1378343 0.45298353 -0.09298632 -0.002912244
-0.22450973 0.03282556 1.8859574 2.6247444 2.56706 0.09492646 -0.035334777 0.071547434
2.7092986 2.9956324 3.6168206 0.4611297 0.33916387 -0.42717677 1.1652638 1.6866976
-0.6818889 -0.09653871 -0.1399969 0.09407067 -0.17030542 -0.16836867 0.018217694 -0.20067634
1.2237053 1.127076 0.030379992 0.13308774 -0.064196356 -0.06934395 -0.073964655 -0.056361575
-0.020826211 -0.030714415 -0.16396637 -0.73651093 -0.39597565 -1.6243773 -0.3754149 0.24029529
-0.6401889 -0.70732796 -0.20579603 0.42455703 0.12279049 -0.014670634 -1.7780546 -0.015366208
-0.02670511 -0.093055554 -0.04292789 0.39338192 1.4952437 -0.051447358 -0.074678384 -0.18910937
0.038534496 -0.66595554 0.40564355 0.66902554 0.043483824 -0.8869822 0.7998019 0.7272613
-0.5002987 -0.54524887 -0.818179 -0.9605446 -0.1502758 -0.13774678 -0.048059743 -0.17004918
0.42368084 -1.0754637 -0.09153385 -0.1195525 -0.09825398 0.32672802 0.96106607 -2.37543
-0.6148747 -1.0030242 -0.42689887 -0.40033346 -0.40986443 -0.03762094 -0.15935627 0.18723209
0.97623503 1.4974668 0.4250002 -0.28336513 -0.10075023 -0.23412637 -1.8609525 -0.08708236
-0.070961736 -0.16012217 -0.29522693 0.16705726 0.19350958 -0.15050109 0.12757133 -0.042135395
-0.51744294 0.9647829 0.84243786 1.5728469 0.94842005 -0.60464483 -0.98381776 -0.7213246
-0.05972982 0.0086533865 0.06828447 0.005791102 0.03885872 -0.16402026 -0.107669845 -0.24861853
-0.78879464 0.9357613 0.12714547 -0.026437452 0.106888264 0.038221408 -0.07483983 -0.128177
0.07786956 0.015290295 0.058914743 0.54886496 1.8493532 -0.22986561 -0.62554467 0.8888739
0.99203426 -1.2929727 0.9229665 -0.05034532 -0.320457 -0.6270785 -1.6735793 0.044181857
-0.13322023 -0.09001686 -0.4347881 -0.8290041 0.16531128 0.0062383865 -0.017199127 -0.1323523
0.100135416 -0.25003323 0.06908244 -0.3328085 -0.092460394 0.114718266 0.23134318 0.028102355
0.20089462 1.0149992 -0.4904333 0.4384172 -0.10582502 -0.018984498 0.1266789 0.24665827
-1.060795 0.238351 0.0051382626 -0.055036616 -0.09401568 0.47193035 -1.3724455 0.7640162
0.7421156 0.67886037 -0.37921673 0.28745478 0.36796498 0.83898336 0.48797697 0.14804079
1.1571411 0.2411152 0.24348947 -1.1788273 -0.9017999 0.37567496 -0.12212096 -0.12143133

conv1.0.bias f4 [64]
00000000: 28f9 fb3f d458 27c0 cc58 e2bf bd1e 9f3f
00000010: ded6 4fc0 64c1 92ba 13c5 29c0 1c07 8abf
00000020: c15b 75bf 5c54 19c0 c288 aa3f b935 16c0
00000030: 4390 45be e28c 69bf b166 cabf a8fe 0440
00000040: f216 bb3e 0ec1 ecbe a2eb f4be 3e5f df3e
00000050: 9a93 363f c8de c1bf c8a8 4ac0 04a6 a0bf
00000060: 093d 98be 3dbd fabe 28f0 7bbf 02e3 e33f
00000070: 7bc2 793f 0179 5fbf 5adb 7b40 6932 b83f
00000080: 58bb 3f3f 7a4f 40c0 af0b 8940 7c62 dbbf
00000090: 37a0 0ec0 cac5 8040 f14d a53e 5dde 57bf
000000a0: f4f4 e73f 8eff 683f 2c88 47c0 eced 36c0
000000b0: 557a a93d 0f4c 9abf 9301 28bf 0a2f 28c0
000000c0: 7933 9ebf 1521 1ac0 053f cfbf 308c 05c0
000000d0: 4d19 c9bf 8577 bbbe 3ee6 ad3f 5d6a 473f
000000e0: c735 84bf 736f 60bf dd49 0340 3861 e9bf
000000f0: 7e33 8e3f e238 50c0 2cec 19bf c49f 503f
1.9685411 -2.6147966 -1.7683349 1.2431256 -3.2474895 -0.0011196551 -2.6526535 -1.078342
-0.9584313 -2.395774 1.3322985 -2.347029 -0.19293313 -0.91230595 -1.5812589 2.078043
0.36540943 -0.4624104 -0.47836024 0.43627352 0.7131897 -1.5146112 -3.1665516 -1.2550664
-0.29734066 -0.48972502 -0.98413324 1.7803652 0.9756238 -0.8729401 3.9352632 1.4390384
0.7489524 -3.0048509 4.282676 -1.713943 -2.2285287 4.024144 0.32286027 -0.84323674
1.8121629 0.91014946 -3.1176863 -2.8582716 0.08275286 -1.2054461 -0.656274 -2.627871
-1.2359458 -2.4082692 -1.6191107 -2.0866814 -1.5710846 -0.36614624 1.3585889 0.7789667
-1.0328912 -0.8767006 2.0513833 -1.8232794 1.1109464 -3.2534719 -0.60125995 0.81493783

conv2.0.weight f4 [128, 64, 3]
00000000: b1ca 103d 7fe9 adbe a719 56be b06f ea3d
00000010: dd92 04be 764e 34bd 1046 d7be 94fe 3dbd
00000020: 9e48 6dbe 6eaf bfbb a1af 08be b4da a7bd
00000030: 091c acbd 4ad1 aebe b062 40be f9bc 46bc
00000040: 6cec 5abe 6a41 90bd 128a a93c dc03 493d
00000050: b777 483d 335a 1dbd 67f4 c63b 80e0 44be
00000060: 7e9f 243d 952e 69bc 9ae5 3b3a 27ae 70be
00000070: 4d50 43be eb08 b2bd b0c3 8ebe 1b57 18be
00000080: 4a3c f53c 4c37 b63d a254 f33d 9a6c a9bd
00000090: f974 50bd 230e 5abe 5495 1cbd c076 e7bc
000000a0: 6efe 5abe c916 72bc 67fa 463d 66f1 d1bd
000000b0: 8be2 c03d b00e 95be 1b8c adbd 7b49 81be
000000c0: 0978 3d3d c3fd 14bd 60e2 6cbd 9179 30bd
000000d0: 3646 6bbd 5028 34bd 3be7 b9be a34e 1a3e
000000e0: 4360 9ebe 2bc6 1bbe 984d fa3d 1427 403e
000000f0: 3626 61bc b7fa 3bbe 92fb 78be c734 7cbe
00000100: b12a 10be 7ef7 dfbc dfe9 39bd e3fc a43c
00000110: c269 0bbd 0b93 81bd bcfd dfbd c5fc b8bb
00000120: d2f7 4dbe 92b2 63bd d5ee 8abe cbfe 323e
00000130: bf84 2e3e d08c 8ebe 734d 23be 6976 6cbe
00000140: 20f7 ccbd 3a7e 0ebe a6a3 d5bd b033 59be
00000150: 249e 38bc 7427 8ebc 6328 86bb c88c d1bd
00000160: 2962 90bd dac6 95bc 7ebd 91be b7c6 8d3c
00000170: af4a f1bd 6917 c5be e8b9 a8be 3466 bbbe
00000180: 29c4 b0bd d6bb 3fbe 7b6c 0c3e 1802 8b3d
00000190: b7e2 6abd 3cc6 1bbd b6e0 9cbe e2bf cfbe
000001a0: d45d 003d 6faa 8f3c a52c b7bd 1290 f1bd
000001b0: f05b a5bc 8c68 13bd 407b 91bd d328 acbe
000001c0: 43b3 35be 4a19 69be 4e6d c03d a21d b2be
000001d0: 8f58 84be f2de 623b 15fb c1bd 7538 413d
000001e0: 437f fcbe 711a 63be 9e07 01bf 1c0d 89bc
000001f0: 8f22 11bd af79 38be d000 593d d4ee 55bd
00000200: a8c9 edbd c1d2 e1be acc4 54bc 6fb6 80bd
00000210: ea1a 393d 82ed f83c 8218 f73d dff4 aabe
00000220: 66c4 39be 71cb 1bbd c168 89be 8125 d5be
00000230: 67c6 8fbe 5d56 6f3e 84da 723d 40c1 8dbe
00000240: 316d 85be 46d0 2bbe b9b3 c1be 7b4f fbbd
00000250: 4fb0 88be 9e88 c8bd 7b07 3c3d 949e 29be
00000260: 677c c2bd 6650 973d 106d adbd 4110 d2bd
00000270: 5ad2 95bb 9b68 cfbe 5aae 88be 0111 21bd
00000280: 56b7 b93c 4b86 773c 9991 a0be 2d73 86be
00000290: 10be 6fbd 6e2b c4be a535 9cb9 6990 62be
000002a0: f8c1 12be c43f 14bd adc2 93bd 7da4 5ebe
000002b0: 5e4c 753d 369d a1bc e88f 94be a5a6 e53d
000002c0: 59ba 72be d748 d23c fab1 68bd 06f5 febd
000002d0: 1c84 cebd 3bd7 60be 414e a5be f602 b3bd
000002e0: c7ba 37bd fb5c 99bd 9ef6 443d c7d3 90be
000002f0: 61be 6abe 96bc cabc f342 f8be 85b2 93be
00000300: 6ee7 6dbd 9793 5f3d 1a21 92bf e585 0ebb
00000310: 2d8f ef3e 920b e33e 7851 81bf 8a15 bcbf
00000320: 7dca c6bf d80c a7bf 4fb1 4abf 5041 b23f
00000330: f91e 4dbf b232 083e 2985 813f 7f39 86bc
00000340: e531 893e 5f86 c9bf 7e61 be3e ce7d 0ec0
00000350: 9c15 febf 1f2e 5bbf 35cd 0bbe 8e6d b7bf
00000360: 4334 5a3d 3cf1 133e 08c8 fe3e 4189 303e
00000370: 23aa 36bb 650a 84bf c139 613e 2b3a 8a3e
00000380: 888e 39c0 3fc6 803e fbb8 803f d72a 943e
00000390: 3d5c c83d 0a51 8cbd f018 363e 7844 b2bf
000003a0: e7d4 06bf e15c 19bf b5a6 863f 5abe 093d
000003b0: 1cea 6e3e 8cac 163f c9c7 f93d d0e4 163e
000003c0: b565 083f 51ee 093f c50c e2bf 733c 8a3f
000003d0: b99f 0a3e f045 32c0 5a8c ee3e 14ca 333f
000003e0: 5697 42bf 4653 13bf c10e 8fbe 0c5a 40c0
000003f0: 4a4a e53d 8b5d 03bf 6464 aabd ffc1 d9be
0.03534955 -0.33967206 -0.20908223 0.11447084 -0.12946649 -0.04402014 -0.4204564 -0.046385363
-0.23172233 -0.0058497703 -0.13348247 -0.08196011 -0.08403785 -0.3414405 -0.18787646 -0.0121300155
-0.2137925 -0.07043727 0.02069572 0.049075946 0.048942294 -0.0384161 0.0060716155 -0.19226265
0.040191166 -0.014232297 0.0007167697 -0.23503934 -0.19073601 -0.08693107 -0.27883673 -0.14876978
0.029935975 0.08897266 0.11881377 -0.08272667 -0.050892804 -0.21294455 -0.038228348 -0.028254867
-0.2138612 -0.01477594 0.048578646 -0.10251121 0.0941821 -0.29112768 -0.084739886 -0.25251374
0.046257053 -0.03637482 -0.057833076 -0.043084685 -0.057440005 -0.043983757 -0.36309227 0.1506906
-0.30932817 -0.15212314 0.12221831 0.18764907 -0.01374202 -0.18357359 -0.24314716 -0.24629508
-0.14078785 -0.027339693 -0.045389052 0.020140117 -0.034036405 -0.06326874 -0.10937068 -0.005645367
-0.20114067 -0.05559022 -0.2713534 0.17480008 0.17042826 -0.27841806 -0.15947513 -0.23092045
-0.10008073 -0.13915339 -0.10431604 -0.21211123 -0.011268172 -0.017352797 -0.00409417 -0.1023193
-0.070499726 -0.018283296 -0.28464884 0.017306669 -0.11781823 -0.38494423 -0.32954335 -0.36601412
-0.086311646 -0.18723997 0.13713257 0.06787509 -0.05734512 -0.038030848 -0.3064019 -0.40576082
0.03133948 0.017537324 -0.08944062 -0.11795057 -0.02018544 -0.035988376 -0.07103586 -0.33624896
-0.17744164 -0.22763553 0.09395848 -0.34788233 -0.25848815 0.003461775 -0.09471718 0.047172982
-0.49315843 -0.22178055 -0.5040225 -0.016729884 -0.03543335 -0.18015169 0.05297929 -0.052229717
-0.116107285 -0.44106105 -0.012986343 -0.062847964 0.045191683 0.03038669 0.12065221 -0.33389947
-0.18141326 -0.038035814 -0.26837733 -0.41630176 -0.28081056 0.23372789 0.059290424 -0.276865
-0.2605987 -0.16778669 -0.3783243 -0.12271019 -0.26697013 -0.09791683 0.04590557 -0.16564399
-0.09496384 0.07388382 -0.08468068 -0.102570064 -0.004572195 -0.40509495 -0.2669552 -0.039322857
0.02267043 0.0151077015 -0.31361082 -0.26259747 -0.058530867 -0.38314384 -0.00029794607 -0.221254
-0.14331806 -0.036193624 -0.07214866 -0.21742435 0.059887283 -0.019728284 -0.29016042 0.112134255
-0.23703898 0.025669498 -0.056810357 -0.12449078 -0.100837916 -0.21957104 -0.32286265 -0.08740799
-0.04485586 -0.07488438 0.048086755 -0.28286573 -0.22924186 -0.024748128 -0.48488578 -0.28847137
-0.058082037 0.054584112 -1.1416352 -0.0021747288 0.46788922 0.44344765 -1.0102987 -1.4694073
-1.5530545 -1.3050795 -0.791768 1.3926182 -0.80125386 0.13300589 1.0118762 -0.016384838
0.2679588 -1.5744132 0.37183756 -2.2264285 -1.9850345 -0.8561725 -0.13652499 -1.4330308
0.053272497 0.14447492 0.49761987 0.17239858 -0.0027872405 -1.0315672 0.21994688 0.26997504
-2.8993244 0.2515125 1.0056452 0.28938934 0.09783218 -0.068513945 0.1778295 -1.3927145
-0.52668613 -0.59907347 1.0519625 0.0336288 0.23331493 0.58857036 0.12196309 0.14735723
0.5328019 0.53879267 -1.7660147 1.0799698 0.13537492 -2.7855186 0.46591455 0.7023022
-0.7601217 -0.5754894 -0.27940944 -3.005496 0.1119581 -0.5131461 -0.08319929 -0.4253082

conv2.0.bias f4 [128]
00000000: 231a 0abf 69bb 883f 24c0 cbbf b2a0 4ebf
00000010: fb8f 0cbf 0965 ffbf d44a 81be 8434 2b3d
00000020: dbec 71be 6171 aebf 896c 293f e0df 17c0
00000030: ce2b 02c0 3fd1 61c0 9da4 bfbf efc8 34bf
00000040: 0d5a 0bbe 0585 92bf 30dc 24bf c957 edbf
00000050: ecfb bbbf eb49 8bbf 1cf5 d2bf a9f7 26bf
00000060: dd38 8bbf 5e0b eabf 5ca6 85be 784c b7bf
00000070: 30d7 f03e 1935 03c0 a574 8cbf 71f5 1ebf
00000080: 3657 c8bf f58c ab3f e8d7 16c0 4d47 b8bf
00000090: 272e 16bf 60e0 16bf fc0f 50bf 9e5a dabe
000000a0: 1c65 2c3f 3a03 35c0 27dc f23e e25f 16c0
000000b0: 1db3 663d aece 12bf c114 d13e aea3 8cbf
000000c0: 1349 0cbf 935c fcbe 3e37 0fc0 7844 25c0
000000d0: 6d9e 67bf 3cd9 64bf c837 fbbe ee7c 15bf
000000e0: 9e2a 73bf 3371 62bf 3566 87bd 20ff 10c0
000000f0: 6e3a a5bf 677b 0d3f 3e60 f5bf 786d 8e3f
00000100: 6f9c 22c0 15dd a5bf 9997 92bf 65da e03e
00000110: d626 16c0 9cb1 c7bf b583 48be 6ec5 d1bf
00000120: 87b0 7abd 47d3 01c0 9efb 9dbf dc3d db3f
00000130: f09c 20bf 4f12 12bf 3b76 8cbf f450 9abf
00000140: 65b6 17bf 9384 9fbe 56d7 d1bf a2af 2740
00000150: dfa3 94bf 06c9 afbf f293 47c0 0562 cabf
00000160: 888a ffbe 45e4 5dbf f7ff 7abe 46b7 b3bf
00000170: 0f88 c8bf 18ca c9be 568f 12bf 08fe 0bc0
00000180: 740b 89bf 63d2 65bf d5f4 0abf 9686 42bf
00000190: 08d9 5bbf b10e f8bf 6641 b9bf f580 de3f
000001a0: 35c6 b3bf 72be 2abf 33d5 963c 0c74 0bbf
000001b0: a6ef 113e bb21 08c0 3552 11c0 9510 d8bf
000001c0: c08f aabe bc1e 31c0 9d31 25bf 0ff8 54bf
000001d0: cf26 95bf ab00 05c0 f1e0 13c0 a0f0 5bbf
000001e0: 4223 0d40 dba6 46bf 37da d2bf ed2a 61bf
000001f0: c0bc edbf 889f 10bf 5f64 a6bf d142 f4bf
-0.5394613 1.0682193 -1.5918012 -0.8071395 -0.54907197 -1.9952708 -0.25252402 0.04179813
-0.2362551 -1.362835 0.66181237 -2.3730392 -2.0339236 -3.5283964 -1.4972111 -0.706191
-0.1360857 -1.1446844 -0.6439848 -1.8542415 -1.4686255 -1.0881933 -1.6481051 -0.6522165
-1.0876728 -1.8284719 -0.26103485 -1.4320211 0.47039175 -2.0501158 -1.0973097 -0.62093264
-1.5651615 1.3402392 -2.3569279 -1.4396759 -0.5866417 -0.5893612 -0.8127439 -0.4264726
0.6734178 -2.828322 0.47433588 -2.3496022 0.05632316 -0.5734662 0.40836146 -1.0987451
-0.54799 -0.4928938 -2.2377467 -2.582304 -0.90476114 -0.89393973 -0.49065995 -0.5839375
-0.94986904 -0.8845398 -0.06611291 -2.2655716 -1.2908456 0.5526642 -1.9169996 1.1127157
-2.540798 -1.2958094 -1.1452514 0.43916622 -2.3461204 -1.5601077 -0.19581492 -1.6388376
-0.061203506 -2.0285203 -1.2342412 1.7128253 -0.6273947 -0.57059187 -1.0973581 -1.2055955
-0.59262687 -0.31155834 -1.639384 2.6200948 -1.161251 -1.3733222 -3.1184049 -1.5811163
-0.49910378 -0.86676437 -0.24511705 -1.4040306 -1.5666522 -0.39411998 -0.57249963 -2.1873798
-1.070662 -0.8977415 -0.54279834 -0.7598661 -0.8587804 -1.9379483 -1.4473083 1.7383105
-1.4044863 -0.66696846 0.018412208 -0.5447395 0.14251575 -2.1270587 -2.2706425 -1.688006
-0.33312798 -2.7675009 -0.6452883 -0.8319101 -1.1652468 -2.0781658 -2.3106043 -0.8591404
2.205277 -0.7759835 -1.6472844 -0.87956125 -1.8573227 -0.56493425 -1.2999381 -1.9082891

conv3.0.weight f4 [64, 128, 3]
00000000: d21e 1d3c 5142 73be 2565 a5bd 36a1 babe
00000010: 45b6 19bf cc9b 05be 35dd 313d bde4 28bc
00000020: 74c1 27be 6987 8ebd 707a 4f3d ce8c 37be
00000030: 5b95 053e 6ee1 b5be f436 e4bd a64c 313e
00000040: c22d 97be 3be3 edbe d57a a3bc 32d4 9b3d
00000050: 64ea f7ba ad07 1fbe 4d5b f6bd a8fe adbe
00000060: 0ad9 c23d b333 bb3d effc 79be 44c5 2d3d
00000070: 2fdf 68bd f885 45be 6fc9 aa3d d25e 4dbe
00000080: 7b41 6bbe 0128 a63d f121 353e 87b3 fdbd
00000090: 7134 09be 3916 a5bd d303 5abd 3559 0abd
000000a0: 4ec7 6a3e acbd cc3d 57e8 f9bd 88ec 2f3e
000000b0: f7c6 24be 257b 29bd 2cd7 1abe c4df ccbe
000000c0: ef64 0ebf c713 583d 1374 c3bd 54f6 8fbe
000000d0: ec06 a7be 18e3 b8be 3dcc 18bd 97d0 3f3d
000000e0: 3cb3 2dbe 6bd1 14bd a1ea 2f3d c353 8dbe
000000f0: 1526 8cbe 5a2f 5b3e 7010 35be b98a b53d
00000100: 8906 1f3e b709 09bd 14a6 333e 7b89 05bf
00000110: 66e0 e9be f9b7 2d3d 4fab 9dbd da07 31bd
00000120: 0946 71be fb5c acbd 9751 253d 5ca0 afbe
00000130: f2d8 01be d312 11be 6607 3bbe 2ff8 323d
00000140: ec73 c1bd ef2a 503e af0d 913d 3cc3 54be
00000150: c149 043d 2652 3b3e baf0 9cbd 474d 953c
00000160: fd8e a43b 9c15 353b 5fa0 f7bd 8a04 9ebe
00000170: 793b 223d 65e8 713c b868 c7bd 0e21 b4be
00000180: d325 4abe 5c61 f43d 0621 c03c f569 013e
00000190: 2858 923c 76c6 2fbe f56d 18bd eaff 643d
000001a0: 2254 483c 82cf 91be b73d bbbe a9ee 43bd
000001b0: c9f8 a43e f3e1 32bd 65fd 4ebd 7a9d 603d
000001c0: 809b 003c ae3d 59be 27d6 34be 8e8a 84be
000001d0: 46ff 94be 5d07 2a3d 67dd 81bd a530 80bc
000001e0: b108 1e3e 8b73 5abe ea4a 88be 8879 68be
000001f0: cd4f 483d b714 dbbc d952 853c 9fea 3fbe
00000200: f03a b33d 1d29 323e 4ff7 78be c1a8 cdbd
00000210: d695 b9be 82c2 b8be 8588 03be 6419 42bc
00000220: 333a 803d 2fcb 37be d58b 78be f8fb 4ebe
00000230: 4ee2 8cbc 6fce 9abb e423 903c b365 45bd
00000240: 71ea a8be 9c39 983e deab acbd 76ce 00bd
00000250: 398c b4bd 65da 36bc b5b5 7abe 2dd5 b3bc
00000260: e4eb e7bc 271b 2f3d 04ff 353e 4d92 6bbe
00000270: 1029 a0bd 05a3 4bbe db47 1abe cd1a 20be
00000280: a667 5a3e 5d94 14be b562 62be b74a d6bd
00000290: 4cb4 87be 2ec7 853d e9cb 333e 8ba4 95bd
000002a0: 795a 5e3d 0dc0 9dbe 5a6c e1bd 8f1d 0abd
000002b0: 10bc 98be 4a41 08be c2f5 f9be 1843 9abe
000002c0: a7c1 b0be bbe7 e7be 26cf bd3c b58e c6be
000002d0: 3556 3fbe ed1f b3be 240a dbbd deb9 80be
000002e0: cadb 98be 24e0 8abc fd0e 9fbe aad2 99be
000002f0: 0297 b2be 3a22 82be 4a88 8cbe 098a d9be
00000300: 1532 3b3e 3850 e6bd 60a9 bb3d 0e0f 923c
00000310: 2d17 0a3e 4b82 04be a82e c3be 2404 94bd
00000320: 6e76 dabd 9322 47be 7822 9c3d 8541 82be
00000330: 404f 1abe 38ee 0bbe b552 01be 0123 453e
00000340: d176 86be b656 e7bd 5640 6bbe 6365 3d3d
00000350: a636 a23d 62ec 55be a5bc 68be a0c3 0abe
00000360: 25a1 a3be abe2 bf3d e26a 0a3e 8f75 ed3d
00000370: 11dc 0bbc 467e 26be b856 7a3d ce5d 50bc
00000380: ebe4 dfbe e5ee 1fbe 2b3e 10bf 1e4c fbbe
00000390: cbeb d23d 8069 f5bb b516 7c3d 5423 3e3e
000003a0: bcf8 4ebe 0e31 123e 88be 293f 1bbb 21be
000003b0: 59b0 08be 300e 2a3d 6d09 14bd eaf2 0ebd
000003c0: f633 b4be 5b6a 003e 2a39 c6bc e42d 5b3e
000003d0: 1cdf 2cbe 6ed1 c6be 9488 18be 8f48 0bbe
000003e0: 7870 94be 46f0 61be 9a89 15be da55 73bd
000003f0: 18c3 b2be e8e8 633e 52bb fa3d fec7 eabd
0.009589868 -0.23755766 -0.080759324 -0.3645112 -0.60043746 -0.13047713 0.04342385 -0.010308442
-0.1638239 -0.06959421 0.050653875 -0.17924806 0.13045256 -0.35523552 -0.11143294 0.17314395
-0.29527098 -0.46462426 -0.019956032 0.076088324 -0.0018914458 -0.15530272 -0.12029133 -0.3398335
0.09514053 0.0914072 -0.24412893 0.042424455 -0.05685347 -0.19289386 0.08339202 -0.20055702
-0.22974198 0.08113099 0.17688729 -0.12387758 -0.13398911 -0.08060879 -0.053226303 -0.03377648
0.22927591 0.099971145 -0.122025184 0.17180073 -0.16091524 -0.041377205 -0.15121144 -0.4001447
-0.5562276 0.052753236 -0.09543624 -0.2811762 -0.32622468 -0.3611076 -0.03730415 0.046829786
-0.16962904 -0.03633253 0.04294837 -0.27602968 -0.27372804 0.21404782 -0.17682052 0.0886435
0.15529837 -0.03345653 0.17543823 -0.52162904 -0.45679015 0.042411778 -0.0769869 -0.04322038
-0.23561873 -0.08416172 0.040361013 -0.34302032 -0.12680414 -0.14167337 -0.18264541 0.043693718
-0.094459385 0.20328878 0.07082688 -0.20777601 0.0322969 0.18293056 -0.076631024 0.018225325
0.0050219283 0.0027631288 -0.12091135 -0.30862838 0.0396075 0.01476488 -0.097367704 -0.3518147
-0.19740991 0.11932632 0.023453247 0.12638076 0.017864302 -0.1716555 -0.03721424 0.05590812
0.01222709 -0.28478628 -0.36570522 -0.047835026 0.32221058 -0.043672513 -0.050534625 0.05483768
0.007849574 -0.21214935 -0.17659818 -0.2588696 -0.29101008 0.04151093 -0.06341057 -0.015648196
0.15433003 -0.21333139 -0.26619655 -0.2270261 0.04890423 -0.026743276 0.016274856 -0.18741845
0.08751476 0.17398496 -0.2431309 -0.10041953 -0.36247128 -0.36085898 -0.12845047 -0.011846874
0.062611006 -0.17948602 -0.24272092 -0.20213306 -0.017197754 -0.004724316 0.017595239 -0.04819269
-0.32991365 0.29731452 -0.084312186 -0.031446896 -0.08815808 -0.011160468 -0.24483378 -0.021952236
-0.028310724 0.042750504 0.17773062 -0.23005028 -0.07820332 -0.19886406 -0.15066473 -0.15635224
0.21328601 -0.14509721 -0.22107966 -0.104634695 -0.26504743 0.06532131 0.17558254 -0.07306775
0.0542855 -0.30810586 -0.110069945 -0.033719596 -0.2983098 -0.13306156 -0.4882031 -0.30129313
-0.34522745 -0.45293984 0.023170065 -0.38780752 -0.18685229 -0.34985295 -0.106952935 -0.25141805
-0.29855186 -0.016952582 -0.31066123 -0.30043536 -0.34880835 -0.25416738 -0.2744773 -0.42488125
0.18280824 -0.11245769 0.09163165 0.017829444 0.13485403 -0.12940328 -0.38121533 -0.07227352
-0.1066712 -0.19446783 0.07623762 -0.25440612 -0.15069294 -0.13665092 -0.12629206 0.19251634
-0.26262525 -0.11295836 -0.22973761 0.046239268 0.079205796 -0.20890954 -0.22728212 -0.13551188
-0.3195888 0.09369405 0.13517335 0.11594688 -0.008536355 -0.16259107 0.061117858 -0.012717677
-0.43729338 -0.15618475 -0.5634486 -0.4908151 0.1029888 -0.007489383 0.061545093 0.18568164
-0.20212072 0.14276525 0.6630635 -0.15794031 -0.13348521 0.041517437 -0.0361418 -0.03489963
-0.35195893 0.12540571 -0.02419718 0.21404225 -0.16881984 -0.38831657 -0.1489585 -0.13601898
-0.28992057 -0.22064313 -0.14603272 -0.059408046 -0.3491447 0.22256815 0.1224276 -0.11463927

conv3.0.bias f4 [64]
00000000: 8fea c5be 6730 123e a413 0fbe 95ea f9bd
00000010: 13bf 54be 3c39 9ebe 9538 60bf e20a 04be
00000020: 41d6 24bf dcc0 2fbf a848 2cbe 057c c5bd
00000030: e973 a4be cd7c 71be aeda 3cbe 35f0 4cbe
00000040: 4aee fdbd 70e6 c9be 05ca 53bf 1565 16bf
00000050: 25ca 46bf 1da4 70bf 7845 ecbd a89e 54bd
00000060: e26b 42be f0f2 51be 91f5 0ebf fff0 1bbe
00000070: 4a7f 02be 4e2a 9ebe 60fb abbf 7aa4 a5bf
00000080: ec64 9fbe 3f16 80bf a863 88bf 320f 52bf
00000090: 4e76 8dbf 4df5 dfbd c862 efbf a859 22bf
000000a0: bbec a1be 8c58 1abf f96f 57be bc94 90bf
000000b0: e227 0dbe 53e6 ccbe a7f9 5ebf 7d9f e3bd
000000c0: 7f30 48be 7c4a 0bbf eb62 8dbe 055e e3be
000000d0: 0c01 2abe 6613 0540 9f44 b3be d635 24be
000000e0: 6284 13bd 4ecd e6be 7721 23bf 0c1e 35bf
000000f0: d7c8 f6bd c410 24bf 2615 d0be 67e3 10bf
-0.38655517 0.14276277 -0.13972336 -0.12202946 -0.20776014 -0.3090304 -0.8758634 -0.12894776
-0.64389426 -0.68653655 -0.16824591 -0.096427955 -0.32119682 -0.23582764 -0.18442795 -0.20013507
-0.12398966 -0.39433622 -0.8273013 -0.5874799 -0.776522 -0.94000417 -0.115366876 -0.05190912
-0.18986467 -0.2050283 -0.55843455 -0.15228651 -0.1274387 -0.3089165 -1.3436089 -1.2940819
-0.31131685 -1.0006789 -1.0655413 -0.82054436 -1.1051729 -0.10935459 -1.8702021 -0.63418055
-0.31625924 -0.6029136 -0.21038808 -1.129539 -0.13784745 -0.40019473 -0.8709969 -0.11114404
-0.1954975 -0.5441053 -0.2761453 -0.4440767 -0.16601962 2.079309 -0.3501329 -0.16036162
-0.036014922 -0.4507851 -0.6372294 -0.7074897 -0.12050026 -0.6408808 -0.40641135 -0.5659699

conv4.0.weight f4 [32, 64, 3]
00000000: 9109 8abd ec17 fcbc 0989 0ebd abf8 9d3b
00000010: 8034 c2bd b819 a1bd 2e17 86bc 4d76 60bd
00000020: 4e88 bf3c e145 1bbe ca29 bfbd 719a b2bd
00000030: 1a4e 1fbc f697 a1bc 5794 b8bd b582 35bc
00000040: 42be b63b 29f1 3bbd c759 fa3c e117 be3d
00000050: 6e16 d3ba 8984 e9bc 0b58 aa3b e61d 65bd
00000060: 044e 88be adab 5bbd 6990 0abd c06b c63b
00000070: a1b5 ebbd 25e0 c03b e0de 893d 3f30 8dbd
00000080: 70fe 22bc 6388 81bd 3ab0 003d edc4 7e3d
00000090: f42a 66bd 62c6 abbc c675 bebd b6d3 2ebd
000000a0: 04ad 4fbd 0b03 8cbc 3b8f 45be 15e4 50bd
000000b0: abe5 5f3c fd76 45bd 93c7 c43c 5164 aabd
000000c0: be1e 0bbd b3ce 8ebd 3246 ce3c e1ff 4dbd
000000d0: 4b1c f9bd f322 31bb c90a 82be 6042 3abe
000000e0: d371 56be 965a 61bb e592 aebd 569c 1bbe
000000f0: 07ce fcbc 6971 0e3e c595 83bd 67d1 d4bd
00000100: 4faa ffbd 396b 90bb 8082 47bd fb43 c5bc
00000110: 72a0 4a3d e06d 383d c08b 2cbd 3b67 a5bc
00000120: 3c03 96be 02e6 95be 7b41 9cbe 749f f5bd
00000130: 902d bcbc 0f90 f6bb fc07 93bc 1ef5 22bb
00000140: f763 d5bd b42a 91bd 624d 5cbd 707b efbc
00000150: 6eef 57bc f8f0 08bb a65a 0dbc 9001 f1bb
00000160: e81e e4bb 1b8b 19bd 7414 34be 1cb2 6ebe
00000170: 00a6 87be fec9 94bc 7544 98bc 05a9 963b
00000180: 52c4 6fbd 2f16 cebb b1d0 19be dbd2 b0bd
00000190: 1277 babe 7f6a 7dbe 8c35 6fbd 916c 6fbc
000001a0: 7738 0ebe 8fcb 06be a439 5abd 5d21 c1bd
000001b0: bac1 82bb 98a0 86bd cd41 96be 58d4 f9bb
000001c0: 4847 d0bb f599 14bc d3e3 afbd b61d 973b
000001d0: ce79 e2bd 34ed 643c 862d e03b 7431 fabc
000001e0: 4a86 b03b 9dbb b13b aa8c d6bd a2e0 f8bb
000001f0: 22df bbbc 3860 f1ba 8562 16bc 1b6e a5bd
00000200: 8614 9ebd eed3 5bbd c136 16be a0e4 78be
00000210: 8c23 833c 750d 94bc 1bc6 febb c3cc 00be
00000220: 9315 b8bd 35b5 233d 7c3a acbd 364d 6ebd
00000230: 52e6 82bd a1de 32bd e1f5 db3a 74d6 39bd
00000240: 529e b3bc 4659 30bd 5b34 aabc cda5 06bd
00000250: dbc4 14be 3a84 0f3d 446a 6ebd 7677 18bd
00000260: 04cf d2bc 56e3 953d 8982 2fbd 5fc9 05be
00000270: 28bd 403d c330 653d ff6e 49bd 6c4b 5dbe
00000280: 3be2 dabe 8553 9fbe e114 b83d dcbc f8bc
00000290: e3ca 24bd a197 d9bc 52e0 99bd 5339 91bc
000002a0: c786 78bd e201 20be a718 7d3c 8265 b43d
000002b0: 90f2 963c eab5 98bd 1d91 a8bd c924 1fbe
000002c0: a34e 25be 8276 8fbd 6b4f c8bc c08d dabd
000002d0: bb02 1ebd 8c00 b7bc 39b1 a83d 3835 acbb
000002e0: cecc 9f3d 9c87 233c 1518 0f3c 8ccb 11bd
000002f0: 024c 0f3c 22e7 04be 23ac ccbe 7853 aebd
00000300: 5f96 aabd 7b78 95bd e731 babd 5bb7 52bd
00000310: a55c cdbd 3b7e 10be 1543 94bd dfb8 ca3c
00000320: e729 16bc 6eb3 0fbe 01cd 38be 7b20 5dbe
00000330: 93c0 523d fab6 c93c 4f82 633b f39b 513d
00000340: c946 75bc e116 86bc 2ca0 1a3d 1e4d 23bd
00000350: 81e6 81bd f738 70bd 1bff 363d d882 ccbd
00000360: b867 d0bd 7ea9 803d bbda ba3c ab13 0cbe
00000370: ef4b 33bd 1cbb 94bd 1a24 41bd b4b8 7ebc
00000380: 039d cb3c 6457 3b3c 8331 bebc ecda 363c
00000390: 9e6f 243c 3316 f2bd 0ef0 20be a783 85bd
000003a0: 4188 2bbd 48d2 aa3c b8d1 e0bd 8bfa 47be
000003b0: b758 60be 1f01 333d 17e2 193c c4aa aebc
000003c0: 3517 6cbd 1fdd 1ebd a561 49bd 586e 463d
000003d0: 67cc 17be 3881 a9bd 6df5 6cbe 04f3 cbbc
000003e0: 38af 5bbd f25a abbd 6415 95bd 94c4 29bd
000003f0: 8b13 2bbd 2897 f8bc 8d26 9737 d049 27ba
-0.06740106 -0.030773126 -0.034798656 0.0048209033 -0.0948267 -0.078662336 -0.016368475 -0.05480032
0.023380425 -0.15163375 -0.093341425 -0.087208636 -0.009723211 -0.019725781 -0.090126686 -0.011078526
0.0055768797 -0.045884285 0.030560387 0.09281898 -0.0016104707 -0.02850558 0.005198484 -0.055936716
-0.2662202 -0.05363052 -0.033829127 0.0060553253 -0.11509252 0.005886095 0.06731963 -0.06893968
-0.009948358 -0.06324842 0.031418063 0.06219952 -0.056193307 -0.02096862 -0.09299807 -0.042682372
-0.05070211 -0.017091295 -0.1929292 -0.050998766 0.013665597 -0.04820918 0.024020946 -0.08319915
-0.033964865 -0.069730185 0.025179956 -0.050292853 -0.121635996 -0.0027028888 -0.25398853 -0.18189383
-0.20941858 -0.0034386269 -0.08524112 -0.15196356 -0.03085996 0.1391045 -0.06425051 -0.10391503
-0.12483656 -0.004407313 -0.04870844 -0.024080267 0.04946942 0.04502666 -0.042125463 -0.020190826
-0.29299343 -0.29277045 -0.30518708 -0.11993304 -0.022970945 -0.0075244973 -0.017948143 -0.002486534
-0.104194574 -0.07088223 -0.053784736 -0.029233664 -0.013179643 -0.0020895582 -0.008627569 -0.0073549226
-0.006961692 -0.037486177 -0.17585927 -0.23310131 -0.26493835 -0.018162724 -0.01858733 0.0045977854
-0.058536835 -0.0062892656 -0.15021016 -0.086339675 -0.36418968 -0.24747656 -0.058400676 -0.014613287
-0.13888727 -0.13163589 -0.053277627 -0.09430192 -0.003990379 -0.065735996 -0.29347077 -0.0076241903
-0.0063561536 -0.009069909 -0.08588376 0.004611696 -0.11058389 0.013972569 0.0068413643 -0.03054116
0.0053871023 0.0054239766 -0.10476048 -0.0075951377 -0.022933546 -0.0018415516 -0.009178762 -0.080776416
-0.07718758 -0.05366891 -0.14669324 -0.24305964 0.016008161 -0.018072823 -0.007775081 -0.1257811
-0.0898849 0.039967734 -0.084095925 -0.058179103 -0.06391586 -0.043669347 0.0016781652 -0.045370534
-0.021926079 -0.043053888 -0.020776918 -0.032872964 -0.1452822 0.03503821 -0.05820681 -0.0372233
-0.025733478 0.073187515 -0.042849097 -0.13065098 0.047055393 0.055954706 -0.04917812 -0.21610802
-0.42750725 -0.31118408 0.08988357 -0.030363493 -0.04023255 -0.02656156 -0.07513489 -0.01772753
-0.06067541 -0.15625718 0.015447772 0.088084236 0.01842621 -0.07456572 -0.08230803 -0.15541376
-0.16143279 -0.070050254 -0.024451932 -0.10671568 -0.038576823 -0.022339128 0.082369275 -0.0052553676
0.07802735 0.009981062 0.008733769 -0.035594508 0.008746149 -0.12978795 -0.3997508 -0.08512014
-0.08329462 -0.072983705 -0.09091549 -0.051444393 -0.10027436 -0.14110653 -0.072393574 0.024746357
-0.009165264 -0.1403329 -0.18046953 -0.21594422 0.051453184 0.024623383 0.003471512 0.051174115
-0.01497049 -0.016368331 0.037750408 -0.039868467 -0.06342793 -0.058648076 0.04467688 -0.09985894
-0.10176033 0.06282328 0.022809377 -0.13679378 -0.043773588 -0.07262251 -0.04715357 -0.015546966
0.024855142 0.01143441 -0.023216968 0.0111605935 0.010036377 -0.118206404 -0.15716574 -0.06519251
-0.04187799 0.020852223 -0.10977501 -0.19529168 -0.21908842 0.04370224 0.009392283 -0.021321662
-0.05763932 -0.038785096 -0.049165387 0.048445076 -0.14824067 -0.082766 -0.23140498 -0.024896152
-0.0536339 -0.08366956 -0.072794706 -0.041447237 -0.041766685 -0.030345514 1.8018554e-05 -0.00063815434

conv4.0.bias f4 [32]
00000000: e86a 52bf bd57 d4bf 08f1 dcbf 4e2a 32c0
00000010: 64e0 dabf 7707 07c0 81de 11c0 10a0 d6bf
00000020: 8126 b8bf 7727 0cc0 07c6 2dc0 99b4 02c0
00000030: a33d 76bf 781e a1bf 9faf 82bb 7850 dbbf
00000040: ed80 09c0 379c 7abf 7434 1ac0 b163 2ec0
00000050: bef2 d1bf c6ff e1bf 6d9d e5bf 4be4 39c0
00000060: 5bf3 f7bf d9e0 08bd e45b f6bf c55f 07c0
00000070: 561a 01c0 ddb1 b2bf 3485 13c0 8de4 edbf
-0.82194376 -1.6589276 -1.7261057 -2.783832 -1.7099729 -2.1098306 -2.2792056 -1.6767597
-1.438675 -2.1899087 -2.7152116 -2.0422728 -0.961878 -1.2587423 -0.003988221 -1.7133932
-2.148494 -0.97894615 -2.4094515 -2.7248347 -1.6402204 -1.7656181 -1.7938668 -2.904559
-1.9371141 -0.033417556 -1.9246793 -2.1152203 -2.0172324 -1.396053 -2.305005 -1.8585373

head.1.weight f4 [11, 192]
00000000: 83b3 bcbf 4331 08c0 ed81 1cc0 4bd2 1ac0
00000010: 6e23 0fc0 7f4c 46c0 c7b5 f2bf 6f5b 91bf
00000020: 4f2a 9cbf b546 63bf 29fb 88bf d769 86bf
00000030: 8a50 b6bf b4cd d8bf 5d01 dcbe 5a96 9bbf
00000040: cee2 80bf 67e4 4dbf fc8f c6bf 11b2 d4bf
00000050: 9378 f1bf 4104 55bf f6e7 c5bf 170a 03c0
00000060: c863 75bf aaff dfbf b750 fbbf 4566 cdbf
00000070: fcbc aebf 50d1 e7bf ee24 cdbf 8f11 95bf
00000080: 1e2b abbf c421 9bbf 04a6 b3bf 4959 84bf
00000090: 9862 c0bf 8f7d adbf d65f cbbf 3b1c c2bf
000000a0: 525d 99bf 793f b6bf 871a 6cc0 295a 5fc0
000000b0: d7e6 88c0 71c9 ffbf a663 c7bf 84ab d6bf
000000c0: 1d02 afbf d0f0 a0bf 88ca b3bf fef8 eebf
000000d0: 990e ccbf b94e e0bf 3864 8fbf 6c06 aebf
000000e0: 832e dfbf 7419 cbbf 131a dfbf da01 adbf
000000f0: 2ff7 1cc0 77ef 25c0 1787 02c0 b2f5 e1bf
00000100: e64c bfbf bb3b c8bf e0c4 05c0 e407 d6bf
00000110: 6a41 60bf 952c 1dbf ceea 3abf 0bee 66bf
00000120: 8d8d 98bf 4069 6fbf 4108 48bf 5f19 debf
00000130: cdd9 b8bf f00d 54bf ade6 debf dd34 d5bf
00000140: e143 f4bf dbea f6bf 633e 07c0 8072 11c0
00000150: d615 5fc0 d29d 12c0 a656 99bf 958f 95c0
00000160: 1838 76c0 1fb1 8bc0 b924 76bf a849 edbf
00000170: 243a 0fc0 20b9 05c0 7123 4bc0 0a24 05c0
00000180: 8895 babf 1f6e 07c0 530a 23c0 b1ee 3cc0
00000190: 29a2 25c0 39e1 34c0 f4c6 bdbf a9b7 b1bf
000001a0: f3ad 5bbf 9fd7 c8bf 0c3e c3bf 99be e1bf
000001b0: f479 c8bf c368 9fbf 3506 c3bf 50a6 b6bf
000001c0: 10dc 74bf b795 42bf f90a 98bf 48f2 bdbf
000001d0: f64a d4bf 6226 7abf 41e6 cebf c054 d7bf
000001e0: a6d7 b9bf a3d5 46bf 715f a5bf 3c7e febf
000001f0: 4160 f2bf 33af 03c0 6df3 76bf a2c2 8abf
00000200: de57 6bbf f69c 62bf dc7c b5bf 3988 e1bf
00000210: 10a4 07c0 319a 01c0 ea25 ebbf 65ca afbf
00000220: 650f d5bf c915 a9bf e9db c6bf abfe cbbf
00000230: 4ab1 e0bf 3d91 06c0 8337 b6bf 48ad b5bf
00000240: 4c57 c8bf c4c1 60bf 7962 82bf 7242 9dbf
00000250: 367c 99bf f597 76bf d236 4fbf 5c6b 07c0
00000260: 1736 91c0 9ef9 a0c0 f32c bdc0 1769 e3c0
00000270: f6f5 d8bf b197 a9bf 8b44 fbbf 7e84 07c0
00000280: 5def d6bf ad14 e7bf 5915 c3bf d61b 81bf
00000290: dfaf b4bf 9626 1bc0 7648 07c0 8838 18c0
000002a0: b7fc bcbf 31ed 99bf dcd8 9ebf 9a61 dfbf
000002b0: 81bc b7bf 14c1 dabf e7a1 b8bf af55 d9bf
000002c0: a0c8 18c0 d24f bfbf 5fe6 f0bf da64 21c0
000002d0: 2bfe 50c0 4a3e 1ac0 128a e9bf 4a6a b7bf
000002e0: 05dc cbbf 9fea 0dc0 bcfc a7bf 30d8 45bf
000002f0: 18b7 a4bf 57dc dfbf c4af 9bbf c263 a8bf
00000300: 174a c0bf 3674 fabf 92ea eebf 681e 0ac0
00000310: ab39 09c0 48d3 43c0 5750 e1bf 7dd9 8fbf
00000320: cfc2 91bf 0911 82bf 86c9 83bf 41b4 90bf
00000330: 143d d3bf 22c5 c1bf 7b11 93bf 2013 8cbf
00000340: d587 80bf bff8 49bf cf77 edbf e558 02c0
00000350: ad29 0ec0 ff8a d8bf 53fe a9bf dbff febf
00000360: 6043 c2bf 8a3d e3bf d02a b1bf 732d d7bf
00000370: f433 b9bf 4e93 06c0 a94d 8ebf 7657 bcbf
00000380: c3d5 82bf e155 a9bf 69cf b7bf faba 9dbf
00000390: 64ce c8bf cfd0 b1bf ff54 cebf e295 bdbf
000003a0: 34a0 a5bf 7c22 b6bf 692b 82c0 0d31 1fc0
000003b0: c1e1 c4bf ed89 18c0 fa5a d4bf 4015 fabf
000003c0: da4e 1dc0 041c cfbf ffb4 bbbf 7235 f2bf
000003d0: 9240 cdbf 877c d0bf a64f 7dbf 921f 9abf
000003e0: d43e c3bf b9ff e2bf 7c92 f0bf 6521 b9bf
000003f0: 1fe9 46c0 a748 16c0 1e1f 1ec0 09a9 09c0
-1.4742283 -2.1280067 -2.44543 -2.4190853 -2.2365375 -3.098419 -1.8961724 -1.1356028
-1.2200412 -0.88779765 -1.0701648 -1.050105 -1.4243329 -1.6937776 -0.4296979 -1.2155259
-1.0069215 -0.8042664 -1.551269 -1.6616842 -1.8864921 -0.83209616 -1.5461414 -2.0474908
-0.9585538 -1.7499897 -1.9634007 -1.6046835 -1.3651423 -1.8110752 -1.6026895 -1.1645983
-1.3372533 -1.211968 -1.4035039 -1.0339748 -1.5030088 -1.3553942 -1.5888622 -1.5164865
-1.1981604 -1.423812 -3.689119 -3.489878 -4.2781787 -1.998335 -1.5577285 -1.6771092
-1.367252 -1.257349 -1.4046183 -1.8669736 -1.5941955 -1.7524024 -1.1202459 -1.359571
-1.7436069 -1.5867143 -1.7429832 -1.351619 -2.452587 -2.5927408 -2.0394952 -1.7653105
-1.4945343 -1.5643228 -2.0901413 -1.6721158 -0.87599814 -0.6139615 -0.73014534 -0.90206975
-1.1918198 -0.93519974 -0.78137594 -1.7351493 -1.4441468 -0.82833767 -1.7414147 -1.6656758
-1.9083215 -1.9290422 -2.1131828 -2.2726135 -3.4857078 -2.2908826 -1.1979568 -4.673777
-3.8471737 -4.365371 -0.96149784 -1.8538103 -2.2379236 -2.0894241 -3.1740382 -2.0803246
-1.4576883 -2.1160963 -2.5475051 -2.9520686 -2.5880225 -2.8262465 -1.4826341 -1.3884174
-0.858123 -1.5690802 -1.525331 -1.7636291 -1.5662217 -1.2453846 -1.5236269 -1.4269505
-0.9564829 -0.76009697 -1.1878349 -1.4839563 -1.6585376 -0.9771482 -1.6164018 -1.6822739
-1.4518936 -0.77669734 -1.2919751 -1.9882274 -1.8935624 -2.0575683 -0.9646519 -1.0840647
-0.9193095 -0.88520753 -1.4178729 -1.7619697 -2.1193886 -2.025036 -1.8370945 -1.3733641
-1.6645323 -1.3209773 -1.5535861 -1.5937093 -1.7554104 -2.1026146 -1.4235691 -1.4193506
-1.5651641 -0.8779566 -1.0186301 -1.2285903 -1.1991031 -0.9632562 -0.80943024 -2.1159277
-4.537853 -5.030471 -5.911737 -7.1065784 -1.6950061 -1.3249418 -1.9630293 -2.1174617
-1.6791798 -1.8053185 -1.524089 -1.008662 -1.4116172 -2.42423 -2.1137977 -2.3784504
-1.4764622 -1.202551 -1.240993 -1.7451661 -1.4354402 -1.7090173 -1.4424409 -1.6979274
-2.3872452 -1.4946234 -1.8820304 -2.5217805 -3.2655132 -2.4100518 -1.8245261 -1.4329312
-1.592652 -2.2174451 -1.3124003 -0.77283 -1.2868376 -1.7489117 -1.2163014 -1.3155444
-1.502261 -1.9566715 -1.8665335 -2.1581059 -2.1441448 -3.0597706 -1.7602643 -1.1238247
-1.1387576 -1.0161449 -1.0295875 -1.1305009 -1.6503015 -1.5138285 -1.148971 -1.0943336
-1.0041453 -0.7889518 -1.8552188 -2.0366757 -2.2212937 -1.6917418 -1.3280739 -1.9921831
-1.5176811 -1.7753155 -1.384119 -1.6810745 -1.446898 -2.1027408 -1.111745 -1.4714191
-1.0221485 -1.3229333 -1.4360172 -1.2322686 -1.5687985 -1.3891848 -1.6119689 -1.4811366
-1.2939515 -1.4229274 -4.067799 -2.4873688 -1.5381395 -2.3834183 -1.6590264 -1.9537735
-2.4579377 -1.6180425 -1.4664611 -1.892256 -1.603533 -1.6288003 -0.9894966 -1.2040884
-1.5253549 -1.773429 -1.8794703 -1.4463316 -3.1079786 -2.3481843 -2.4706492 -2.150942

head.1.bias f4 [11]
00000000: 2402 05c0 71d6 cfbf ef3f adbf 607a 92bf
00000010: 83fa 47bf 05a1 0bbf 023f 78be 28c9 ebbd
00000020: 703b 153b 92b8 ed3c 21cf a23d
-2.0782557 -1.6237317 -1.3535136 -1.1443596 -0.78116626 -0.5454257 -0.24242786 -0.11512977
0.0022771023 0.029018674 0.07949663
